{
  "nodes": [
    {
      "op": "null", 
      "name": "target", 
      "inputs": []
    }, 
    {
      "op": "null", 
      "name": "target_embed_weight", 
      "attrs": {"__shape__": "(1152, 32)"}, 
      "inputs": []
    }, 
    {
      "op": "Embedding", 
      "name": "target_embed_embed", 
      "attrs": {
        "input_dim": "1152", 
        "output_dim": "32"
      }, 
      "inputs": [[0, 0, 0], [1, 0, 0]]
    }, 
    {
      "op": "SliceChannel", 
      "name": "split3", 
      "attrs": {
        "axis": "1", 
        "num_outputs": "101", 
        "squeeze_axis": "True"
      }, 
      "inputs": [[2, 0, 0]]
    }, 
    {
      "op": "null", 
      "name": "source", 
      "inputs": []
    }, 
    {
      "op": "SliceChannel", 
      "name": "split0", 
      "attrs": {
        "axis": "2", 
        "num_outputs": "1", 
        "squeeze_axis": "True"
      }, 
      "inputs": [[4, 0, 0]]
    }, 
    {
      "op": "_not_equal_scalar", 
      "name": "_not_equal_scalar0", 
      "attrs": {"scalar": "0"}, 
      "inputs": [[5, 0, 0]]
    }, 
    {
      "op": "sum", 
      "name": "sum0", 
      "attrs": {"axis": "1"}, 
      "inputs": [[6, 0, 0]]
    }, 
    {
      "op": "zeros_like", 
      "name": "zeros_like1", 
      "inputs": [[7, 0, 0]]
    }, 
    {
      "op": "expand_dims", 
      "name": "expand_dims303", 
      "attrs": {"axis": "1"}, 
      "inputs": [[8, 0, 0]]
    }, 
    {
      "op": "tile", 
      "name": "tile0", 
      "attrs": {"reps": "(1, 512)"}, 
      "inputs": [[9, 0, 0]]
    }, 
    {
      "op": "Concat", 
      "name": "decoder_rnn_concat_target_context_t0", 
      "attrs": {
        "dim": "1", 
        "num_args": "2"
      }, 
      "inputs": [[3, 0, 0], [10, 0, 0]]
    }, 
    {
      "op": "null", 
      "name": "decoder_rnn_l0_i2h_weight", 
      "inputs": []
    }, 
    {
      "op": "null", 
      "name": "decoder_rnn_l0_i2h_bias", 
      "attrs": {"__init__": "[\"lstmbias\", {\"forget_bias\": 0.0}]"}, 
      "inputs": []
    }, 
    {
      "op": "FullyConnected", 
      "name": "decoder_rnn_l0_t0_i2h", 
      "attrs": {"num_hidden": "2048"}, 
      "inputs": [[11, 0, 0], [12, 0, 0], [13, 0, 0]]
    }, 
    {
      "op": "SliceChannel", 
      "name": "source_embed_factor_split", 
      "attrs": {
        "axis": "2", 
        "num_outputs": "1", 
        "squeeze_axis": "True"
      }, 
      "inputs": [[4, 0, 0]]
    }, 
    {
      "op": "null", 
      "name": "source_embed_weight", 
      "attrs": {"__shape__": "(1069, 32)"}, 
      "inputs": []
    }, 
    {
      "op": "Embedding", 
      "name": "source_embed_embed", 
      "attrs": {
        "input_dim": "1069", 
        "output_dim": "32"
      }, 
      "inputs": [[15, 0, 0], [16, 0, 0]]
    }, 
    {
      "op": "SwapAxis", 
      "name": "swapaxes0", 
      "attrs": {
        "__layout__": "TNC", 
        "dim1": "0", 
        "dim2": "1"
      }, 
      "inputs": [[17, 0, 0]]
    }, 
    {
      "op": "SliceChannel", 
      "name": "split0", 
      "attrs": {
        "axis": "0", 
        "num_outputs": "101", 
        "squeeze_axis": "1"
      }, 
      "inputs": [[18, 0, 0]]
    }, 
    {
      "op": "null", 
      "name": "encoder_birnn_forward_l0_i2h_weight", 
      "inputs": []
    }, 
    {
      "op": "null", 
      "name": "encoder_birnn_forward_l0_i2h_bias", 
      "attrs": {"__init__": "[\"lstmbias\", {\"forget_bias\": 0.0}]"}, 
      "inputs": []
    }, 
    {
      "op": "FullyConnected", 
      "name": "encoder_birnn_forward_l0_t0_i2h", 
      "attrs": {"num_hidden": "1024"}, 
      "inputs": [[19, 0, 0], [20, 0, 0], [21, 0, 0]]
    }, 
    {
      "op": "_zeros", 
      "name": "encoder_birnn_forward_l0_begin_state_0", 
      "attrs": {
        "__layout__": "NC", 
        "dtype": "float32", 
        "shape": "(0, 256)"
      }, 
      "inputs": []
    }, 
    {
      "op": "null", 
      "name": "encoder_birnn_forward_l0_h2h_weight", 
      "inputs": []
    }, 
    {
      "op": "null", 
      "name": "encoder_birnn_forward_l0_h2h_bias", 
      "inputs": []
    }, 
    {
      "op": "FullyConnected", 
      "name": "encoder_birnn_forward_l0_t0_h2h", 
      "attrs": {"num_hidden": "1024"}, 
      "inputs": [[23, 0, 0], [24, 0, 0], [25, 0, 0]]
    }, 
    {
      "op": "elemwise_add", 
      "name": "_plus0", 
      "inputs": [[22, 0, 0], [26, 0, 0]]
    }, 
    {
      "op": "SliceChannel", 
      "name": "encoder_birnn_forward_l0_t0_slice", 
      "attrs": {"num_outputs": "4"}, 
      "inputs": [[27, 0, 0]]
    }, 
    {
      "op": "Activation", 
      "name": "encoder_birnn_forward_l0_t0_o", 
      "attrs": {"act_type": "sigmoid"}, 
      "inputs": [[28, 3, 0]]
    }, 
    {
      "op": "Activation", 
      "name": "encoder_birnn_forward_l0_t0_f", 
      "attrs": {"act_type": "sigmoid"}, 
      "inputs": [[28, 1, 0]]
    }, 
    {
      "op": "_zeros", 
      "name": "encoder_birnn_forward_l0_begin_state_1", 
      "attrs": {
        "__layout__": "NC", 
        "dtype": "float32", 
        "shape": "(0, 256)"
      }, 
      "inputs": []
    }, 
    {
      "op": "elemwise_mul", 
      "name": "_mul0", 
      "inputs": [[30, 0, 0], [31, 0, 0]]
    }, 
    {
      "op": "Activation", 
      "name": "encoder_birnn_forward_l0_t0_i", 
      "attrs": {"act_type": "sigmoid"}, 
      "inputs": [[28, 0, 0]]
    }, 
    {
      "op": "Activation", 
      "name": "encoder_birnn_forward_l0_t0_c", 
      "attrs": {"act_type": "tanh"}, 
      "inputs": [[28, 2, 0]]
    }, 
    {
      "op": "elemwise_mul", 
      "name": "_mul1", 
      "inputs": [[33, 0, 0], [34, 0, 0]]
    }, 
    {
      "op": "elemwise_add", 
      "name": "encoder_birnn_forward_l0_t0_state", 
      "inputs": [[32, 0, 0], [35, 0, 0]]
    }, 
    {
      "op": "Activation", 
      "name": "activation0", 
      "attrs": {"act_type": "tanh"}, 
      "inputs": [[36, 0, 0]]
    }, 
    {
      "op": "elemwise_mul", 
      "name": "encoder_birnn_forward_l0_t0_out", 
      "inputs": [[29, 0, 0], [37, 0, 0]]
    }, 
    {
      "op": "expand_dims", 
      "name": "expand_dims0", 
      "attrs": {"axis": "0"}, 
      "inputs": [[38, 0, 0]]
    }, 
    {
      "op": "FullyConnected", 
      "name": "encoder_birnn_forward_l0_t1_i2h", 
      "attrs": {"num_hidden": "1024"}, 
      "inputs": [[19, 1, 0], [20, 0, 0], [21, 0, 0]]
    }, 
    {
      "op": "FullyConnected", 
      "name": "encoder_birnn_forward_l0_t1_h2h", 
      "attrs": {"num_hidden": "1024"}, 
      "inputs": [[38, 0, 0], [24, 0, 0], [25, 0, 0]]
    }, 
    {
      "op": "elemwise_add", 
      "name": "_plus1", 
      "inputs": [[40, 0, 0], [41, 0, 0]]
    }, 
    {
      "op": "SliceChannel", 
      "name": "encoder_birnn_forward_l0_t1_slice", 
      "attrs": {"num_outputs": "4"}, 
      "inputs": [[42, 0, 0]]
    }, 
    {
      "op": "Activation", 
      "name": "encoder_birnn_forward_l0_t1_o", 
      "attrs": {"act_type": "sigmoid"}, 
      "inputs": [[43, 3, 0]]
    }, 
    {
      "op": "Activation", 
      "name": "encoder_birnn_forward_l0_t1_f", 
      "attrs": {"act_type": "sigmoid"}, 
      "inputs": [[43, 1, 0]]
    }, 
    {
      "op": "elemwise_mul", 
      "name": "_mul2", 
      "inputs": [[45, 0, 0], [36, 0, 0]]
    }, 
    {
      "op": "Activation", 
      "name": "encoder_birnn_forward_l0_t1_i", 
      "attrs": {"act_type": "sigmoid"}, 
      "inputs": [[43, 0, 0]]
    }, 
    {
      "op": "Activation", 
      "name": "encoder_birnn_forward_l0_t1_c", 
      "attrs": {"act_type": "tanh"}, 
      "inputs": [[43, 2, 0]]
    }, 
    {
      "op": "elemwise_mul", 
      "name": "_mul3", 
      "inputs": [[47, 0, 0], [48, 0, 0]]
    }, 
    {
      "op": "elemwise_add", 
      "name": "encoder_birnn_forward_l0_t1_state", 
      "inputs": [[46, 0, 0], [49, 0, 0]]
    }, 
    {
      "op": "Activation", 
      "name": "activation1", 
      "attrs": {"act_type": "tanh"}, 
      "inputs": [[50, 0, 0]]
    }, 
    {
      "op": "elemwise_mul", 
      "name": "encoder_birnn_forward_l0_t1_out", 
      "inputs": [[44, 0, 0], [51, 0, 0]]
    }, 
    {
      "op": "expand_dims", 
      "name": "expand_dims1", 
      "attrs": {"axis": "0"}, 
      "inputs": [[52, 0, 0]]
    }, 
    {
      "op": "FullyConnected", 
      "name": "encoder_birnn_forward_l0_t2_i2h", 
      "attrs": {"num_hidden": "1024"}, 
      "inputs": [[19, 2, 0], [20, 0, 0], [21, 0, 0]]
    }, 
    {
      "op": "FullyConnected", 
      "name": "encoder_birnn_forward_l0_t2_h2h", 
      "attrs": {"num_hidden": "1024"}, 
      "inputs": [[52, 0, 0], [24, 0, 0], [25, 0, 0]]
    }, 
    {
      "op": "elemwise_add", 
      "name": "_plus2", 
      "inputs": [[54, 0, 0], [55, 0, 0]]
    }, 
    {
      "op": "SliceChannel", 
      "name": "encoder_birnn_forward_l0_t2_slice", 
      "attrs": {"num_outputs": "4"}, 
      "inputs": [[56, 0, 0]]
    }, 
    {
      "op": "Activation", 
      "name": "encoder_birnn_forward_l0_t2_o", 
      "attrs": {"act_type": "sigmoid"}, 
      "inputs": [[57, 3, 0]]
    }, 
    {
      "op": "Activation", 
      "name": "encoder_birnn_forward_l0_t2_f", 
      "attrs": {"act_type": "sigmoid"}, 
      "inputs": [[57, 1, 0]]
    }, 
    {
      "op": "elemwise_mul", 
      "name": "_mul4", 
      "inputs": [[59, 0, 0], [50, 0, 0]]
    }, 
    {
      "op": "Activation", 
      "name": "encoder_birnn_forward_l0_t2_i", 
      "attrs": {"act_type": "sigmoid"}, 
      "inputs": [[57, 0, 0]]
    }, 
    {
      "op": "Activation", 
      "name": "encoder_birnn_forward_l0_t2_c", 
      "attrs": {"act_type": "tanh"}, 
      "inputs": [[57, 2, 0]]
    }, 
    {
      "op": "elemwise_mul", 
      "name": "_mul5", 
      "inputs": [[61, 0, 0], [62, 0, 0]]
    }, 
    {
      "op": "elemwise_add", 
      "name": "encoder_birnn_forward_l0_t2_state", 
      "inputs": [[60, 0, 0], [63, 0, 0]]
    }, 
    {
      "op": "Activation", 
      "name": "activation2", 
      "attrs": {"act_type": "tanh"}, 
      "inputs": [[64, 0, 0]]
    }, 
    {
      "op": "elemwise_mul", 
      "name": "encoder_birnn_forward_l0_t2_out", 
      "inputs": [[58, 0, 0], [65, 0, 0]]
    }, 
    {
      "op": "expand_dims", 
      "name": "expand_dims2", 
      "attrs": {"axis": "0"}, 
      "inputs": [[66, 0, 0]]
    }, 
    {
      "op": "FullyConnected", 
      "name": "encoder_birnn_forward_l0_t3_i2h", 
      "attrs": {"num_hidden": "1024"}, 
      "inputs": [[19, 3, 0], [20, 0, 0], [21, 0, 0]]
    }, 
    {
      "op": "FullyConnected", 
      "name": "encoder_birnn_forward_l0_t3_h2h", 
      "attrs": {"num_hidden": "1024"}, 
      "inputs": [[66, 0, 0], [24, 0, 0], [25, 0, 0]]
    }, 
    {
      "op": "elemwise_add", 
      "name": "_plus3", 
      "inputs": [[68, 0, 0], [69, 0, 0]]
    }, 
    {
      "op": "SliceChannel", 
      "name": "encoder_birnn_forward_l0_t3_slice", 
      "attrs": {"num_outputs": "4"}, 
      "inputs": [[70, 0, 0]]
    }, 
    {
      "op": "Activation", 
      "name": "encoder_birnn_forward_l0_t3_o", 
      "attrs": {"act_type": "sigmoid"}, 
      "inputs": [[71, 3, 0]]
    }, 
    {
      "op": "Activation", 
      "name": "encoder_birnn_forward_l0_t3_f", 
      "attrs": {"act_type": "sigmoid"}, 
      "inputs": [[71, 1, 0]]
    }, 
    {
      "op": "elemwise_mul", 
      "name": "_mul6", 
      "inputs": [[73, 0, 0], [64, 0, 0]]
    }, 
    {
      "op": "Activation", 
      "name": "encoder_birnn_forward_l0_t3_i", 
      "attrs": {"act_type": "sigmoid"}, 
      "inputs": [[71, 0, 0]]
    }, 
    {
      "op": "Activation", 
      "name": "encoder_birnn_forward_l0_t3_c", 
      "attrs": {"act_type": "tanh"}, 
      "inputs": [[71, 2, 0]]
    }, 
    {
      "op": "elemwise_mul", 
      "name": "_mul7", 
      "inputs": [[75, 0, 0], [76, 0, 0]]
    }, 
    {
      "op": "elemwise_add", 
      "name": "encoder_birnn_forward_l0_t3_state", 
      "inputs": [[74, 0, 0], [77, 0, 0]]
    }, 
    {
      "op": "Activation", 
      "name": "activation3", 
      "attrs": {"act_type": "tanh"}, 
      "inputs": [[78, 0, 0]]
    }, 
    {
      "op": "elemwise_mul", 
      "name": "encoder_birnn_forward_l0_t3_out", 
      "inputs": [[72, 0, 0], [79, 0, 0]]
    }, 
    {
      "op": "expand_dims", 
      "name": "expand_dims3", 
      "attrs": {"axis": "0"}, 
      "inputs": [[80, 0, 0]]
    }, 
    {
      "op": "FullyConnected", 
      "name": "encoder_birnn_forward_l0_t4_i2h", 
      "attrs": {"num_hidden": "1024"}, 
      "inputs": [[19, 4, 0], [20, 0, 0], [21, 0, 0]]
    }, 
    {
      "op": "FullyConnected", 
      "name": "encoder_birnn_forward_l0_t4_h2h", 
      "attrs": {"num_hidden": "1024"}, 
      "inputs": [[80, 0, 0], [24, 0, 0], [25, 0, 0]]
    }, 
    {
      "op": "elemwise_add", 
      "name": "_plus4", 
      "inputs": [[82, 0, 0], [83, 0, 0]]
    }, 
    {
      "op": "SliceChannel", 
      "name": "encoder_birnn_forward_l0_t4_slice", 
      "attrs": {"num_outputs": "4"}, 
      "inputs": [[84, 0, 0]]
    }, 
    {
      "op": "Activation", 
      "name": "encoder_birnn_forward_l0_t4_o", 
      "attrs": {"act_type": "sigmoid"}, 
      "inputs": [[85, 3, 0]]
    }, 
    {
      "op": "Activation", 
      "name": "encoder_birnn_forward_l0_t4_f", 
      "attrs": {"act_type": "sigmoid"}, 
      "inputs": [[85, 1, 0]]
    }, 
    {
      "op": "elemwise_mul", 
      "name": "_mul8", 
      "inputs": [[87, 0, 0], [78, 0, 0]]
    }, 
    {
      "op": "Activation", 
      "name": "encoder_birnn_forward_l0_t4_i", 
      "attrs": {"act_type": "sigmoid"}, 
      "inputs": [[85, 0, 0]]
    }, 
    {
      "op": "Activation", 
      "name": "encoder_birnn_forward_l0_t4_c", 
      "attrs": {"act_type": "tanh"}, 
      "inputs": [[85, 2, 0]]
    }, 
    {
      "op": "elemwise_mul", 
      "name": "_mul9", 
      "inputs": [[89, 0, 0], [90, 0, 0]]
    }, 
    {
      "op": "elemwise_add", 
      "name": "encoder_birnn_forward_l0_t4_state", 
      "inputs": [[88, 0, 0], [91, 0, 0]]
    }, 
    {
      "op": "Activation", 
      "name": "activation4", 
      "attrs": {"act_type": "tanh"}, 
      "inputs": [[92, 0, 0]]
    }, 
    {
      "op": "elemwise_mul", 
      "name": "encoder_birnn_forward_l0_t4_out", 
      "inputs": [[86, 0, 0], [93, 0, 0]]
    }, 
    {
      "op": "expand_dims", 
      "name": "expand_dims4", 
      "attrs": {"axis": "0"}, 
      "inputs": [[94, 0, 0]]
    }, 
    {
      "op": "FullyConnected", 
      "name": "encoder_birnn_forward_l0_t5_i2h", 
      "attrs": {"num_hidden": "1024"}, 
      "inputs": [[19, 5, 0], [20, 0, 0], [21, 0, 0]]
    }, 
    {
      "op": "FullyConnected", 
      "name": "encoder_birnn_forward_l0_t5_h2h", 
      "attrs": {"num_hidden": "1024"}, 
      "inputs": [[94, 0, 0], [24, 0, 0], [25, 0, 0]]
    }, 
    {
      "op": "elemwise_add", 
      "name": "_plus5", 
      "inputs": [[96, 0, 0], [97, 0, 0]]
    }, 
    {
      "op": "SliceChannel", 
      "name": "encoder_birnn_forward_l0_t5_slice", 
      "attrs": {"num_outputs": "4"}, 
      "inputs": [[98, 0, 0]]
    }, 
    {
      "op": "Activation", 
      "name": "encoder_birnn_forward_l0_t5_o", 
      "attrs": {"act_type": "sigmoid"}, 
      "inputs": [[99, 3, 0]]
    }, 
    {
      "op": "Activation", 
      "name": "encoder_birnn_forward_l0_t5_f", 
      "attrs": {"act_type": "sigmoid"}, 
      "inputs": [[99, 1, 0]]
    }, 
    {
      "op": "elemwise_mul", 
      "name": "_mul10", 
      "inputs": [[101, 0, 0], [92, 0, 0]]
    }, 
    {
      "op": "Activation", 
      "name": "encoder_birnn_forward_l0_t5_i", 
      "attrs": {"act_type": "sigmoid"}, 
      "inputs": [[99, 0, 0]]
    }, 
    {
      "op": "Activation", 
      "name": "encoder_birnn_forward_l0_t5_c", 
      "attrs": {"act_type": "tanh"}, 
      "inputs": [[99, 2, 0]]
    }, 
    {
      "op": "elemwise_mul", 
      "name": "_mul11", 
      "inputs": [[103, 0, 0], [104, 0, 0]]
    }, 
    {
      "op": "elemwise_add", 
      "name": "encoder_birnn_forward_l0_t5_state", 
      "inputs": [[102, 0, 0], [105, 0, 0]]
    }, 
    {
      "op": "Activation", 
      "name": "activation5", 
      "attrs": {"act_type": "tanh"}, 
      "inputs": [[106, 0, 0]]
    }, 
    {
      "op": "elemwise_mul", 
      "name": "encoder_birnn_forward_l0_t5_out", 
      "inputs": [[100, 0, 0], [107, 0, 0]]
    }, 
    {
      "op": "expand_dims", 
      "name": "expand_dims5", 
      "attrs": {"axis": "0"}, 
      "inputs": [[108, 0, 0]]
    }, 
    {
      "op": "FullyConnected", 
      "name": "encoder_birnn_forward_l0_t6_i2h", 
      "attrs": {"num_hidden": "1024"}, 
      "inputs": [[19, 6, 0], [20, 0, 0], [21, 0, 0]]
    }, 
    {
      "op": "FullyConnected", 
      "name": "encoder_birnn_forward_l0_t6_h2h", 
      "attrs": {"num_hidden": "1024"}, 
      "inputs": [[108, 0, 0], [24, 0, 0], [25, 0, 0]]
    }, 
    {
      "op": "elemwise_add", 
      "name": "_plus6", 
      "inputs": [[110, 0, 0], [111, 0, 0]]
    }, 
    {
      "op": "SliceChannel", 
      "name": "encoder_birnn_forward_l0_t6_slice", 
      "attrs": {"num_outputs": "4"}, 
      "inputs": [[112, 0, 0]]
    }, 
    {
      "op": "Activation", 
      "name": "encoder_birnn_forward_l0_t6_o", 
      "attrs": {"act_type": "sigmoid"}, 
      "inputs": [[113, 3, 0]]
    }, 
    {
      "op": "Activation", 
      "name": "encoder_birnn_forward_l0_t6_f", 
      "attrs": {"act_type": "sigmoid"}, 
      "inputs": [[113, 1, 0]]
    }, 
    {
      "op": "elemwise_mul", 
      "name": "_mul12", 
      "inputs": [[115, 0, 0], [106, 0, 0]]
    }, 
    {
      "op": "Activation", 
      "name": "encoder_birnn_forward_l0_t6_i", 
      "attrs": {"act_type": "sigmoid"}, 
      "inputs": [[113, 0, 0]]
    }, 
    {
      "op": "Activation", 
      "name": "encoder_birnn_forward_l0_t6_c", 
      "attrs": {"act_type": "tanh"}, 
      "inputs": [[113, 2, 0]]
    }, 
    {
      "op": "elemwise_mul", 
      "name": "_mul13", 
      "inputs": [[117, 0, 0], [118, 0, 0]]
    }, 
    {
      "op": "elemwise_add", 
      "name": "encoder_birnn_forward_l0_t6_state", 
      "inputs": [[116, 0, 0], [119, 0, 0]]
    }, 
    {
      "op": "Activation", 
      "name": "activation6", 
      "attrs": {"act_type": "tanh"}, 
      "inputs": [[120, 0, 0]]
    }, 
    {
      "op": "elemwise_mul", 
      "name": "encoder_birnn_forward_l0_t6_out", 
      "inputs": [[114, 0, 0], [121, 0, 0]]
    }, 
    {
      "op": "expand_dims", 
      "name": "expand_dims6", 
      "attrs": {"axis": "0"}, 
      "inputs": [[122, 0, 0]]
    }, 
    {
      "op": "FullyConnected", 
      "name": "encoder_birnn_forward_l0_t7_i2h", 
      "attrs": {"num_hidden": "1024"}, 
      "inputs": [[19, 7, 0], [20, 0, 0], [21, 0, 0]]
    }, 
    {
      "op": "FullyConnected", 
      "name": "encoder_birnn_forward_l0_t7_h2h", 
      "attrs": {"num_hidden": "1024"}, 
      "inputs": [[122, 0, 0], [24, 0, 0], [25, 0, 0]]
    }, 
    {
      "op": "elemwise_add", 
      "name": "_plus7", 
      "inputs": [[124, 0, 0], [125, 0, 0]]
    }, 
    {
      "op": "SliceChannel", 
      "name": "encoder_birnn_forward_l0_t7_slice", 
      "attrs": {"num_outputs": "4"}, 
      "inputs": [[126, 0, 0]]
    }, 
    {
      "op": "Activation", 
      "name": "encoder_birnn_forward_l0_t7_o", 
      "attrs": {"act_type": "sigmoid"}, 
      "inputs": [[127, 3, 0]]
    }, 
    {
      "op": "Activation", 
      "name": "encoder_birnn_forward_l0_t7_f", 
      "attrs": {"act_type": "sigmoid"}, 
      "inputs": [[127, 1, 0]]
    }, 
    {
      "op": "elemwise_mul", 
      "name": "_mul14", 
      "inputs": [[129, 0, 0], [120, 0, 0]]
    }, 
    {
      "op": "Activation", 
      "name": "encoder_birnn_forward_l0_t7_i", 
      "attrs": {"act_type": "sigmoid"}, 
      "inputs": [[127, 0, 0]]
    }, 
    {
      "op": "Activation", 
      "name": "encoder_birnn_forward_l0_t7_c", 
      "attrs": {"act_type": "tanh"}, 
      "inputs": [[127, 2, 0]]
    }, 
    {
      "op": "elemwise_mul", 
      "name": "_mul15", 
      "inputs": [[131, 0, 0], [132, 0, 0]]
    }, 
    {
      "op": "elemwise_add", 
      "name": "encoder_birnn_forward_l0_t7_state", 
      "inputs": [[130, 0, 0], [133, 0, 0]]
    }, 
    {
      "op": "Activation", 
      "name": "activation7", 
      "attrs": {"act_type": "tanh"}, 
      "inputs": [[134, 0, 0]]
    }, 
    {
      "op": "elemwise_mul", 
      "name": "encoder_birnn_forward_l0_t7_out", 
      "inputs": [[128, 0, 0], [135, 0, 0]]
    }, 
    {
      "op": "expand_dims", 
      "name": "expand_dims7", 
      "attrs": {"axis": "0"}, 
      "inputs": [[136, 0, 0]]
    }, 
    {
      "op": "FullyConnected", 
      "name": "encoder_birnn_forward_l0_t8_i2h", 
      "attrs": {"num_hidden": "1024"}, 
      "inputs": [[19, 8, 0], [20, 0, 0], [21, 0, 0]]
    }, 
    {
      "op": "FullyConnected", 
      "name": "encoder_birnn_forward_l0_t8_h2h", 
      "attrs": {"num_hidden": "1024"}, 
      "inputs": [[136, 0, 0], [24, 0, 0], [25, 0, 0]]
    }, 
    {
      "op": "elemwise_add", 
      "name": "_plus8", 
      "inputs": [[138, 0, 0], [139, 0, 0]]
    }, 
    {
      "op": "SliceChannel", 
      "name": "encoder_birnn_forward_l0_t8_slice", 
      "attrs": {"num_outputs": "4"}, 
      "inputs": [[140, 0, 0]]
    }, 
    {
      "op": "Activation", 
      "name": "encoder_birnn_forward_l0_t8_o", 
      "attrs": {"act_type": "sigmoid"}, 
      "inputs": [[141, 3, 0]]
    }, 
    {
      "op": "Activation", 
      "name": "encoder_birnn_forward_l0_t8_f", 
      "attrs": {"act_type": "sigmoid"}, 
      "inputs": [[141, 1, 0]]
    }, 
    {
      "op": "elemwise_mul", 
      "name": "_mul16", 
      "inputs": [[143, 0, 0], [134, 0, 0]]
    }, 
    {
      "op": "Activation", 
      "name": "encoder_birnn_forward_l0_t8_i", 
      "attrs": {"act_type": "sigmoid"}, 
      "inputs": [[141, 0, 0]]
    }, 
    {
      "op": "Activation", 
      "name": "encoder_birnn_forward_l0_t8_c", 
      "attrs": {"act_type": "tanh"}, 
      "inputs": [[141, 2, 0]]
    }, 
    {
      "op": "elemwise_mul", 
      "name": "_mul17", 
      "inputs": [[145, 0, 0], [146, 0, 0]]
    }, 
    {
      "op": "elemwise_add", 
      "name": "encoder_birnn_forward_l0_t8_state", 
      "inputs": [[144, 0, 0], [147, 0, 0]]
    }, 
    {
      "op": "Activation", 
      "name": "activation8", 
      "attrs": {"act_type": "tanh"}, 
      "inputs": [[148, 0, 0]]
    }, 
    {
      "op": "elemwise_mul", 
      "name": "encoder_birnn_forward_l0_t8_out", 
      "inputs": [[142, 0, 0], [149, 0, 0]]
    }, 
    {
      "op": "expand_dims", 
      "name": "expand_dims8", 
      "attrs": {"axis": "0"}, 
      "inputs": [[150, 0, 0]]
    }, 
    {
      "op": "FullyConnected", 
      "name": "encoder_birnn_forward_l0_t9_i2h", 
      "attrs": {"num_hidden": "1024"}, 
      "inputs": [[19, 9, 0], [20, 0, 0], [21, 0, 0]]
    }, 
    {
      "op": "FullyConnected", 
      "name": "encoder_birnn_forward_l0_t9_h2h", 
      "attrs": {"num_hidden": "1024"}, 
      "inputs": [[150, 0, 0], [24, 0, 0], [25, 0, 0]]
    }, 
    {
      "op": "elemwise_add", 
      "name": "_plus9", 
      "inputs": [[152, 0, 0], [153, 0, 0]]
    }, 
    {
      "op": "SliceChannel", 
      "name": "encoder_birnn_forward_l0_t9_slice", 
      "attrs": {"num_outputs": "4"}, 
      "inputs": [[154, 0, 0]]
    }, 
    {
      "op": "Activation", 
      "name": "encoder_birnn_forward_l0_t9_o", 
      "attrs": {"act_type": "sigmoid"}, 
      "inputs": [[155, 3, 0]]
    }, 
    {
      "op": "Activation", 
      "name": "encoder_birnn_forward_l0_t9_f", 
      "attrs": {"act_type": "sigmoid"}, 
      "inputs": [[155, 1, 0]]
    }, 
    {
      "op": "elemwise_mul", 
      "name": "_mul18", 
      "inputs": [[157, 0, 0], [148, 0, 0]]
    }, 
    {
      "op": "Activation", 
      "name": "encoder_birnn_forward_l0_t9_i", 
      "attrs": {"act_type": "sigmoid"}, 
      "inputs": [[155, 0, 0]]
    }, 
    {
      "op": "Activation", 
      "name": "encoder_birnn_forward_l0_t9_c", 
      "attrs": {"act_type": "tanh"}, 
      "inputs": [[155, 2, 0]]
    }, 
    {
      "op": "elemwise_mul", 
      "name": "_mul19", 
      "inputs": [[159, 0, 0], [160, 0, 0]]
    }, 
    {
      "op": "elemwise_add", 
      "name": "encoder_birnn_forward_l0_t9_state", 
      "inputs": [[158, 0, 0], [161, 0, 0]]
    }, 
    {
      "op": "Activation", 
      "name": "activation9", 
      "attrs": {"act_type": "tanh"}, 
      "inputs": [[162, 0, 0]]
    }, 
    {
      "op": "elemwise_mul", 
      "name": "encoder_birnn_forward_l0_t9_out", 
      "inputs": [[156, 0, 0], [163, 0, 0]]
    }, 
    {
      "op": "expand_dims", 
      "name": "expand_dims9", 
      "attrs": {"axis": "0"}, 
      "inputs": [[164, 0, 0]]
    }, 
    {
      "op": "FullyConnected", 
      "name": "encoder_birnn_forward_l0_t10_i2h", 
      "attrs": {"num_hidden": "1024"}, 
      "inputs": [[19, 10, 0], [20, 0, 0], [21, 0, 0]]
    }, 
    {
      "op": "FullyConnected", 
      "name": "encoder_birnn_forward_l0_t10_h2h", 
      "attrs": {"num_hidden": "1024"}, 
      "inputs": [[164, 0, 0], [24, 0, 0], [25, 0, 0]]
    }, 
    {
      "op": "elemwise_add", 
      "name": "_plus10", 
      "inputs": [[166, 0, 0], [167, 0, 0]]
    }, 
    {
      "op": "SliceChannel", 
      "name": "encoder_birnn_forward_l0_t10_slice", 
      "attrs": {"num_outputs": "4"}, 
      "inputs": [[168, 0, 0]]
    }, 
    {
      "op": "Activation", 
      "name": "encoder_birnn_forward_l0_t10_o", 
      "attrs": {"act_type": "sigmoid"}, 
      "inputs": [[169, 3, 0]]
    }, 
    {
      "op": "Activation", 
      "name": "encoder_birnn_forward_l0_t10_f", 
      "attrs": {"act_type": "sigmoid"}, 
      "inputs": [[169, 1, 0]]
    }, 
    {
      "op": "elemwise_mul", 
      "name": "_mul20", 
      "inputs": [[171, 0, 0], [162, 0, 0]]
    }, 
    {
      "op": "Activation", 
      "name": "encoder_birnn_forward_l0_t10_i", 
      "attrs": {"act_type": "sigmoid"}, 
      "inputs": [[169, 0, 0]]
    }, 
    {
      "op": "Activation", 
      "name": "encoder_birnn_forward_l0_t10_c", 
      "attrs": {"act_type": "tanh"}, 
      "inputs": [[169, 2, 0]]
    }, 
    {
      "op": "elemwise_mul", 
      "name": "_mul21", 
      "inputs": [[173, 0, 0], [174, 0, 0]]
    }, 
    {
      "op": "elemwise_add", 
      "name": "encoder_birnn_forward_l0_t10_state", 
      "inputs": [[172, 0, 0], [175, 0, 0]]
    }, 
    {
      "op": "Activation", 
      "name": "activation10", 
      "attrs": {"act_type": "tanh"}, 
      "inputs": [[176, 0, 0]]
    }, 
    {
      "op": "elemwise_mul", 
      "name": "encoder_birnn_forward_l0_t10_out", 
      "inputs": [[170, 0, 0], [177, 0, 0]]
    }, 
    {
      "op": "expand_dims", 
      "name": "expand_dims10", 
      "attrs": {"axis": "0"}, 
      "inputs": [[178, 0, 0]]
    }, 
    {
      "op": "FullyConnected", 
      "name": "encoder_birnn_forward_l0_t11_i2h", 
      "attrs": {"num_hidden": "1024"}, 
      "inputs": [[19, 11, 0], [20, 0, 0], [21, 0, 0]]
    }, 
    {
      "op": "FullyConnected", 
      "name": "encoder_birnn_forward_l0_t11_h2h", 
      "attrs": {"num_hidden": "1024"}, 
      "inputs": [[178, 0, 0], [24, 0, 0], [25, 0, 0]]
    }, 
    {
      "op": "elemwise_add", 
      "name": "_plus11", 
      "inputs": [[180, 0, 0], [181, 0, 0]]
    }, 
    {
      "op": "SliceChannel", 
      "name": "encoder_birnn_forward_l0_t11_slice", 
      "attrs": {"num_outputs": "4"}, 
      "inputs": [[182, 0, 0]]
    }, 
    {
      "op": "Activation", 
      "name": "encoder_birnn_forward_l0_t11_o", 
      "attrs": {"act_type": "sigmoid"}, 
      "inputs": [[183, 3, 0]]
    }, 
    {
      "op": "Activation", 
      "name": "encoder_birnn_forward_l0_t11_f", 
      "attrs": {"act_type": "sigmoid"}, 
      "inputs": [[183, 1, 0]]
    }, 
    {
      "op": "elemwise_mul", 
      "name": "_mul22", 
      "inputs": [[185, 0, 0], [176, 0, 0]]
    }, 
    {
      "op": "Activation", 
      "name": "encoder_birnn_forward_l0_t11_i", 
      "attrs": {"act_type": "sigmoid"}, 
      "inputs": [[183, 0, 0]]
    }, 
    {
      "op": "Activation", 
      "name": "encoder_birnn_forward_l0_t11_c", 
      "attrs": {"act_type": "tanh"}, 
      "inputs": [[183, 2, 0]]
    }, 
    {
      "op": "elemwise_mul", 
      "name": "_mul23", 
      "inputs": [[187, 0, 0], [188, 0, 0]]
    }, 
    {
      "op": "elemwise_add", 
      "name": "encoder_birnn_forward_l0_t11_state", 
      "inputs": [[186, 0, 0], [189, 0, 0]]
    }, 
    {
      "op": "Activation", 
      "name": "activation11", 
      "attrs": {"act_type": "tanh"}, 
      "inputs": [[190, 0, 0]]
    }, 
    {
      "op": "elemwise_mul", 
      "name": "encoder_birnn_forward_l0_t11_out", 
      "inputs": [[184, 0, 0], [191, 0, 0]]
    }, 
    {
      "op": "expand_dims", 
      "name": "expand_dims11", 
      "attrs": {"axis": "0"}, 
      "inputs": [[192, 0, 0]]
    }, 
    {
      "op": "FullyConnected", 
      "name": "encoder_birnn_forward_l0_t12_i2h", 
      "attrs": {"num_hidden": "1024"}, 
      "inputs": [[19, 12, 0], [20, 0, 0], [21, 0, 0]]
    }, 
    {
      "op": "FullyConnected", 
      "name": "encoder_birnn_forward_l0_t12_h2h", 
      "attrs": {"num_hidden": "1024"}, 
      "inputs": [[192, 0, 0], [24, 0, 0], [25, 0, 0]]
    }, 
    {
      "op": "elemwise_add", 
      "name": "_plus12", 
      "inputs": [[194, 0, 0], [195, 0, 0]]
    }, 
    {
      "op": "SliceChannel", 
      "name": "encoder_birnn_forward_l0_t12_slice", 
      "attrs": {"num_outputs": "4"}, 
      "inputs": [[196, 0, 0]]
    }, 
    {
      "op": "Activation", 
      "name": "encoder_birnn_forward_l0_t12_o", 
      "attrs": {"act_type": "sigmoid"}, 
      "inputs": [[197, 3, 0]]
    }, 
    {
      "op": "Activation", 
      "name": "encoder_birnn_forward_l0_t12_f", 
      "attrs": {"act_type": "sigmoid"}, 
      "inputs": [[197, 1, 0]]
    }, 
    {
      "op": "elemwise_mul", 
      "name": "_mul24", 
      "inputs": [[199, 0, 0], [190, 0, 0]]
    }, 
    {
      "op": "Activation", 
      "name": "encoder_birnn_forward_l0_t12_i", 
      "attrs": {"act_type": "sigmoid"}, 
      "inputs": [[197, 0, 0]]
    }, 
    {
      "op": "Activation", 
      "name": "encoder_birnn_forward_l0_t12_c", 
      "attrs": {"act_type": "tanh"}, 
      "inputs": [[197, 2, 0]]
    }, 
    {
      "op": "elemwise_mul", 
      "name": "_mul25", 
      "inputs": [[201, 0, 0], [202, 0, 0]]
    }, 
    {
      "op": "elemwise_add", 
      "name": "encoder_birnn_forward_l0_t12_state", 
      "inputs": [[200, 0, 0], [203, 0, 0]]
    }, 
    {
      "op": "Activation", 
      "name": "activation12", 
      "attrs": {"act_type": "tanh"}, 
      "inputs": [[204, 0, 0]]
    }, 
    {
      "op": "elemwise_mul", 
      "name": "encoder_birnn_forward_l0_t12_out", 
      "inputs": [[198, 0, 0], [205, 0, 0]]
    }, 
    {
      "op": "expand_dims", 
      "name": "expand_dims12", 
      "attrs": {"axis": "0"}, 
      "inputs": [[206, 0, 0]]
    }, 
    {
      "op": "FullyConnected", 
      "name": "encoder_birnn_forward_l0_t13_i2h", 
      "attrs": {"num_hidden": "1024"}, 
      "inputs": [[19, 13, 0], [20, 0, 0], [21, 0, 0]]
    }, 
    {
      "op": "FullyConnected", 
      "name": "encoder_birnn_forward_l0_t13_h2h", 
      "attrs": {"num_hidden": "1024"}, 
      "inputs": [[206, 0, 0], [24, 0, 0], [25, 0, 0]]
    }, 
    {
      "op": "elemwise_add", 
      "name": "_plus13", 
      "inputs": [[208, 0, 0], [209, 0, 0]]
    }, 
    {
      "op": "SliceChannel", 
      "name": "encoder_birnn_forward_l0_t13_slice", 
      "attrs": {"num_outputs": "4"}, 
      "inputs": [[210, 0, 0]]
    }, 
    {
      "op": "Activation", 
      "name": "encoder_birnn_forward_l0_t13_o", 
      "attrs": {"act_type": "sigmoid"}, 
      "inputs": [[211, 3, 0]]
    }, 
    {
      "op": "Activation", 
      "name": "encoder_birnn_forward_l0_t13_f", 
      "attrs": {"act_type": "sigmoid"}, 
      "inputs": [[211, 1, 0]]
    }, 
    {
      "op": "elemwise_mul", 
      "name": "_mul26", 
      "inputs": [[213, 0, 0], [204, 0, 0]]
    }, 
    {
      "op": "Activation", 
      "name": "encoder_birnn_forward_l0_t13_i", 
      "attrs": {"act_type": "sigmoid"}, 
      "inputs": [[211, 0, 0]]
    }, 
    {
      "op": "Activation", 
      "name": "encoder_birnn_forward_l0_t13_c", 
      "attrs": {"act_type": "tanh"}, 
      "inputs": [[211, 2, 0]]
    }, 
    {
      "op": "elemwise_mul", 
      "name": "_mul27", 
      "inputs": [[215, 0, 0], [216, 0, 0]]
    }, 
    {
      "op": "elemwise_add", 
      "name": "encoder_birnn_forward_l0_t13_state", 
      "inputs": [[214, 0, 0], [217, 0, 0]]
    }, 
    {
      "op": "Activation", 
      "name": "activation13", 
      "attrs": {"act_type": "tanh"}, 
      "inputs": [[218, 0, 0]]
    }, 
    {
      "op": "elemwise_mul", 
      "name": "encoder_birnn_forward_l0_t13_out", 
      "inputs": [[212, 0, 0], [219, 0, 0]]
    }, 
    {
      "op": "expand_dims", 
      "name": "expand_dims13", 
      "attrs": {"axis": "0"}, 
      "inputs": [[220, 0, 0]]
    }, 
    {
      "op": "FullyConnected", 
      "name": "encoder_birnn_forward_l0_t14_i2h", 
      "attrs": {"num_hidden": "1024"}, 
      "inputs": [[19, 14, 0], [20, 0, 0], [21, 0, 0]]
    }, 
    {
      "op": "FullyConnected", 
      "name": "encoder_birnn_forward_l0_t14_h2h", 
      "attrs": {"num_hidden": "1024"}, 
      "inputs": [[220, 0, 0], [24, 0, 0], [25, 0, 0]]
    }, 
    {
      "op": "elemwise_add", 
      "name": "_plus14", 
      "inputs": [[222, 0, 0], [223, 0, 0]]
    }, 
    {
      "op": "SliceChannel", 
      "name": "encoder_birnn_forward_l0_t14_slice", 
      "attrs": {"num_outputs": "4"}, 
      "inputs": [[224, 0, 0]]
    }, 
    {
      "op": "Activation", 
      "name": "encoder_birnn_forward_l0_t14_o", 
      "attrs": {"act_type": "sigmoid"}, 
      "inputs": [[225, 3, 0]]
    }, 
    {
      "op": "Activation", 
      "name": "encoder_birnn_forward_l0_t14_f", 
      "attrs": {"act_type": "sigmoid"}, 
      "inputs": [[225, 1, 0]]
    }, 
    {
      "op": "elemwise_mul", 
      "name": "_mul28", 
      "inputs": [[227, 0, 0], [218, 0, 0]]
    }, 
    {
      "op": "Activation", 
      "name": "encoder_birnn_forward_l0_t14_i", 
      "attrs": {"act_type": "sigmoid"}, 
      "inputs": [[225, 0, 0]]
    }, 
    {
      "op": "Activation", 
      "name": "encoder_birnn_forward_l0_t14_c", 
      "attrs": {"act_type": "tanh"}, 
      "inputs": [[225, 2, 0]]
    }, 
    {
      "op": "elemwise_mul", 
      "name": "_mul29", 
      "inputs": [[229, 0, 0], [230, 0, 0]]
    }, 
    {
      "op": "elemwise_add", 
      "name": "encoder_birnn_forward_l0_t14_state", 
      "inputs": [[228, 0, 0], [231, 0, 0]]
    }, 
    {
      "op": "Activation", 
      "name": "activation14", 
      "attrs": {"act_type": "tanh"}, 
      "inputs": [[232, 0, 0]]
    }, 
    {
      "op": "elemwise_mul", 
      "name": "encoder_birnn_forward_l0_t14_out", 
      "inputs": [[226, 0, 0], [233, 0, 0]]
    }, 
    {
      "op": "expand_dims", 
      "name": "expand_dims14", 
      "attrs": {"axis": "0"}, 
      "inputs": [[234, 0, 0]]
    }, 
    {
      "op": "FullyConnected", 
      "name": "encoder_birnn_forward_l0_t15_i2h", 
      "attrs": {"num_hidden": "1024"}, 
      "inputs": [[19, 15, 0], [20, 0, 0], [21, 0, 0]]
    }, 
    {
      "op": "FullyConnected", 
      "name": "encoder_birnn_forward_l0_t15_h2h", 
      "attrs": {"num_hidden": "1024"}, 
      "inputs": [[234, 0, 0], [24, 0, 0], [25, 0, 0]]
    }, 
    {
      "op": "elemwise_add", 
      "name": "_plus15", 
      "inputs": [[236, 0, 0], [237, 0, 0]]
    }, 
    {
      "op": "SliceChannel", 
      "name": "encoder_birnn_forward_l0_t15_slice", 
      "attrs": {"num_outputs": "4"}, 
      "inputs": [[238, 0, 0]]
    }, 
    {
      "op": "Activation", 
      "name": "encoder_birnn_forward_l0_t15_o", 
      "attrs": {"act_type": "sigmoid"}, 
      "inputs": [[239, 3, 0]]
    }, 
    {
      "op": "Activation", 
      "name": "encoder_birnn_forward_l0_t15_f", 
      "attrs": {"act_type": "sigmoid"}, 
      "inputs": [[239, 1, 0]]
    }, 
    {
      "op": "elemwise_mul", 
      "name": "_mul30", 
      "inputs": [[241, 0, 0], [232, 0, 0]]
    }, 
    {
      "op": "Activation", 
      "name": "encoder_birnn_forward_l0_t15_i", 
      "attrs": {"act_type": "sigmoid"}, 
      "inputs": [[239, 0, 0]]
    }, 
    {
      "op": "Activation", 
      "name": "encoder_birnn_forward_l0_t15_c", 
      "attrs": {"act_type": "tanh"}, 
      "inputs": [[239, 2, 0]]
    }, 
    {
      "op": "elemwise_mul", 
      "name": "_mul31", 
      "inputs": [[243, 0, 0], [244, 0, 0]]
    }, 
    {
      "op": "elemwise_add", 
      "name": "encoder_birnn_forward_l0_t15_state", 
      "inputs": [[242, 0, 0], [245, 0, 0]]
    }, 
    {
      "op": "Activation", 
      "name": "activation15", 
      "attrs": {"act_type": "tanh"}, 
      "inputs": [[246, 0, 0]]
    }, 
    {
      "op": "elemwise_mul", 
      "name": "encoder_birnn_forward_l0_t15_out", 
      "inputs": [[240, 0, 0], [247, 0, 0]]
    }, 
    {
      "op": "expand_dims", 
      "name": "expand_dims15", 
      "attrs": {"axis": "0"}, 
      "inputs": [[248, 0, 0]]
    }, 
    {
      "op": "FullyConnected", 
      "name": "encoder_birnn_forward_l0_t16_i2h", 
      "attrs": {"num_hidden": "1024"}, 
      "inputs": [[19, 16, 0], [20, 0, 0], [21, 0, 0]]
    }, 
    {
      "op": "FullyConnected", 
      "name": "encoder_birnn_forward_l0_t16_h2h", 
      "attrs": {"num_hidden": "1024"}, 
      "inputs": [[248, 0, 0], [24, 0, 0], [25, 0, 0]]
    }, 
    {
      "op": "elemwise_add", 
      "name": "_plus16", 
      "inputs": [[250, 0, 0], [251, 0, 0]]
    }, 
    {
      "op": "SliceChannel", 
      "name": "encoder_birnn_forward_l0_t16_slice", 
      "attrs": {"num_outputs": "4"}, 
      "inputs": [[252, 0, 0]]
    }, 
    {
      "op": "Activation", 
      "name": "encoder_birnn_forward_l0_t16_o", 
      "attrs": {"act_type": "sigmoid"}, 
      "inputs": [[253, 3, 0]]
    }, 
    {
      "op": "Activation", 
      "name": "encoder_birnn_forward_l0_t16_f", 
      "attrs": {"act_type": "sigmoid"}, 
      "inputs": [[253, 1, 0]]
    }, 
    {
      "op": "elemwise_mul", 
      "name": "_mul32", 
      "inputs": [[255, 0, 0], [246, 0, 0]]
    }, 
    {
      "op": "Activation", 
      "name": "encoder_birnn_forward_l0_t16_i", 
      "attrs": {"act_type": "sigmoid"}, 
      "inputs": [[253, 0, 0]]
    }, 
    {
      "op": "Activation", 
      "name": "encoder_birnn_forward_l0_t16_c", 
      "attrs": {"act_type": "tanh"}, 
      "inputs": [[253, 2, 0]]
    }, 
    {
      "op": "elemwise_mul", 
      "name": "_mul33", 
      "inputs": [[257, 0, 0], [258, 0, 0]]
    }, 
    {
      "op": "elemwise_add", 
      "name": "encoder_birnn_forward_l0_t16_state", 
      "inputs": [[256, 0, 0], [259, 0, 0]]
    }, 
    {
      "op": "Activation", 
      "name": "activation16", 
      "attrs": {"act_type": "tanh"}, 
      "inputs": [[260, 0, 0]]
    }, 
    {
      "op": "elemwise_mul", 
      "name": "encoder_birnn_forward_l0_t16_out", 
      "inputs": [[254, 0, 0], [261, 0, 0]]
    }, 
    {
      "op": "expand_dims", 
      "name": "expand_dims16", 
      "attrs": {"axis": "0"}, 
      "inputs": [[262, 0, 0]]
    }, 
    {
      "op": "FullyConnected", 
      "name": "encoder_birnn_forward_l0_t17_i2h", 
      "attrs": {"num_hidden": "1024"}, 
      "inputs": [[19, 17, 0], [20, 0, 0], [21, 0, 0]]
    }, 
    {
      "op": "FullyConnected", 
      "name": "encoder_birnn_forward_l0_t17_h2h", 
      "attrs": {"num_hidden": "1024"}, 
      "inputs": [[262, 0, 0], [24, 0, 0], [25, 0, 0]]
    }, 
    {
      "op": "elemwise_add", 
      "name": "_plus17", 
      "inputs": [[264, 0, 0], [265, 0, 0]]
    }, 
    {
      "op": "SliceChannel", 
      "name": "encoder_birnn_forward_l0_t17_slice", 
      "attrs": {"num_outputs": "4"}, 
      "inputs": [[266, 0, 0]]
    }, 
    {
      "op": "Activation", 
      "name": "encoder_birnn_forward_l0_t17_o", 
      "attrs": {"act_type": "sigmoid"}, 
      "inputs": [[267, 3, 0]]
    }, 
    {
      "op": "Activation", 
      "name": "encoder_birnn_forward_l0_t17_f", 
      "attrs": {"act_type": "sigmoid"}, 
      "inputs": [[267, 1, 0]]
    }, 
    {
      "op": "elemwise_mul", 
      "name": "_mul34", 
      "inputs": [[269, 0, 0], [260, 0, 0]]
    }, 
    {
      "op": "Activation", 
      "name": "encoder_birnn_forward_l0_t17_i", 
      "attrs": {"act_type": "sigmoid"}, 
      "inputs": [[267, 0, 0]]
    }, 
    {
      "op": "Activation", 
      "name": "encoder_birnn_forward_l0_t17_c", 
      "attrs": {"act_type": "tanh"}, 
      "inputs": [[267, 2, 0]]
    }, 
    {
      "op": "elemwise_mul", 
      "name": "_mul35", 
      "inputs": [[271, 0, 0], [272, 0, 0]]
    }, 
    {
      "op": "elemwise_add", 
      "name": "encoder_birnn_forward_l0_t17_state", 
      "inputs": [[270, 0, 0], [273, 0, 0]]
    }, 
    {
      "op": "Activation", 
      "name": "activation17", 
      "attrs": {"act_type": "tanh"}, 
      "inputs": [[274, 0, 0]]
    }, 
    {
      "op": "elemwise_mul", 
      "name": "encoder_birnn_forward_l0_t17_out", 
      "inputs": [[268, 0, 0], [275, 0, 0]]
    }, 
    {
      "op": "expand_dims", 
      "name": "expand_dims17", 
      "attrs": {"axis": "0"}, 
      "inputs": [[276, 0, 0]]
    }, 
    {
      "op": "FullyConnected", 
      "name": "encoder_birnn_forward_l0_t18_i2h", 
      "attrs": {"num_hidden": "1024"}, 
      "inputs": [[19, 18, 0], [20, 0, 0], [21, 0, 0]]
    }, 
    {
      "op": "FullyConnected", 
      "name": "encoder_birnn_forward_l0_t18_h2h", 
      "attrs": {"num_hidden": "1024"}, 
      "inputs": [[276, 0, 0], [24, 0, 0], [25, 0, 0]]
    }, 
    {
      "op": "elemwise_add", 
      "name": "_plus18", 
      "inputs": [[278, 0, 0], [279, 0, 0]]
    }, 
    {
      "op": "SliceChannel", 
      "name": "encoder_birnn_forward_l0_t18_slice", 
      "attrs": {"num_outputs": "4"}, 
      "inputs": [[280, 0, 0]]
    }, 
    {
      "op": "Activation", 
      "name": "encoder_birnn_forward_l0_t18_o", 
      "attrs": {"act_type": "sigmoid"}, 
      "inputs": [[281, 3, 0]]
    }, 
    {
      "op": "Activation", 
      "name": "encoder_birnn_forward_l0_t18_f", 
      "attrs": {"act_type": "sigmoid"}, 
      "inputs": [[281, 1, 0]]
    }, 
    {
      "op": "elemwise_mul", 
      "name": "_mul36", 
      "inputs": [[283, 0, 0], [274, 0, 0]]
    }, 
    {
      "op": "Activation", 
      "name": "encoder_birnn_forward_l0_t18_i", 
      "attrs": {"act_type": "sigmoid"}, 
      "inputs": [[281, 0, 0]]
    }, 
    {
      "op": "Activation", 
      "name": "encoder_birnn_forward_l0_t18_c", 
      "attrs": {"act_type": "tanh"}, 
      "inputs": [[281, 2, 0]]
    }, 
    {
      "op": "elemwise_mul", 
      "name": "_mul37", 
      "inputs": [[285, 0, 0], [286, 0, 0]]
    }, 
    {
      "op": "elemwise_add", 
      "name": "encoder_birnn_forward_l0_t18_state", 
      "inputs": [[284, 0, 0], [287, 0, 0]]
    }, 
    {
      "op": "Activation", 
      "name": "activation18", 
      "attrs": {"act_type": "tanh"}, 
      "inputs": [[288, 0, 0]]
    }, 
    {
      "op": "elemwise_mul", 
      "name": "encoder_birnn_forward_l0_t18_out", 
      "inputs": [[282, 0, 0], [289, 0, 0]]
    }, 
    {
      "op": "expand_dims", 
      "name": "expand_dims18", 
      "attrs": {"axis": "0"}, 
      "inputs": [[290, 0, 0]]
    }, 
    {
      "op": "FullyConnected", 
      "name": "encoder_birnn_forward_l0_t19_i2h", 
      "attrs": {"num_hidden": "1024"}, 
      "inputs": [[19, 19, 0], [20, 0, 0], [21, 0, 0]]
    }, 
    {
      "op": "FullyConnected", 
      "name": "encoder_birnn_forward_l0_t19_h2h", 
      "attrs": {"num_hidden": "1024"}, 
      "inputs": [[290, 0, 0], [24, 0, 0], [25, 0, 0]]
    }, 
    {
      "op": "elemwise_add", 
      "name": "_plus19", 
      "inputs": [[292, 0, 0], [293, 0, 0]]
    }, 
    {
      "op": "SliceChannel", 
      "name": "encoder_birnn_forward_l0_t19_slice", 
      "attrs": {"num_outputs": "4"}, 
      "inputs": [[294, 0, 0]]
    }, 
    {
      "op": "Activation", 
      "name": "encoder_birnn_forward_l0_t19_o", 
      "attrs": {"act_type": "sigmoid"}, 
      "inputs": [[295, 3, 0]]
    }, 
    {
      "op": "Activation", 
      "name": "encoder_birnn_forward_l0_t19_f", 
      "attrs": {"act_type": "sigmoid"}, 
      "inputs": [[295, 1, 0]]
    }, 
    {
      "op": "elemwise_mul", 
      "name": "_mul38", 
      "inputs": [[297, 0, 0], [288, 0, 0]]
    }, 
    {
      "op": "Activation", 
      "name": "encoder_birnn_forward_l0_t19_i", 
      "attrs": {"act_type": "sigmoid"}, 
      "inputs": [[295, 0, 0]]
    }, 
    {
      "op": "Activation", 
      "name": "encoder_birnn_forward_l0_t19_c", 
      "attrs": {"act_type": "tanh"}, 
      "inputs": [[295, 2, 0]]
    }, 
    {
      "op": "elemwise_mul", 
      "name": "_mul39", 
      "inputs": [[299, 0, 0], [300, 0, 0]]
    }, 
    {
      "op": "elemwise_add", 
      "name": "encoder_birnn_forward_l0_t19_state", 
      "inputs": [[298, 0, 0], [301, 0, 0]]
    }, 
    {
      "op": "Activation", 
      "name": "activation19", 
      "attrs": {"act_type": "tanh"}, 
      "inputs": [[302, 0, 0]]
    }, 
    {
      "op": "elemwise_mul", 
      "name": "encoder_birnn_forward_l0_t19_out", 
      "inputs": [[296, 0, 0], [303, 0, 0]]
    }, 
    {
      "op": "expand_dims", 
      "name": "expand_dims19", 
      "attrs": {"axis": "0"}, 
      "inputs": [[304, 0, 0]]
    }, 
    {
      "op": "FullyConnected", 
      "name": "encoder_birnn_forward_l0_t20_i2h", 
      "attrs": {"num_hidden": "1024"}, 
      "inputs": [[19, 20, 0], [20, 0, 0], [21, 0, 0]]
    }, 
    {
      "op": "FullyConnected", 
      "name": "encoder_birnn_forward_l0_t20_h2h", 
      "attrs": {"num_hidden": "1024"}, 
      "inputs": [[304, 0, 0], [24, 0, 0], [25, 0, 0]]
    }, 
    {
      "op": "elemwise_add", 
      "name": "_plus20", 
      "inputs": [[306, 0, 0], [307, 0, 0]]
    }, 
    {
      "op": "SliceChannel", 
      "name": "encoder_birnn_forward_l0_t20_slice", 
      "attrs": {"num_outputs": "4"}, 
      "inputs": [[308, 0, 0]]
    }, 
    {
      "op": "Activation", 
      "name": "encoder_birnn_forward_l0_t20_o", 
      "attrs": {"act_type": "sigmoid"}, 
      "inputs": [[309, 3, 0]]
    }, 
    {
      "op": "Activation", 
      "name": "encoder_birnn_forward_l0_t20_f", 
      "attrs": {"act_type": "sigmoid"}, 
      "inputs": [[309, 1, 0]]
    }, 
    {
      "op": "elemwise_mul", 
      "name": "_mul40", 
      "inputs": [[311, 0, 0], [302, 0, 0]]
    }, 
    {
      "op": "Activation", 
      "name": "encoder_birnn_forward_l0_t20_i", 
      "attrs": {"act_type": "sigmoid"}, 
      "inputs": [[309, 0, 0]]
    }, 
    {
      "op": "Activation", 
      "name": "encoder_birnn_forward_l0_t20_c", 
      "attrs": {"act_type": "tanh"}, 
      "inputs": [[309, 2, 0]]
    }, 
    {
      "op": "elemwise_mul", 
      "name": "_mul41", 
      "inputs": [[313, 0, 0], [314, 0, 0]]
    }, 
    {
      "op": "elemwise_add", 
      "name": "encoder_birnn_forward_l0_t20_state", 
      "inputs": [[312, 0, 0], [315, 0, 0]]
    }, 
    {
      "op": "Activation", 
      "name": "activation20", 
      "attrs": {"act_type": "tanh"}, 
      "inputs": [[316, 0, 0]]
    }, 
    {
      "op": "elemwise_mul", 
      "name": "encoder_birnn_forward_l0_t20_out", 
      "inputs": [[310, 0, 0], [317, 0, 0]]
    }, 
    {
      "op": "expand_dims", 
      "name": "expand_dims20", 
      "attrs": {"axis": "0"}, 
      "inputs": [[318, 0, 0]]
    }, 
    {
      "op": "FullyConnected", 
      "name": "encoder_birnn_forward_l0_t21_i2h", 
      "attrs": {"num_hidden": "1024"}, 
      "inputs": [[19, 21, 0], [20, 0, 0], [21, 0, 0]]
    }, 
    {
      "op": "FullyConnected", 
      "name": "encoder_birnn_forward_l0_t21_h2h", 
      "attrs": {"num_hidden": "1024"}, 
      "inputs": [[318, 0, 0], [24, 0, 0], [25, 0, 0]]
    }, 
    {
      "op": "elemwise_add", 
      "name": "_plus21", 
      "inputs": [[320, 0, 0], [321, 0, 0]]
    }, 
    {
      "op": "SliceChannel", 
      "name": "encoder_birnn_forward_l0_t21_slice", 
      "attrs": {"num_outputs": "4"}, 
      "inputs": [[322, 0, 0]]
    }, 
    {
      "op": "Activation", 
      "name": "encoder_birnn_forward_l0_t21_o", 
      "attrs": {"act_type": "sigmoid"}, 
      "inputs": [[323, 3, 0]]
    }, 
    {
      "op": "Activation", 
      "name": "encoder_birnn_forward_l0_t21_f", 
      "attrs": {"act_type": "sigmoid"}, 
      "inputs": [[323, 1, 0]]
    }, 
    {
      "op": "elemwise_mul", 
      "name": "_mul42", 
      "inputs": [[325, 0, 0], [316, 0, 0]]
    }, 
    {
      "op": "Activation", 
      "name": "encoder_birnn_forward_l0_t21_i", 
      "attrs": {"act_type": "sigmoid"}, 
      "inputs": [[323, 0, 0]]
    }, 
    {
      "op": "Activation", 
      "name": "encoder_birnn_forward_l0_t21_c", 
      "attrs": {"act_type": "tanh"}, 
      "inputs": [[323, 2, 0]]
    }, 
    {
      "op": "elemwise_mul", 
      "name": "_mul43", 
      "inputs": [[327, 0, 0], [328, 0, 0]]
    }, 
    {
      "op": "elemwise_add", 
      "name": "encoder_birnn_forward_l0_t21_state", 
      "inputs": [[326, 0, 0], [329, 0, 0]]
    }, 
    {
      "op": "Activation", 
      "name": "activation21", 
      "attrs": {"act_type": "tanh"}, 
      "inputs": [[330, 0, 0]]
    }, 
    {
      "op": "elemwise_mul", 
      "name": "encoder_birnn_forward_l0_t21_out", 
      "inputs": [[324, 0, 0], [331, 0, 0]]
    }, 
    {
      "op": "expand_dims", 
      "name": "expand_dims21", 
      "attrs": {"axis": "0"}, 
      "inputs": [[332, 0, 0]]
    }, 
    {
      "op": "FullyConnected", 
      "name": "encoder_birnn_forward_l0_t22_i2h", 
      "attrs": {"num_hidden": "1024"}, 
      "inputs": [[19, 22, 0], [20, 0, 0], [21, 0, 0]]
    }, 
    {
      "op": "FullyConnected", 
      "name": "encoder_birnn_forward_l0_t22_h2h", 
      "attrs": {"num_hidden": "1024"}, 
      "inputs": [[332, 0, 0], [24, 0, 0], [25, 0, 0]]
    }, 
    {
      "op": "elemwise_add", 
      "name": "_plus22", 
      "inputs": [[334, 0, 0], [335, 0, 0]]
    }, 
    {
      "op": "SliceChannel", 
      "name": "encoder_birnn_forward_l0_t22_slice", 
      "attrs": {"num_outputs": "4"}, 
      "inputs": [[336, 0, 0]]
    }, 
    {
      "op": "Activation", 
      "name": "encoder_birnn_forward_l0_t22_o", 
      "attrs": {"act_type": "sigmoid"}, 
      "inputs": [[337, 3, 0]]
    }, 
    {
      "op": "Activation", 
      "name": "encoder_birnn_forward_l0_t22_f", 
      "attrs": {"act_type": "sigmoid"}, 
      "inputs": [[337, 1, 0]]
    }, 
    {
      "op": "elemwise_mul", 
      "name": "_mul44", 
      "inputs": [[339, 0, 0], [330, 0, 0]]
    }, 
    {
      "op": "Activation", 
      "name": "encoder_birnn_forward_l0_t22_i", 
      "attrs": {"act_type": "sigmoid"}, 
      "inputs": [[337, 0, 0]]
    }, 
    {
      "op": "Activation", 
      "name": "encoder_birnn_forward_l0_t22_c", 
      "attrs": {"act_type": "tanh"}, 
      "inputs": [[337, 2, 0]]
    }, 
    {
      "op": "elemwise_mul", 
      "name": "_mul45", 
      "inputs": [[341, 0, 0], [342, 0, 0]]
    }, 
    {
      "op": "elemwise_add", 
      "name": "encoder_birnn_forward_l0_t22_state", 
      "inputs": [[340, 0, 0], [343, 0, 0]]
    }, 
    {
      "op": "Activation", 
      "name": "activation22", 
      "attrs": {"act_type": "tanh"}, 
      "inputs": [[344, 0, 0]]
    }, 
    {
      "op": "elemwise_mul", 
      "name": "encoder_birnn_forward_l0_t22_out", 
      "inputs": [[338, 0, 0], [345, 0, 0]]
    }, 
    {
      "op": "expand_dims", 
      "name": "expand_dims22", 
      "attrs": {"axis": "0"}, 
      "inputs": [[346, 0, 0]]
    }, 
    {
      "op": "FullyConnected", 
      "name": "encoder_birnn_forward_l0_t23_i2h", 
      "attrs": {"num_hidden": "1024"}, 
      "inputs": [[19, 23, 0], [20, 0, 0], [21, 0, 0]]
    }, 
    {
      "op": "FullyConnected", 
      "name": "encoder_birnn_forward_l0_t23_h2h", 
      "attrs": {"num_hidden": "1024"}, 
      "inputs": [[346, 0, 0], [24, 0, 0], [25, 0, 0]]
    }, 
    {
      "op": "elemwise_add", 
      "name": "_plus23", 
      "inputs": [[348, 0, 0], [349, 0, 0]]
    }, 
    {
      "op": "SliceChannel", 
      "name": "encoder_birnn_forward_l0_t23_slice", 
      "attrs": {"num_outputs": "4"}, 
      "inputs": [[350, 0, 0]]
    }, 
    {
      "op": "Activation", 
      "name": "encoder_birnn_forward_l0_t23_o", 
      "attrs": {"act_type": "sigmoid"}, 
      "inputs": [[351, 3, 0]]
    }, 
    {
      "op": "Activation", 
      "name": "encoder_birnn_forward_l0_t23_f", 
      "attrs": {"act_type": "sigmoid"}, 
      "inputs": [[351, 1, 0]]
    }, 
    {
      "op": "elemwise_mul", 
      "name": "_mul46", 
      "inputs": [[353, 0, 0], [344, 0, 0]]
    }, 
    {
      "op": "Activation", 
      "name": "encoder_birnn_forward_l0_t23_i", 
      "attrs": {"act_type": "sigmoid"}, 
      "inputs": [[351, 0, 0]]
    }, 
    {
      "op": "Activation", 
      "name": "encoder_birnn_forward_l0_t23_c", 
      "attrs": {"act_type": "tanh"}, 
      "inputs": [[351, 2, 0]]
    }, 
    {
      "op": "elemwise_mul", 
      "name": "_mul47", 
      "inputs": [[355, 0, 0], [356, 0, 0]]
    }, 
    {
      "op": "elemwise_add", 
      "name": "encoder_birnn_forward_l0_t23_state", 
      "inputs": [[354, 0, 0], [357, 0, 0]]
    }, 
    {
      "op": "Activation", 
      "name": "activation23", 
      "attrs": {"act_type": "tanh"}, 
      "inputs": [[358, 0, 0]]
    }, 
    {
      "op": "elemwise_mul", 
      "name": "encoder_birnn_forward_l0_t23_out", 
      "inputs": [[352, 0, 0], [359, 0, 0]]
    }, 
    {
      "op": "expand_dims", 
      "name": "expand_dims23", 
      "attrs": {"axis": "0"}, 
      "inputs": [[360, 0, 0]]
    }, 
    {
      "op": "FullyConnected", 
      "name": "encoder_birnn_forward_l0_t24_i2h", 
      "attrs": {"num_hidden": "1024"}, 
      "inputs": [[19, 24, 0], [20, 0, 0], [21, 0, 0]]
    }, 
    {
      "op": "FullyConnected", 
      "name": "encoder_birnn_forward_l0_t24_h2h", 
      "attrs": {"num_hidden": "1024"}, 
      "inputs": [[360, 0, 0], [24, 0, 0], [25, 0, 0]]
    }, 
    {
      "op": "elemwise_add", 
      "name": "_plus24", 
      "inputs": [[362, 0, 0], [363, 0, 0]]
    }, 
    {
      "op": "SliceChannel", 
      "name": "encoder_birnn_forward_l0_t24_slice", 
      "attrs": {"num_outputs": "4"}, 
      "inputs": [[364, 0, 0]]
    }, 
    {
      "op": "Activation", 
      "name": "encoder_birnn_forward_l0_t24_o", 
      "attrs": {"act_type": "sigmoid"}, 
      "inputs": [[365, 3, 0]]
    }, 
    {
      "op": "Activation", 
      "name": "encoder_birnn_forward_l0_t24_f", 
      "attrs": {"act_type": "sigmoid"}, 
      "inputs": [[365, 1, 0]]
    }, 
    {
      "op": "elemwise_mul", 
      "name": "_mul48", 
      "inputs": [[367, 0, 0], [358, 0, 0]]
    }, 
    {
      "op": "Activation", 
      "name": "encoder_birnn_forward_l0_t24_i", 
      "attrs": {"act_type": "sigmoid"}, 
      "inputs": [[365, 0, 0]]
    }, 
    {
      "op": "Activation", 
      "name": "encoder_birnn_forward_l0_t24_c", 
      "attrs": {"act_type": "tanh"}, 
      "inputs": [[365, 2, 0]]
    }, 
    {
      "op": "elemwise_mul", 
      "name": "_mul49", 
      "inputs": [[369, 0, 0], [370, 0, 0]]
    }, 
    {
      "op": "elemwise_add", 
      "name": "encoder_birnn_forward_l0_t24_state", 
      "inputs": [[368, 0, 0], [371, 0, 0]]
    }, 
    {
      "op": "Activation", 
      "name": "activation24", 
      "attrs": {"act_type": "tanh"}, 
      "inputs": [[372, 0, 0]]
    }, 
    {
      "op": "elemwise_mul", 
      "name": "encoder_birnn_forward_l0_t24_out", 
      "inputs": [[366, 0, 0], [373, 0, 0]]
    }, 
    {
      "op": "expand_dims", 
      "name": "expand_dims24", 
      "attrs": {"axis": "0"}, 
      "inputs": [[374, 0, 0]]
    }, 
    {
      "op": "FullyConnected", 
      "name": "encoder_birnn_forward_l0_t25_i2h", 
      "attrs": {"num_hidden": "1024"}, 
      "inputs": [[19, 25, 0], [20, 0, 0], [21, 0, 0]]
    }, 
    {
      "op": "FullyConnected", 
      "name": "encoder_birnn_forward_l0_t25_h2h", 
      "attrs": {"num_hidden": "1024"}, 
      "inputs": [[374, 0, 0], [24, 0, 0], [25, 0, 0]]
    }, 
    {
      "op": "elemwise_add", 
      "name": "_plus25", 
      "inputs": [[376, 0, 0], [377, 0, 0]]
    }, 
    {
      "op": "SliceChannel", 
      "name": "encoder_birnn_forward_l0_t25_slice", 
      "attrs": {"num_outputs": "4"}, 
      "inputs": [[378, 0, 0]]
    }, 
    {
      "op": "Activation", 
      "name": "encoder_birnn_forward_l0_t25_o", 
      "attrs": {"act_type": "sigmoid"}, 
      "inputs": [[379, 3, 0]]
    }, 
    {
      "op": "Activation", 
      "name": "encoder_birnn_forward_l0_t25_f", 
      "attrs": {"act_type": "sigmoid"}, 
      "inputs": [[379, 1, 0]]
    }, 
    {
      "op": "elemwise_mul", 
      "name": "_mul50", 
      "inputs": [[381, 0, 0], [372, 0, 0]]
    }, 
    {
      "op": "Activation", 
      "name": "encoder_birnn_forward_l0_t25_i", 
      "attrs": {"act_type": "sigmoid"}, 
      "inputs": [[379, 0, 0]]
    }, 
    {
      "op": "Activation", 
      "name": "encoder_birnn_forward_l0_t25_c", 
      "attrs": {"act_type": "tanh"}, 
      "inputs": [[379, 2, 0]]
    }, 
    {
      "op": "elemwise_mul", 
      "name": "_mul51", 
      "inputs": [[383, 0, 0], [384, 0, 0]]
    }, 
    {
      "op": "elemwise_add", 
      "name": "encoder_birnn_forward_l0_t25_state", 
      "inputs": [[382, 0, 0], [385, 0, 0]]
    }, 
    {
      "op": "Activation", 
      "name": "activation25", 
      "attrs": {"act_type": "tanh"}, 
      "inputs": [[386, 0, 0]]
    }, 
    {
      "op": "elemwise_mul", 
      "name": "encoder_birnn_forward_l0_t25_out", 
      "inputs": [[380, 0, 0], [387, 0, 0]]
    }, 
    {
      "op": "expand_dims", 
      "name": "expand_dims25", 
      "attrs": {"axis": "0"}, 
      "inputs": [[388, 0, 0]]
    }, 
    {
      "op": "FullyConnected", 
      "name": "encoder_birnn_forward_l0_t26_i2h", 
      "attrs": {"num_hidden": "1024"}, 
      "inputs": [[19, 26, 0], [20, 0, 0], [21, 0, 0]]
    }, 
    {
      "op": "FullyConnected", 
      "name": "encoder_birnn_forward_l0_t26_h2h", 
      "attrs": {"num_hidden": "1024"}, 
      "inputs": [[388, 0, 0], [24, 0, 0], [25, 0, 0]]
    }, 
    {
      "op": "elemwise_add", 
      "name": "_plus26", 
      "inputs": [[390, 0, 0], [391, 0, 0]]
    }, 
    {
      "op": "SliceChannel", 
      "name": "encoder_birnn_forward_l0_t26_slice", 
      "attrs": {"num_outputs": "4"}, 
      "inputs": [[392, 0, 0]]
    }, 
    {
      "op": "Activation", 
      "name": "encoder_birnn_forward_l0_t26_o", 
      "attrs": {"act_type": "sigmoid"}, 
      "inputs": [[393, 3, 0]]
    }, 
    {
      "op": "Activation", 
      "name": "encoder_birnn_forward_l0_t26_f", 
      "attrs": {"act_type": "sigmoid"}, 
      "inputs": [[393, 1, 0]]
    }, 
    {
      "op": "elemwise_mul", 
      "name": "_mul52", 
      "inputs": [[395, 0, 0], [386, 0, 0]]
    }, 
    {
      "op": "Activation", 
      "name": "encoder_birnn_forward_l0_t26_i", 
      "attrs": {"act_type": "sigmoid"}, 
      "inputs": [[393, 0, 0]]
    }, 
    {
      "op": "Activation", 
      "name": "encoder_birnn_forward_l0_t26_c", 
      "attrs": {"act_type": "tanh"}, 
      "inputs": [[393, 2, 0]]
    }, 
    {
      "op": "elemwise_mul", 
      "name": "_mul53", 
      "inputs": [[397, 0, 0], [398, 0, 0]]
    }, 
    {
      "op": "elemwise_add", 
      "name": "encoder_birnn_forward_l0_t26_state", 
      "inputs": [[396, 0, 0], [399, 0, 0]]
    }, 
    {
      "op": "Activation", 
      "name": "activation26", 
      "attrs": {"act_type": "tanh"}, 
      "inputs": [[400, 0, 0]]
    }, 
    {
      "op": "elemwise_mul", 
      "name": "encoder_birnn_forward_l0_t26_out", 
      "inputs": [[394, 0, 0], [401, 0, 0]]
    }, 
    {
      "op": "expand_dims", 
      "name": "expand_dims26", 
      "attrs": {"axis": "0"}, 
      "inputs": [[402, 0, 0]]
    }, 
    {
      "op": "FullyConnected", 
      "name": "encoder_birnn_forward_l0_t27_i2h", 
      "attrs": {"num_hidden": "1024"}, 
      "inputs": [[19, 27, 0], [20, 0, 0], [21, 0, 0]]
    }, 
    {
      "op": "FullyConnected", 
      "name": "encoder_birnn_forward_l0_t27_h2h", 
      "attrs": {"num_hidden": "1024"}, 
      "inputs": [[402, 0, 0], [24, 0, 0], [25, 0, 0]]
    }, 
    {
      "op": "elemwise_add", 
      "name": "_plus27", 
      "inputs": [[404, 0, 0], [405, 0, 0]]
    }, 
    {
      "op": "SliceChannel", 
      "name": "encoder_birnn_forward_l0_t27_slice", 
      "attrs": {"num_outputs": "4"}, 
      "inputs": [[406, 0, 0]]
    }, 
    {
      "op": "Activation", 
      "name": "encoder_birnn_forward_l0_t27_o", 
      "attrs": {"act_type": "sigmoid"}, 
      "inputs": [[407, 3, 0]]
    }, 
    {
      "op": "Activation", 
      "name": "encoder_birnn_forward_l0_t27_f", 
      "attrs": {"act_type": "sigmoid"}, 
      "inputs": [[407, 1, 0]]
    }, 
    {
      "op": "elemwise_mul", 
      "name": "_mul54", 
      "inputs": [[409, 0, 0], [400, 0, 0]]
    }, 
    {
      "op": "Activation", 
      "name": "encoder_birnn_forward_l0_t27_i", 
      "attrs": {"act_type": "sigmoid"}, 
      "inputs": [[407, 0, 0]]
    }, 
    {
      "op": "Activation", 
      "name": "encoder_birnn_forward_l0_t27_c", 
      "attrs": {"act_type": "tanh"}, 
      "inputs": [[407, 2, 0]]
    }, 
    {
      "op": "elemwise_mul", 
      "name": "_mul55", 
      "inputs": [[411, 0, 0], [412, 0, 0]]
    }, 
    {
      "op": "elemwise_add", 
      "name": "encoder_birnn_forward_l0_t27_state", 
      "inputs": [[410, 0, 0], [413, 0, 0]]
    }, 
    {
      "op": "Activation", 
      "name": "activation27", 
      "attrs": {"act_type": "tanh"}, 
      "inputs": [[414, 0, 0]]
    }, 
    {
      "op": "elemwise_mul", 
      "name": "encoder_birnn_forward_l0_t27_out", 
      "inputs": [[408, 0, 0], [415, 0, 0]]
    }, 
    {
      "op": "expand_dims", 
      "name": "expand_dims27", 
      "attrs": {"axis": "0"}, 
      "inputs": [[416, 0, 0]]
    }, 
    {
      "op": "FullyConnected", 
      "name": "encoder_birnn_forward_l0_t28_i2h", 
      "attrs": {"num_hidden": "1024"}, 
      "inputs": [[19, 28, 0], [20, 0, 0], [21, 0, 0]]
    }, 
    {
      "op": "FullyConnected", 
      "name": "encoder_birnn_forward_l0_t28_h2h", 
      "attrs": {"num_hidden": "1024"}, 
      "inputs": [[416, 0, 0], [24, 0, 0], [25, 0, 0]]
    }, 
    {
      "op": "elemwise_add", 
      "name": "_plus28", 
      "inputs": [[418, 0, 0], [419, 0, 0]]
    }, 
    {
      "op": "SliceChannel", 
      "name": "encoder_birnn_forward_l0_t28_slice", 
      "attrs": {"num_outputs": "4"}, 
      "inputs": [[420, 0, 0]]
    }, 
    {
      "op": "Activation", 
      "name": "encoder_birnn_forward_l0_t28_o", 
      "attrs": {"act_type": "sigmoid"}, 
      "inputs": [[421, 3, 0]]
    }, 
    {
      "op": "Activation", 
      "name": "encoder_birnn_forward_l0_t28_f", 
      "attrs": {"act_type": "sigmoid"}, 
      "inputs": [[421, 1, 0]]
    }, 
    {
      "op": "elemwise_mul", 
      "name": "_mul56", 
      "inputs": [[423, 0, 0], [414, 0, 0]]
    }, 
    {
      "op": "Activation", 
      "name": "encoder_birnn_forward_l0_t28_i", 
      "attrs": {"act_type": "sigmoid"}, 
      "inputs": [[421, 0, 0]]
    }, 
    {
      "op": "Activation", 
      "name": "encoder_birnn_forward_l0_t28_c", 
      "attrs": {"act_type": "tanh"}, 
      "inputs": [[421, 2, 0]]
    }, 
    {
      "op": "elemwise_mul", 
      "name": "_mul57", 
      "inputs": [[425, 0, 0], [426, 0, 0]]
    }, 
    {
      "op": "elemwise_add", 
      "name": "encoder_birnn_forward_l0_t28_state", 
      "inputs": [[424, 0, 0], [427, 0, 0]]
    }, 
    {
      "op": "Activation", 
      "name": "activation28", 
      "attrs": {"act_type": "tanh"}, 
      "inputs": [[428, 0, 0]]
    }, 
    {
      "op": "elemwise_mul", 
      "name": "encoder_birnn_forward_l0_t28_out", 
      "inputs": [[422, 0, 0], [429, 0, 0]]
    }, 
    {
      "op": "expand_dims", 
      "name": "expand_dims28", 
      "attrs": {"axis": "0"}, 
      "inputs": [[430, 0, 0]]
    }, 
    {
      "op": "FullyConnected", 
      "name": "encoder_birnn_forward_l0_t29_i2h", 
      "attrs": {"num_hidden": "1024"}, 
      "inputs": [[19, 29, 0], [20, 0, 0], [21, 0, 0]]
    }, 
    {
      "op": "FullyConnected", 
      "name": "encoder_birnn_forward_l0_t29_h2h", 
      "attrs": {"num_hidden": "1024"}, 
      "inputs": [[430, 0, 0], [24, 0, 0], [25, 0, 0]]
    }, 
    {
      "op": "elemwise_add", 
      "name": "_plus29", 
      "inputs": [[432, 0, 0], [433, 0, 0]]
    }, 
    {
      "op": "SliceChannel", 
      "name": "encoder_birnn_forward_l0_t29_slice", 
      "attrs": {"num_outputs": "4"}, 
      "inputs": [[434, 0, 0]]
    }, 
    {
      "op": "Activation", 
      "name": "encoder_birnn_forward_l0_t29_o", 
      "attrs": {"act_type": "sigmoid"}, 
      "inputs": [[435, 3, 0]]
    }, 
    {
      "op": "Activation", 
      "name": "encoder_birnn_forward_l0_t29_f", 
      "attrs": {"act_type": "sigmoid"}, 
      "inputs": [[435, 1, 0]]
    }, 
    {
      "op": "elemwise_mul", 
      "name": "_mul58", 
      "inputs": [[437, 0, 0], [428, 0, 0]]
    }, 
    {
      "op": "Activation", 
      "name": "encoder_birnn_forward_l0_t29_i", 
      "attrs": {"act_type": "sigmoid"}, 
      "inputs": [[435, 0, 0]]
    }, 
    {
      "op": "Activation", 
      "name": "encoder_birnn_forward_l0_t29_c", 
      "attrs": {"act_type": "tanh"}, 
      "inputs": [[435, 2, 0]]
    }, 
    {
      "op": "elemwise_mul", 
      "name": "_mul59", 
      "inputs": [[439, 0, 0], [440, 0, 0]]
    }, 
    {
      "op": "elemwise_add", 
      "name": "encoder_birnn_forward_l0_t29_state", 
      "inputs": [[438, 0, 0], [441, 0, 0]]
    }, 
    {
      "op": "Activation", 
      "name": "activation29", 
      "attrs": {"act_type": "tanh"}, 
      "inputs": [[442, 0, 0]]
    }, 
    {
      "op": "elemwise_mul", 
      "name": "encoder_birnn_forward_l0_t29_out", 
      "inputs": [[436, 0, 0], [443, 0, 0]]
    }, 
    {
      "op": "expand_dims", 
      "name": "expand_dims29", 
      "attrs": {"axis": "0"}, 
      "inputs": [[444, 0, 0]]
    }, 
    {
      "op": "FullyConnected", 
      "name": "encoder_birnn_forward_l0_t30_i2h", 
      "attrs": {"num_hidden": "1024"}, 
      "inputs": [[19, 30, 0], [20, 0, 0], [21, 0, 0]]
    }, 
    {
      "op": "FullyConnected", 
      "name": "encoder_birnn_forward_l0_t30_h2h", 
      "attrs": {"num_hidden": "1024"}, 
      "inputs": [[444, 0, 0], [24, 0, 0], [25, 0, 0]]
    }, 
    {
      "op": "elemwise_add", 
      "name": "_plus30", 
      "inputs": [[446, 0, 0], [447, 0, 0]]
    }, 
    {
      "op": "SliceChannel", 
      "name": "encoder_birnn_forward_l0_t30_slice", 
      "attrs": {"num_outputs": "4"}, 
      "inputs": [[448, 0, 0]]
    }, 
    {
      "op": "Activation", 
      "name": "encoder_birnn_forward_l0_t30_o", 
      "attrs": {"act_type": "sigmoid"}, 
      "inputs": [[449, 3, 0]]
    }, 
    {
      "op": "Activation", 
      "name": "encoder_birnn_forward_l0_t30_f", 
      "attrs": {"act_type": "sigmoid"}, 
      "inputs": [[449, 1, 0]]
    }, 
    {
      "op": "elemwise_mul", 
      "name": "_mul60", 
      "inputs": [[451, 0, 0], [442, 0, 0]]
    }, 
    {
      "op": "Activation", 
      "name": "encoder_birnn_forward_l0_t30_i", 
      "attrs": {"act_type": "sigmoid"}, 
      "inputs": [[449, 0, 0]]
    }, 
    {
      "op": "Activation", 
      "name": "encoder_birnn_forward_l0_t30_c", 
      "attrs": {"act_type": "tanh"}, 
      "inputs": [[449, 2, 0]]
    }, 
    {
      "op": "elemwise_mul", 
      "name": "_mul61", 
      "inputs": [[453, 0, 0], [454, 0, 0]]
    }, 
    {
      "op": "elemwise_add", 
      "name": "encoder_birnn_forward_l0_t30_state", 
      "inputs": [[452, 0, 0], [455, 0, 0]]
    }, 
    {
      "op": "Activation", 
      "name": "activation30", 
      "attrs": {"act_type": "tanh"}, 
      "inputs": [[456, 0, 0]]
    }, 
    {
      "op": "elemwise_mul", 
      "name": "encoder_birnn_forward_l0_t30_out", 
      "inputs": [[450, 0, 0], [457, 0, 0]]
    }, 
    {
      "op": "expand_dims", 
      "name": "expand_dims30", 
      "attrs": {"axis": "0"}, 
      "inputs": [[458, 0, 0]]
    }, 
    {
      "op": "FullyConnected", 
      "name": "encoder_birnn_forward_l0_t31_i2h", 
      "attrs": {"num_hidden": "1024"}, 
      "inputs": [[19, 31, 0], [20, 0, 0], [21, 0, 0]]
    }, 
    {
      "op": "FullyConnected", 
      "name": "encoder_birnn_forward_l0_t31_h2h", 
      "attrs": {"num_hidden": "1024"}, 
      "inputs": [[458, 0, 0], [24, 0, 0], [25, 0, 0]]
    }, 
    {
      "op": "elemwise_add", 
      "name": "_plus31", 
      "inputs": [[460, 0, 0], [461, 0, 0]]
    }, 
    {
      "op": "SliceChannel", 
      "name": "encoder_birnn_forward_l0_t31_slice", 
      "attrs": {"num_outputs": "4"}, 
      "inputs": [[462, 0, 0]]
    }, 
    {
      "op": "Activation", 
      "name": "encoder_birnn_forward_l0_t31_o", 
      "attrs": {"act_type": "sigmoid"}, 
      "inputs": [[463, 3, 0]]
    }, 
    {
      "op": "Activation", 
      "name": "encoder_birnn_forward_l0_t31_f", 
      "attrs": {"act_type": "sigmoid"}, 
      "inputs": [[463, 1, 0]]
    }, 
    {
      "op": "elemwise_mul", 
      "name": "_mul62", 
      "inputs": [[465, 0, 0], [456, 0, 0]]
    }, 
    {
      "op": "Activation", 
      "name": "encoder_birnn_forward_l0_t31_i", 
      "attrs": {"act_type": "sigmoid"}, 
      "inputs": [[463, 0, 0]]
    }, 
    {
      "op": "Activation", 
      "name": "encoder_birnn_forward_l0_t31_c", 
      "attrs": {"act_type": "tanh"}, 
      "inputs": [[463, 2, 0]]
    }, 
    {
      "op": "elemwise_mul", 
      "name": "_mul63", 
      "inputs": [[467, 0, 0], [468, 0, 0]]
    }, 
    {
      "op": "elemwise_add", 
      "name": "encoder_birnn_forward_l0_t31_state", 
      "inputs": [[466, 0, 0], [469, 0, 0]]
    }, 
    {
      "op": "Activation", 
      "name": "activation31", 
      "attrs": {"act_type": "tanh"}, 
      "inputs": [[470, 0, 0]]
    }, 
    {
      "op": "elemwise_mul", 
      "name": "encoder_birnn_forward_l0_t31_out", 
      "inputs": [[464, 0, 0], [471, 0, 0]]
    }, 
    {
      "op": "expand_dims", 
      "name": "expand_dims31", 
      "attrs": {"axis": "0"}, 
      "inputs": [[472, 0, 0]]
    }, 
    {
      "op": "FullyConnected", 
      "name": "encoder_birnn_forward_l0_t32_i2h", 
      "attrs": {"num_hidden": "1024"}, 
      "inputs": [[19, 32, 0], [20, 0, 0], [21, 0, 0]]
    }, 
    {
      "op": "FullyConnected", 
      "name": "encoder_birnn_forward_l0_t32_h2h", 
      "attrs": {"num_hidden": "1024"}, 
      "inputs": [[472, 0, 0], [24, 0, 0], [25, 0, 0]]
    }, 
    {
      "op": "elemwise_add", 
      "name": "_plus32", 
      "inputs": [[474, 0, 0], [475, 0, 0]]
    }, 
    {
      "op": "SliceChannel", 
      "name": "encoder_birnn_forward_l0_t32_slice", 
      "attrs": {"num_outputs": "4"}, 
      "inputs": [[476, 0, 0]]
    }, 
    {
      "op": "Activation", 
      "name": "encoder_birnn_forward_l0_t32_o", 
      "attrs": {"act_type": "sigmoid"}, 
      "inputs": [[477, 3, 0]]
    }, 
    {
      "op": "Activation", 
      "name": "encoder_birnn_forward_l0_t32_f", 
      "attrs": {"act_type": "sigmoid"}, 
      "inputs": [[477, 1, 0]]
    }, 
    {
      "op": "elemwise_mul", 
      "name": "_mul64", 
      "inputs": [[479, 0, 0], [470, 0, 0]]
    }, 
    {
      "op": "Activation", 
      "name": "encoder_birnn_forward_l0_t32_i", 
      "attrs": {"act_type": "sigmoid"}, 
      "inputs": [[477, 0, 0]]
    }, 
    {
      "op": "Activation", 
      "name": "encoder_birnn_forward_l0_t32_c", 
      "attrs": {"act_type": "tanh"}, 
      "inputs": [[477, 2, 0]]
    }, 
    {
      "op": "elemwise_mul", 
      "name": "_mul65", 
      "inputs": [[481, 0, 0], [482, 0, 0]]
    }, 
    {
      "op": "elemwise_add", 
      "name": "encoder_birnn_forward_l0_t32_state", 
      "inputs": [[480, 0, 0], [483, 0, 0]]
    }, 
    {
      "op": "Activation", 
      "name": "activation32", 
      "attrs": {"act_type": "tanh"}, 
      "inputs": [[484, 0, 0]]
    }, 
    {
      "op": "elemwise_mul", 
      "name": "encoder_birnn_forward_l0_t32_out", 
      "inputs": [[478, 0, 0], [485, 0, 0]]
    }, 
    {
      "op": "expand_dims", 
      "name": "expand_dims32", 
      "attrs": {"axis": "0"}, 
      "inputs": [[486, 0, 0]]
    }, 
    {
      "op": "FullyConnected", 
      "name": "encoder_birnn_forward_l0_t33_i2h", 
      "attrs": {"num_hidden": "1024"}, 
      "inputs": [[19, 33, 0], [20, 0, 0], [21, 0, 0]]
    }, 
    {
      "op": "FullyConnected", 
      "name": "encoder_birnn_forward_l0_t33_h2h", 
      "attrs": {"num_hidden": "1024"}, 
      "inputs": [[486, 0, 0], [24, 0, 0], [25, 0, 0]]
    }, 
    {
      "op": "elemwise_add", 
      "name": "_plus33", 
      "inputs": [[488, 0, 0], [489, 0, 0]]
    }, 
    {
      "op": "SliceChannel", 
      "name": "encoder_birnn_forward_l0_t33_slice", 
      "attrs": {"num_outputs": "4"}, 
      "inputs": [[490, 0, 0]]
    }, 
    {
      "op": "Activation", 
      "name": "encoder_birnn_forward_l0_t33_o", 
      "attrs": {"act_type": "sigmoid"}, 
      "inputs": [[491, 3, 0]]
    }, 
    {
      "op": "Activation", 
      "name": "encoder_birnn_forward_l0_t33_f", 
      "attrs": {"act_type": "sigmoid"}, 
      "inputs": [[491, 1, 0]]
    }, 
    {
      "op": "elemwise_mul", 
      "name": "_mul66", 
      "inputs": [[493, 0, 0], [484, 0, 0]]
    }, 
    {
      "op": "Activation", 
      "name": "encoder_birnn_forward_l0_t33_i", 
      "attrs": {"act_type": "sigmoid"}, 
      "inputs": [[491, 0, 0]]
    }, 
    {
      "op": "Activation", 
      "name": "encoder_birnn_forward_l0_t33_c", 
      "attrs": {"act_type": "tanh"}, 
      "inputs": [[491, 2, 0]]
    }, 
    {
      "op": "elemwise_mul", 
      "name": "_mul67", 
      "inputs": [[495, 0, 0], [496, 0, 0]]
    }, 
    {
      "op": "elemwise_add", 
      "name": "encoder_birnn_forward_l0_t33_state", 
      "inputs": [[494, 0, 0], [497, 0, 0]]
    }, 
    {
      "op": "Activation", 
      "name": "activation33", 
      "attrs": {"act_type": "tanh"}, 
      "inputs": [[498, 0, 0]]
    }, 
    {
      "op": "elemwise_mul", 
      "name": "encoder_birnn_forward_l0_t33_out", 
      "inputs": [[492, 0, 0], [499, 0, 0]]
    }, 
    {
      "op": "expand_dims", 
      "name": "expand_dims33", 
      "attrs": {"axis": "0"}, 
      "inputs": [[500, 0, 0]]
    }, 
    {
      "op": "FullyConnected", 
      "name": "encoder_birnn_forward_l0_t34_i2h", 
      "attrs": {"num_hidden": "1024"}, 
      "inputs": [[19, 34, 0], [20, 0, 0], [21, 0, 0]]
    }, 
    {
      "op": "FullyConnected", 
      "name": "encoder_birnn_forward_l0_t34_h2h", 
      "attrs": {"num_hidden": "1024"}, 
      "inputs": [[500, 0, 0], [24, 0, 0], [25, 0, 0]]
    }, 
    {
      "op": "elemwise_add", 
      "name": "_plus34", 
      "inputs": [[502, 0, 0], [503, 0, 0]]
    }, 
    {
      "op": "SliceChannel", 
      "name": "encoder_birnn_forward_l0_t34_slice", 
      "attrs": {"num_outputs": "4"}, 
      "inputs": [[504, 0, 0]]
    }, 
    {
      "op": "Activation", 
      "name": "encoder_birnn_forward_l0_t34_o", 
      "attrs": {"act_type": "sigmoid"}, 
      "inputs": [[505, 3, 0]]
    }, 
    {
      "op": "Activation", 
      "name": "encoder_birnn_forward_l0_t34_f", 
      "attrs": {"act_type": "sigmoid"}, 
      "inputs": [[505, 1, 0]]
    }, 
    {
      "op": "elemwise_mul", 
      "name": "_mul68", 
      "inputs": [[507, 0, 0], [498, 0, 0]]
    }, 
    {
      "op": "Activation", 
      "name": "encoder_birnn_forward_l0_t34_i", 
      "attrs": {"act_type": "sigmoid"}, 
      "inputs": [[505, 0, 0]]
    }, 
    {
      "op": "Activation", 
      "name": "encoder_birnn_forward_l0_t34_c", 
      "attrs": {"act_type": "tanh"}, 
      "inputs": [[505, 2, 0]]
    }, 
    {
      "op": "elemwise_mul", 
      "name": "_mul69", 
      "inputs": [[509, 0, 0], [510, 0, 0]]
    }, 
    {
      "op": "elemwise_add", 
      "name": "encoder_birnn_forward_l0_t34_state", 
      "inputs": [[508, 0, 0], [511, 0, 0]]
    }, 
    {
      "op": "Activation", 
      "name": "activation34", 
      "attrs": {"act_type": "tanh"}, 
      "inputs": [[512, 0, 0]]
    }, 
    {
      "op": "elemwise_mul", 
      "name": "encoder_birnn_forward_l0_t34_out", 
      "inputs": [[506, 0, 0], [513, 0, 0]]
    }, 
    {
      "op": "expand_dims", 
      "name": "expand_dims34", 
      "attrs": {"axis": "0"}, 
      "inputs": [[514, 0, 0]]
    }, 
    {
      "op": "FullyConnected", 
      "name": "encoder_birnn_forward_l0_t35_i2h", 
      "attrs": {"num_hidden": "1024"}, 
      "inputs": [[19, 35, 0], [20, 0, 0], [21, 0, 0]]
    }, 
    {
      "op": "FullyConnected", 
      "name": "encoder_birnn_forward_l0_t35_h2h", 
      "attrs": {"num_hidden": "1024"}, 
      "inputs": [[514, 0, 0], [24, 0, 0], [25, 0, 0]]
    }, 
    {
      "op": "elemwise_add", 
      "name": "_plus35", 
      "inputs": [[516, 0, 0], [517, 0, 0]]
    }, 
    {
      "op": "SliceChannel", 
      "name": "encoder_birnn_forward_l0_t35_slice", 
      "attrs": {"num_outputs": "4"}, 
      "inputs": [[518, 0, 0]]
    }, 
    {
      "op": "Activation", 
      "name": "encoder_birnn_forward_l0_t35_o", 
      "attrs": {"act_type": "sigmoid"}, 
      "inputs": [[519, 3, 0]]
    }, 
    {
      "op": "Activation", 
      "name": "encoder_birnn_forward_l0_t35_f", 
      "attrs": {"act_type": "sigmoid"}, 
      "inputs": [[519, 1, 0]]
    }, 
    {
      "op": "elemwise_mul", 
      "name": "_mul70", 
      "inputs": [[521, 0, 0], [512, 0, 0]]
    }, 
    {
      "op": "Activation", 
      "name": "encoder_birnn_forward_l0_t35_i", 
      "attrs": {"act_type": "sigmoid"}, 
      "inputs": [[519, 0, 0]]
    }, 
    {
      "op": "Activation", 
      "name": "encoder_birnn_forward_l0_t35_c", 
      "attrs": {"act_type": "tanh"}, 
      "inputs": [[519, 2, 0]]
    }, 
    {
      "op": "elemwise_mul", 
      "name": "_mul71", 
      "inputs": [[523, 0, 0], [524, 0, 0]]
    }, 
    {
      "op": "elemwise_add", 
      "name": "encoder_birnn_forward_l0_t35_state", 
      "inputs": [[522, 0, 0], [525, 0, 0]]
    }, 
    {
      "op": "Activation", 
      "name": "activation35", 
      "attrs": {"act_type": "tanh"}, 
      "inputs": [[526, 0, 0]]
    }, 
    {
      "op": "elemwise_mul", 
      "name": "encoder_birnn_forward_l0_t35_out", 
      "inputs": [[520, 0, 0], [527, 0, 0]]
    }, 
    {
      "op": "expand_dims", 
      "name": "expand_dims35", 
      "attrs": {"axis": "0"}, 
      "inputs": [[528, 0, 0]]
    }, 
    {
      "op": "FullyConnected", 
      "name": "encoder_birnn_forward_l0_t36_i2h", 
      "attrs": {"num_hidden": "1024"}, 
      "inputs": [[19, 36, 0], [20, 0, 0], [21, 0, 0]]
    }, 
    {
      "op": "FullyConnected", 
      "name": "encoder_birnn_forward_l0_t36_h2h", 
      "attrs": {"num_hidden": "1024"}, 
      "inputs": [[528, 0, 0], [24, 0, 0], [25, 0, 0]]
    }, 
    {
      "op": "elemwise_add", 
      "name": "_plus36", 
      "inputs": [[530, 0, 0], [531, 0, 0]]
    }, 
    {
      "op": "SliceChannel", 
      "name": "encoder_birnn_forward_l0_t36_slice", 
      "attrs": {"num_outputs": "4"}, 
      "inputs": [[532, 0, 0]]
    }, 
    {
      "op": "Activation", 
      "name": "encoder_birnn_forward_l0_t36_o", 
      "attrs": {"act_type": "sigmoid"}, 
      "inputs": [[533, 3, 0]]
    }, 
    {
      "op": "Activation", 
      "name": "encoder_birnn_forward_l0_t36_f", 
      "attrs": {"act_type": "sigmoid"}, 
      "inputs": [[533, 1, 0]]
    }, 
    {
      "op": "elemwise_mul", 
      "name": "_mul72", 
      "inputs": [[535, 0, 0], [526, 0, 0]]
    }, 
    {
      "op": "Activation", 
      "name": "encoder_birnn_forward_l0_t36_i", 
      "attrs": {"act_type": "sigmoid"}, 
      "inputs": [[533, 0, 0]]
    }, 
    {
      "op": "Activation", 
      "name": "encoder_birnn_forward_l0_t36_c", 
      "attrs": {"act_type": "tanh"}, 
      "inputs": [[533, 2, 0]]
    }, 
    {
      "op": "elemwise_mul", 
      "name": "_mul73", 
      "inputs": [[537, 0, 0], [538, 0, 0]]
    }, 
    {
      "op": "elemwise_add", 
      "name": "encoder_birnn_forward_l0_t36_state", 
      "inputs": [[536, 0, 0], [539, 0, 0]]
    }, 
    {
      "op": "Activation", 
      "name": "activation36", 
      "attrs": {"act_type": "tanh"}, 
      "inputs": [[540, 0, 0]]
    }, 
    {
      "op": "elemwise_mul", 
      "name": "encoder_birnn_forward_l0_t36_out", 
      "inputs": [[534, 0, 0], [541, 0, 0]]
    }, 
    {
      "op": "expand_dims", 
      "name": "expand_dims36", 
      "attrs": {"axis": "0"}, 
      "inputs": [[542, 0, 0]]
    }, 
    {
      "op": "FullyConnected", 
      "name": "encoder_birnn_forward_l0_t37_i2h", 
      "attrs": {"num_hidden": "1024"}, 
      "inputs": [[19, 37, 0], [20, 0, 0], [21, 0, 0]]
    }, 
    {
      "op": "FullyConnected", 
      "name": "encoder_birnn_forward_l0_t37_h2h", 
      "attrs": {"num_hidden": "1024"}, 
      "inputs": [[542, 0, 0], [24, 0, 0], [25, 0, 0]]
    }, 
    {
      "op": "elemwise_add", 
      "name": "_plus37", 
      "inputs": [[544, 0, 0], [545, 0, 0]]
    }, 
    {
      "op": "SliceChannel", 
      "name": "encoder_birnn_forward_l0_t37_slice", 
      "attrs": {"num_outputs": "4"}, 
      "inputs": [[546, 0, 0]]
    }, 
    {
      "op": "Activation", 
      "name": "encoder_birnn_forward_l0_t37_o", 
      "attrs": {"act_type": "sigmoid"}, 
      "inputs": [[547, 3, 0]]
    }, 
    {
      "op": "Activation", 
      "name": "encoder_birnn_forward_l0_t37_f", 
      "attrs": {"act_type": "sigmoid"}, 
      "inputs": [[547, 1, 0]]
    }, 
    {
      "op": "elemwise_mul", 
      "name": "_mul74", 
      "inputs": [[549, 0, 0], [540, 0, 0]]
    }, 
    {
      "op": "Activation", 
      "name": "encoder_birnn_forward_l0_t37_i", 
      "attrs": {"act_type": "sigmoid"}, 
      "inputs": [[547, 0, 0]]
    }, 
    {
      "op": "Activation", 
      "name": "encoder_birnn_forward_l0_t37_c", 
      "attrs": {"act_type": "tanh"}, 
      "inputs": [[547, 2, 0]]
    }, 
    {
      "op": "elemwise_mul", 
      "name": "_mul75", 
      "inputs": [[551, 0, 0], [552, 0, 0]]
    }, 
    {
      "op": "elemwise_add", 
      "name": "encoder_birnn_forward_l0_t37_state", 
      "inputs": [[550, 0, 0], [553, 0, 0]]
    }, 
    {
      "op": "Activation", 
      "name": "activation37", 
      "attrs": {"act_type": "tanh"}, 
      "inputs": [[554, 0, 0]]
    }, 
    {
      "op": "elemwise_mul", 
      "name": "encoder_birnn_forward_l0_t37_out", 
      "inputs": [[548, 0, 0], [555, 0, 0]]
    }, 
    {
      "op": "expand_dims", 
      "name": "expand_dims37", 
      "attrs": {"axis": "0"}, 
      "inputs": [[556, 0, 0]]
    }, 
    {
      "op": "FullyConnected", 
      "name": "encoder_birnn_forward_l0_t38_i2h", 
      "attrs": {"num_hidden": "1024"}, 
      "inputs": [[19, 38, 0], [20, 0, 0], [21, 0, 0]]
    }, 
    {
      "op": "FullyConnected", 
      "name": "encoder_birnn_forward_l0_t38_h2h", 
      "attrs": {"num_hidden": "1024"}, 
      "inputs": [[556, 0, 0], [24, 0, 0], [25, 0, 0]]
    }, 
    {
      "op": "elemwise_add", 
      "name": "_plus38", 
      "inputs": [[558, 0, 0], [559, 0, 0]]
    }, 
    {
      "op": "SliceChannel", 
      "name": "encoder_birnn_forward_l0_t38_slice", 
      "attrs": {"num_outputs": "4"}, 
      "inputs": [[560, 0, 0]]
    }, 
    {
      "op": "Activation", 
      "name": "encoder_birnn_forward_l0_t38_o", 
      "attrs": {"act_type": "sigmoid"}, 
      "inputs": [[561, 3, 0]]
    }, 
    {
      "op": "Activation", 
      "name": "encoder_birnn_forward_l0_t38_f", 
      "attrs": {"act_type": "sigmoid"}, 
      "inputs": [[561, 1, 0]]
    }, 
    {
      "op": "elemwise_mul", 
      "name": "_mul76", 
      "inputs": [[563, 0, 0], [554, 0, 0]]
    }, 
    {
      "op": "Activation", 
      "name": "encoder_birnn_forward_l0_t38_i", 
      "attrs": {"act_type": "sigmoid"}, 
      "inputs": [[561, 0, 0]]
    }, 
    {
      "op": "Activation", 
      "name": "encoder_birnn_forward_l0_t38_c", 
      "attrs": {"act_type": "tanh"}, 
      "inputs": [[561, 2, 0]]
    }, 
    {
      "op": "elemwise_mul", 
      "name": "_mul77", 
      "inputs": [[565, 0, 0], [566, 0, 0]]
    }, 
    {
      "op": "elemwise_add", 
      "name": "encoder_birnn_forward_l0_t38_state", 
      "inputs": [[564, 0, 0], [567, 0, 0]]
    }, 
    {
      "op": "Activation", 
      "name": "activation38", 
      "attrs": {"act_type": "tanh"}, 
      "inputs": [[568, 0, 0]]
    }, 
    {
      "op": "elemwise_mul", 
      "name": "encoder_birnn_forward_l0_t38_out", 
      "inputs": [[562, 0, 0], [569, 0, 0]]
    }, 
    {
      "op": "expand_dims", 
      "name": "expand_dims38", 
      "attrs": {"axis": "0"}, 
      "inputs": [[570, 0, 0]]
    }, 
    {
      "op": "FullyConnected", 
      "name": "encoder_birnn_forward_l0_t39_i2h", 
      "attrs": {"num_hidden": "1024"}, 
      "inputs": [[19, 39, 0], [20, 0, 0], [21, 0, 0]]
    }, 
    {
      "op": "FullyConnected", 
      "name": "encoder_birnn_forward_l0_t39_h2h", 
      "attrs": {"num_hidden": "1024"}, 
      "inputs": [[570, 0, 0], [24, 0, 0], [25, 0, 0]]
    }, 
    {
      "op": "elemwise_add", 
      "name": "_plus39", 
      "inputs": [[572, 0, 0], [573, 0, 0]]
    }, 
    {
      "op": "SliceChannel", 
      "name": "encoder_birnn_forward_l0_t39_slice", 
      "attrs": {"num_outputs": "4"}, 
      "inputs": [[574, 0, 0]]
    }, 
    {
      "op": "Activation", 
      "name": "encoder_birnn_forward_l0_t39_o", 
      "attrs": {"act_type": "sigmoid"}, 
      "inputs": [[575, 3, 0]]
    }, 
    {
      "op": "Activation", 
      "name": "encoder_birnn_forward_l0_t39_f", 
      "attrs": {"act_type": "sigmoid"}, 
      "inputs": [[575, 1, 0]]
    }, 
    {
      "op": "elemwise_mul", 
      "name": "_mul78", 
      "inputs": [[577, 0, 0], [568, 0, 0]]
    }, 
    {
      "op": "Activation", 
      "name": "encoder_birnn_forward_l0_t39_i", 
      "attrs": {"act_type": "sigmoid"}, 
      "inputs": [[575, 0, 0]]
    }, 
    {
      "op": "Activation", 
      "name": "encoder_birnn_forward_l0_t39_c", 
      "attrs": {"act_type": "tanh"}, 
      "inputs": [[575, 2, 0]]
    }, 
    {
      "op": "elemwise_mul", 
      "name": "_mul79", 
      "inputs": [[579, 0, 0], [580, 0, 0]]
    }, 
    {
      "op": "elemwise_add", 
      "name": "encoder_birnn_forward_l0_t39_state", 
      "inputs": [[578, 0, 0], [581, 0, 0]]
    }, 
    {
      "op": "Activation", 
      "name": "activation39", 
      "attrs": {"act_type": "tanh"}, 
      "inputs": [[582, 0, 0]]
    }, 
    {
      "op": "elemwise_mul", 
      "name": "encoder_birnn_forward_l0_t39_out", 
      "inputs": [[576, 0, 0], [583, 0, 0]]
    }, 
    {
      "op": "expand_dims", 
      "name": "expand_dims39", 
      "attrs": {"axis": "0"}, 
      "inputs": [[584, 0, 0]]
    }, 
    {
      "op": "FullyConnected", 
      "name": "encoder_birnn_forward_l0_t40_i2h", 
      "attrs": {"num_hidden": "1024"}, 
      "inputs": [[19, 40, 0], [20, 0, 0], [21, 0, 0]]
    }, 
    {
      "op": "FullyConnected", 
      "name": "encoder_birnn_forward_l0_t40_h2h", 
      "attrs": {"num_hidden": "1024"}, 
      "inputs": [[584, 0, 0], [24, 0, 0], [25, 0, 0]]
    }, 
    {
      "op": "elemwise_add", 
      "name": "_plus40", 
      "inputs": [[586, 0, 0], [587, 0, 0]]
    }, 
    {
      "op": "SliceChannel", 
      "name": "encoder_birnn_forward_l0_t40_slice", 
      "attrs": {"num_outputs": "4"}, 
      "inputs": [[588, 0, 0]]
    }, 
    {
      "op": "Activation", 
      "name": "encoder_birnn_forward_l0_t40_o", 
      "attrs": {"act_type": "sigmoid"}, 
      "inputs": [[589, 3, 0]]
    }, 
    {
      "op": "Activation", 
      "name": "encoder_birnn_forward_l0_t40_f", 
      "attrs": {"act_type": "sigmoid"}, 
      "inputs": [[589, 1, 0]]
    }, 
    {
      "op": "elemwise_mul", 
      "name": "_mul80", 
      "inputs": [[591, 0, 0], [582, 0, 0]]
    }, 
    {
      "op": "Activation", 
      "name": "encoder_birnn_forward_l0_t40_i", 
      "attrs": {"act_type": "sigmoid"}, 
      "inputs": [[589, 0, 0]]
    }, 
    {
      "op": "Activation", 
      "name": "encoder_birnn_forward_l0_t40_c", 
      "attrs": {"act_type": "tanh"}, 
      "inputs": [[589, 2, 0]]
    }, 
    {
      "op": "elemwise_mul", 
      "name": "_mul81", 
      "inputs": [[593, 0, 0], [594, 0, 0]]
    }, 
    {
      "op": "elemwise_add", 
      "name": "encoder_birnn_forward_l0_t40_state", 
      "inputs": [[592, 0, 0], [595, 0, 0]]
    }, 
    {
      "op": "Activation", 
      "name": "activation40", 
      "attrs": {"act_type": "tanh"}, 
      "inputs": [[596, 0, 0]]
    }, 
    {
      "op": "elemwise_mul", 
      "name": "encoder_birnn_forward_l0_t40_out", 
      "inputs": [[590, 0, 0], [597, 0, 0]]
    }, 
    {
      "op": "expand_dims", 
      "name": "expand_dims40", 
      "attrs": {"axis": "0"}, 
      "inputs": [[598, 0, 0]]
    }, 
    {
      "op": "FullyConnected", 
      "name": "encoder_birnn_forward_l0_t41_i2h", 
      "attrs": {"num_hidden": "1024"}, 
      "inputs": [[19, 41, 0], [20, 0, 0], [21, 0, 0]]
    }, 
    {
      "op": "FullyConnected", 
      "name": "encoder_birnn_forward_l0_t41_h2h", 
      "attrs": {"num_hidden": "1024"}, 
      "inputs": [[598, 0, 0], [24, 0, 0], [25, 0, 0]]
    }, 
    {
      "op": "elemwise_add", 
      "name": "_plus41", 
      "inputs": [[600, 0, 0], [601, 0, 0]]
    }, 
    {
      "op": "SliceChannel", 
      "name": "encoder_birnn_forward_l0_t41_slice", 
      "attrs": {"num_outputs": "4"}, 
      "inputs": [[602, 0, 0]]
    }, 
    {
      "op": "Activation", 
      "name": "encoder_birnn_forward_l0_t41_o", 
      "attrs": {"act_type": "sigmoid"}, 
      "inputs": [[603, 3, 0]]
    }, 
    {
      "op": "Activation", 
      "name": "encoder_birnn_forward_l0_t41_f", 
      "attrs": {"act_type": "sigmoid"}, 
      "inputs": [[603, 1, 0]]
    }, 
    {
      "op": "elemwise_mul", 
      "name": "_mul82", 
      "inputs": [[605, 0, 0], [596, 0, 0]]
    }, 
    {
      "op": "Activation", 
      "name": "encoder_birnn_forward_l0_t41_i", 
      "attrs": {"act_type": "sigmoid"}, 
      "inputs": [[603, 0, 0]]
    }, 
    {
      "op": "Activation", 
      "name": "encoder_birnn_forward_l0_t41_c", 
      "attrs": {"act_type": "tanh"}, 
      "inputs": [[603, 2, 0]]
    }, 
    {
      "op": "elemwise_mul", 
      "name": "_mul83", 
      "inputs": [[607, 0, 0], [608, 0, 0]]
    }, 
    {
      "op": "elemwise_add", 
      "name": "encoder_birnn_forward_l0_t41_state", 
      "inputs": [[606, 0, 0], [609, 0, 0]]
    }, 
    {
      "op": "Activation", 
      "name": "activation41", 
      "attrs": {"act_type": "tanh"}, 
      "inputs": [[610, 0, 0]]
    }, 
    {
      "op": "elemwise_mul", 
      "name": "encoder_birnn_forward_l0_t41_out", 
      "inputs": [[604, 0, 0], [611, 0, 0]]
    }, 
    {
      "op": "expand_dims", 
      "name": "expand_dims41", 
      "attrs": {"axis": "0"}, 
      "inputs": [[612, 0, 0]]
    }, 
    {
      "op": "FullyConnected", 
      "name": "encoder_birnn_forward_l0_t42_i2h", 
      "attrs": {"num_hidden": "1024"}, 
      "inputs": [[19, 42, 0], [20, 0, 0], [21, 0, 0]]
    }, 
    {
      "op": "FullyConnected", 
      "name": "encoder_birnn_forward_l0_t42_h2h", 
      "attrs": {"num_hidden": "1024"}, 
      "inputs": [[612, 0, 0], [24, 0, 0], [25, 0, 0]]
    }, 
    {
      "op": "elemwise_add", 
      "name": "_plus42", 
      "inputs": [[614, 0, 0], [615, 0, 0]]
    }, 
    {
      "op": "SliceChannel", 
      "name": "encoder_birnn_forward_l0_t42_slice", 
      "attrs": {"num_outputs": "4"}, 
      "inputs": [[616, 0, 0]]
    }, 
    {
      "op": "Activation", 
      "name": "encoder_birnn_forward_l0_t42_o", 
      "attrs": {"act_type": "sigmoid"}, 
      "inputs": [[617, 3, 0]]
    }, 
    {
      "op": "Activation", 
      "name": "encoder_birnn_forward_l0_t42_f", 
      "attrs": {"act_type": "sigmoid"}, 
      "inputs": [[617, 1, 0]]
    }, 
    {
      "op": "elemwise_mul", 
      "name": "_mul84", 
      "inputs": [[619, 0, 0], [610, 0, 0]]
    }, 
    {
      "op": "Activation", 
      "name": "encoder_birnn_forward_l0_t42_i", 
      "attrs": {"act_type": "sigmoid"}, 
      "inputs": [[617, 0, 0]]
    }, 
    {
      "op": "Activation", 
      "name": "encoder_birnn_forward_l0_t42_c", 
      "attrs": {"act_type": "tanh"}, 
      "inputs": [[617, 2, 0]]
    }, 
    {
      "op": "elemwise_mul", 
      "name": "_mul85", 
      "inputs": [[621, 0, 0], [622, 0, 0]]
    }, 
    {
      "op": "elemwise_add", 
      "name": "encoder_birnn_forward_l0_t42_state", 
      "inputs": [[620, 0, 0], [623, 0, 0]]
    }, 
    {
      "op": "Activation", 
      "name": "activation42", 
      "attrs": {"act_type": "tanh"}, 
      "inputs": [[624, 0, 0]]
    }, 
    {
      "op": "elemwise_mul", 
      "name": "encoder_birnn_forward_l0_t42_out", 
      "inputs": [[618, 0, 0], [625, 0, 0]]
    }, 
    {
      "op": "expand_dims", 
      "name": "expand_dims42", 
      "attrs": {"axis": "0"}, 
      "inputs": [[626, 0, 0]]
    }, 
    {
      "op": "FullyConnected", 
      "name": "encoder_birnn_forward_l0_t43_i2h", 
      "attrs": {"num_hidden": "1024"}, 
      "inputs": [[19, 43, 0], [20, 0, 0], [21, 0, 0]]
    }, 
    {
      "op": "FullyConnected", 
      "name": "encoder_birnn_forward_l0_t43_h2h", 
      "attrs": {"num_hidden": "1024"}, 
      "inputs": [[626, 0, 0], [24, 0, 0], [25, 0, 0]]
    }, 
    {
      "op": "elemwise_add", 
      "name": "_plus43", 
      "inputs": [[628, 0, 0], [629, 0, 0]]
    }, 
    {
      "op": "SliceChannel", 
      "name": "encoder_birnn_forward_l0_t43_slice", 
      "attrs": {"num_outputs": "4"}, 
      "inputs": [[630, 0, 0]]
    }, 
    {
      "op": "Activation", 
      "name": "encoder_birnn_forward_l0_t43_o", 
      "attrs": {"act_type": "sigmoid"}, 
      "inputs": [[631, 3, 0]]
    }, 
    {
      "op": "Activation", 
      "name": "encoder_birnn_forward_l0_t43_f", 
      "attrs": {"act_type": "sigmoid"}, 
      "inputs": [[631, 1, 0]]
    }, 
    {
      "op": "elemwise_mul", 
      "name": "_mul86", 
      "inputs": [[633, 0, 0], [624, 0, 0]]
    }, 
    {
      "op": "Activation", 
      "name": "encoder_birnn_forward_l0_t43_i", 
      "attrs": {"act_type": "sigmoid"}, 
      "inputs": [[631, 0, 0]]
    }, 
    {
      "op": "Activation", 
      "name": "encoder_birnn_forward_l0_t43_c", 
      "attrs": {"act_type": "tanh"}, 
      "inputs": [[631, 2, 0]]
    }, 
    {
      "op": "elemwise_mul", 
      "name": "_mul87", 
      "inputs": [[635, 0, 0], [636, 0, 0]]
    }, 
    {
      "op": "elemwise_add", 
      "name": "encoder_birnn_forward_l0_t43_state", 
      "inputs": [[634, 0, 0], [637, 0, 0]]
    }, 
    {
      "op": "Activation", 
      "name": "activation43", 
      "attrs": {"act_type": "tanh"}, 
      "inputs": [[638, 0, 0]]
    }, 
    {
      "op": "elemwise_mul", 
      "name": "encoder_birnn_forward_l0_t43_out", 
      "inputs": [[632, 0, 0], [639, 0, 0]]
    }, 
    {
      "op": "expand_dims", 
      "name": "expand_dims43", 
      "attrs": {"axis": "0"}, 
      "inputs": [[640, 0, 0]]
    }, 
    {
      "op": "FullyConnected", 
      "name": "encoder_birnn_forward_l0_t44_i2h", 
      "attrs": {"num_hidden": "1024"}, 
      "inputs": [[19, 44, 0], [20, 0, 0], [21, 0, 0]]
    }, 
    {
      "op": "FullyConnected", 
      "name": "encoder_birnn_forward_l0_t44_h2h", 
      "attrs": {"num_hidden": "1024"}, 
      "inputs": [[640, 0, 0], [24, 0, 0], [25, 0, 0]]
    }, 
    {
      "op": "elemwise_add", 
      "name": "_plus44", 
      "inputs": [[642, 0, 0], [643, 0, 0]]
    }, 
    {
      "op": "SliceChannel", 
      "name": "encoder_birnn_forward_l0_t44_slice", 
      "attrs": {"num_outputs": "4"}, 
      "inputs": [[644, 0, 0]]
    }, 
    {
      "op": "Activation", 
      "name": "encoder_birnn_forward_l0_t44_o", 
      "attrs": {"act_type": "sigmoid"}, 
      "inputs": [[645, 3, 0]]
    }, 
    {
      "op": "Activation", 
      "name": "encoder_birnn_forward_l0_t44_f", 
      "attrs": {"act_type": "sigmoid"}, 
      "inputs": [[645, 1, 0]]
    }, 
    {
      "op": "elemwise_mul", 
      "name": "_mul88", 
      "inputs": [[647, 0, 0], [638, 0, 0]]
    }, 
    {
      "op": "Activation", 
      "name": "encoder_birnn_forward_l0_t44_i", 
      "attrs": {"act_type": "sigmoid"}, 
      "inputs": [[645, 0, 0]]
    }, 
    {
      "op": "Activation", 
      "name": "encoder_birnn_forward_l0_t44_c", 
      "attrs": {"act_type": "tanh"}, 
      "inputs": [[645, 2, 0]]
    }, 
    {
      "op": "elemwise_mul", 
      "name": "_mul89", 
      "inputs": [[649, 0, 0], [650, 0, 0]]
    }, 
    {
      "op": "elemwise_add", 
      "name": "encoder_birnn_forward_l0_t44_state", 
      "inputs": [[648, 0, 0], [651, 0, 0]]
    }, 
    {
      "op": "Activation", 
      "name": "activation44", 
      "attrs": {"act_type": "tanh"}, 
      "inputs": [[652, 0, 0]]
    }, 
    {
      "op": "elemwise_mul", 
      "name": "encoder_birnn_forward_l0_t44_out", 
      "inputs": [[646, 0, 0], [653, 0, 0]]
    }, 
    {
      "op": "expand_dims", 
      "name": "expand_dims44", 
      "attrs": {"axis": "0"}, 
      "inputs": [[654, 0, 0]]
    }, 
    {
      "op": "FullyConnected", 
      "name": "encoder_birnn_forward_l0_t45_i2h", 
      "attrs": {"num_hidden": "1024"}, 
      "inputs": [[19, 45, 0], [20, 0, 0], [21, 0, 0]]
    }, 
    {
      "op": "FullyConnected", 
      "name": "encoder_birnn_forward_l0_t45_h2h", 
      "attrs": {"num_hidden": "1024"}, 
      "inputs": [[654, 0, 0], [24, 0, 0], [25, 0, 0]]
    }, 
    {
      "op": "elemwise_add", 
      "name": "_plus45", 
      "inputs": [[656, 0, 0], [657, 0, 0]]
    }, 
    {
      "op": "SliceChannel", 
      "name": "encoder_birnn_forward_l0_t45_slice", 
      "attrs": {"num_outputs": "4"}, 
      "inputs": [[658, 0, 0]]
    }, 
    {
      "op": "Activation", 
      "name": "encoder_birnn_forward_l0_t45_o", 
      "attrs": {"act_type": "sigmoid"}, 
      "inputs": [[659, 3, 0]]
    }, 
    {
      "op": "Activation", 
      "name": "encoder_birnn_forward_l0_t45_f", 
      "attrs": {"act_type": "sigmoid"}, 
      "inputs": [[659, 1, 0]]
    }, 
    {
      "op": "elemwise_mul", 
      "name": "_mul90", 
      "inputs": [[661, 0, 0], [652, 0, 0]]
    }, 
    {
      "op": "Activation", 
      "name": "encoder_birnn_forward_l0_t45_i", 
      "attrs": {"act_type": "sigmoid"}, 
      "inputs": [[659, 0, 0]]
    }, 
    {
      "op": "Activation", 
      "name": "encoder_birnn_forward_l0_t45_c", 
      "attrs": {"act_type": "tanh"}, 
      "inputs": [[659, 2, 0]]
    }, 
    {
      "op": "elemwise_mul", 
      "name": "_mul91", 
      "inputs": [[663, 0, 0], [664, 0, 0]]
    }, 
    {
      "op": "elemwise_add", 
      "name": "encoder_birnn_forward_l0_t45_state", 
      "inputs": [[662, 0, 0], [665, 0, 0]]
    }, 
    {
      "op": "Activation", 
      "name": "activation45", 
      "attrs": {"act_type": "tanh"}, 
      "inputs": [[666, 0, 0]]
    }, 
    {
      "op": "elemwise_mul", 
      "name": "encoder_birnn_forward_l0_t45_out", 
      "inputs": [[660, 0, 0], [667, 0, 0]]
    }, 
    {
      "op": "expand_dims", 
      "name": "expand_dims45", 
      "attrs": {"axis": "0"}, 
      "inputs": [[668, 0, 0]]
    }, 
    {
      "op": "FullyConnected", 
      "name": "encoder_birnn_forward_l0_t46_i2h", 
      "attrs": {"num_hidden": "1024"}, 
      "inputs": [[19, 46, 0], [20, 0, 0], [21, 0, 0]]
    }, 
    {
      "op": "FullyConnected", 
      "name": "encoder_birnn_forward_l0_t46_h2h", 
      "attrs": {"num_hidden": "1024"}, 
      "inputs": [[668, 0, 0], [24, 0, 0], [25, 0, 0]]
    }, 
    {
      "op": "elemwise_add", 
      "name": "_plus46", 
      "inputs": [[670, 0, 0], [671, 0, 0]]
    }, 
    {
      "op": "SliceChannel", 
      "name": "encoder_birnn_forward_l0_t46_slice", 
      "attrs": {"num_outputs": "4"}, 
      "inputs": [[672, 0, 0]]
    }, 
    {
      "op": "Activation", 
      "name": "encoder_birnn_forward_l0_t46_o", 
      "attrs": {"act_type": "sigmoid"}, 
      "inputs": [[673, 3, 0]]
    }, 
    {
      "op": "Activation", 
      "name": "encoder_birnn_forward_l0_t46_f", 
      "attrs": {"act_type": "sigmoid"}, 
      "inputs": [[673, 1, 0]]
    }, 
    {
      "op": "elemwise_mul", 
      "name": "_mul92", 
      "inputs": [[675, 0, 0], [666, 0, 0]]
    }, 
    {
      "op": "Activation", 
      "name": "encoder_birnn_forward_l0_t46_i", 
      "attrs": {"act_type": "sigmoid"}, 
      "inputs": [[673, 0, 0]]
    }, 
    {
      "op": "Activation", 
      "name": "encoder_birnn_forward_l0_t46_c", 
      "attrs": {"act_type": "tanh"}, 
      "inputs": [[673, 2, 0]]
    }, 
    {
      "op": "elemwise_mul", 
      "name": "_mul93", 
      "inputs": [[677, 0, 0], [678, 0, 0]]
    }, 
    {
      "op": "elemwise_add", 
      "name": "encoder_birnn_forward_l0_t46_state", 
      "inputs": [[676, 0, 0], [679, 0, 0]]
    }, 
    {
      "op": "Activation", 
      "name": "activation46", 
      "attrs": {"act_type": "tanh"}, 
      "inputs": [[680, 0, 0]]
    }, 
    {
      "op": "elemwise_mul", 
      "name": "encoder_birnn_forward_l0_t46_out", 
      "inputs": [[674, 0, 0], [681, 0, 0]]
    }, 
    {
      "op": "expand_dims", 
      "name": "expand_dims46", 
      "attrs": {"axis": "0"}, 
      "inputs": [[682, 0, 0]]
    }, 
    {
      "op": "FullyConnected", 
      "name": "encoder_birnn_forward_l0_t47_i2h", 
      "attrs": {"num_hidden": "1024"}, 
      "inputs": [[19, 47, 0], [20, 0, 0], [21, 0, 0]]
    }, 
    {
      "op": "FullyConnected", 
      "name": "encoder_birnn_forward_l0_t47_h2h", 
      "attrs": {"num_hidden": "1024"}, 
      "inputs": [[682, 0, 0], [24, 0, 0], [25, 0, 0]]
    }, 
    {
      "op": "elemwise_add", 
      "name": "_plus47", 
      "inputs": [[684, 0, 0], [685, 0, 0]]
    }, 
    {
      "op": "SliceChannel", 
      "name": "encoder_birnn_forward_l0_t47_slice", 
      "attrs": {"num_outputs": "4"}, 
      "inputs": [[686, 0, 0]]
    }, 
    {
      "op": "Activation", 
      "name": "encoder_birnn_forward_l0_t47_o", 
      "attrs": {"act_type": "sigmoid"}, 
      "inputs": [[687, 3, 0]]
    }, 
    {
      "op": "Activation", 
      "name": "encoder_birnn_forward_l0_t47_f", 
      "attrs": {"act_type": "sigmoid"}, 
      "inputs": [[687, 1, 0]]
    }, 
    {
      "op": "elemwise_mul", 
      "name": "_mul94", 
      "inputs": [[689, 0, 0], [680, 0, 0]]
    }, 
    {
      "op": "Activation", 
      "name": "encoder_birnn_forward_l0_t47_i", 
      "attrs": {"act_type": "sigmoid"}, 
      "inputs": [[687, 0, 0]]
    }, 
    {
      "op": "Activation", 
      "name": "encoder_birnn_forward_l0_t47_c", 
      "attrs": {"act_type": "tanh"}, 
      "inputs": [[687, 2, 0]]
    }, 
    {
      "op": "elemwise_mul", 
      "name": "_mul95", 
      "inputs": [[691, 0, 0], [692, 0, 0]]
    }, 
    {
      "op": "elemwise_add", 
      "name": "encoder_birnn_forward_l0_t47_state", 
      "inputs": [[690, 0, 0], [693, 0, 0]]
    }, 
    {
      "op": "Activation", 
      "name": "activation47", 
      "attrs": {"act_type": "tanh"}, 
      "inputs": [[694, 0, 0]]
    }, 
    {
      "op": "elemwise_mul", 
      "name": "encoder_birnn_forward_l0_t47_out", 
      "inputs": [[688, 0, 0], [695, 0, 0]]
    }, 
    {
      "op": "expand_dims", 
      "name": "expand_dims47", 
      "attrs": {"axis": "0"}, 
      "inputs": [[696, 0, 0]]
    }, 
    {
      "op": "FullyConnected", 
      "name": "encoder_birnn_forward_l0_t48_i2h", 
      "attrs": {"num_hidden": "1024"}, 
      "inputs": [[19, 48, 0], [20, 0, 0], [21, 0, 0]]
    }, 
    {
      "op": "FullyConnected", 
      "name": "encoder_birnn_forward_l0_t48_h2h", 
      "attrs": {"num_hidden": "1024"}, 
      "inputs": [[696, 0, 0], [24, 0, 0], [25, 0, 0]]
    }, 
    {
      "op": "elemwise_add", 
      "name": "_plus48", 
      "inputs": [[698, 0, 0], [699, 0, 0]]
    }, 
    {
      "op": "SliceChannel", 
      "name": "encoder_birnn_forward_l0_t48_slice", 
      "attrs": {"num_outputs": "4"}, 
      "inputs": [[700, 0, 0]]
    }, 
    {
      "op": "Activation", 
      "name": "encoder_birnn_forward_l0_t48_o", 
      "attrs": {"act_type": "sigmoid"}, 
      "inputs": [[701, 3, 0]]
    }, 
    {
      "op": "Activation", 
      "name": "encoder_birnn_forward_l0_t48_f", 
      "attrs": {"act_type": "sigmoid"}, 
      "inputs": [[701, 1, 0]]
    }, 
    {
      "op": "elemwise_mul", 
      "name": "_mul96", 
      "inputs": [[703, 0, 0], [694, 0, 0]]
    }, 
    {
      "op": "Activation", 
      "name": "encoder_birnn_forward_l0_t48_i", 
      "attrs": {"act_type": "sigmoid"}, 
      "inputs": [[701, 0, 0]]
    }, 
    {
      "op": "Activation", 
      "name": "encoder_birnn_forward_l0_t48_c", 
      "attrs": {"act_type": "tanh"}, 
      "inputs": [[701, 2, 0]]
    }, 
    {
      "op": "elemwise_mul", 
      "name": "_mul97", 
      "inputs": [[705, 0, 0], [706, 0, 0]]
    }, 
    {
      "op": "elemwise_add", 
      "name": "encoder_birnn_forward_l0_t48_state", 
      "inputs": [[704, 0, 0], [707, 0, 0]]
    }, 
    {
      "op": "Activation", 
      "name": "activation48", 
      "attrs": {"act_type": "tanh"}, 
      "inputs": [[708, 0, 0]]
    }, 
    {
      "op": "elemwise_mul", 
      "name": "encoder_birnn_forward_l0_t48_out", 
      "inputs": [[702, 0, 0], [709, 0, 0]]
    }, 
    {
      "op": "expand_dims", 
      "name": "expand_dims48", 
      "attrs": {"axis": "0"}, 
      "inputs": [[710, 0, 0]]
    }, 
    {
      "op": "FullyConnected", 
      "name": "encoder_birnn_forward_l0_t49_i2h", 
      "attrs": {"num_hidden": "1024"}, 
      "inputs": [[19, 49, 0], [20, 0, 0], [21, 0, 0]]
    }, 
    {
      "op": "FullyConnected", 
      "name": "encoder_birnn_forward_l0_t49_h2h", 
      "attrs": {"num_hidden": "1024"}, 
      "inputs": [[710, 0, 0], [24, 0, 0], [25, 0, 0]]
    }, 
    {
      "op": "elemwise_add", 
      "name": "_plus49", 
      "inputs": [[712, 0, 0], [713, 0, 0]]
    }, 
    {
      "op": "SliceChannel", 
      "name": "encoder_birnn_forward_l0_t49_slice", 
      "attrs": {"num_outputs": "4"}, 
      "inputs": [[714, 0, 0]]
    }, 
    {
      "op": "Activation", 
      "name": "encoder_birnn_forward_l0_t49_o", 
      "attrs": {"act_type": "sigmoid"}, 
      "inputs": [[715, 3, 0]]
    }, 
    {
      "op": "Activation", 
      "name": "encoder_birnn_forward_l0_t49_f", 
      "attrs": {"act_type": "sigmoid"}, 
      "inputs": [[715, 1, 0]]
    }, 
    {
      "op": "elemwise_mul", 
      "name": "_mul98", 
      "inputs": [[717, 0, 0], [708, 0, 0]]
    }, 
    {
      "op": "Activation", 
      "name": "encoder_birnn_forward_l0_t49_i", 
      "attrs": {"act_type": "sigmoid"}, 
      "inputs": [[715, 0, 0]]
    }, 
    {
      "op": "Activation", 
      "name": "encoder_birnn_forward_l0_t49_c", 
      "attrs": {"act_type": "tanh"}, 
      "inputs": [[715, 2, 0]]
    }, 
    {
      "op": "elemwise_mul", 
      "name": "_mul99", 
      "inputs": [[719, 0, 0], [720, 0, 0]]
    }, 
    {
      "op": "elemwise_add", 
      "name": "encoder_birnn_forward_l0_t49_state", 
      "inputs": [[718, 0, 0], [721, 0, 0]]
    }, 
    {
      "op": "Activation", 
      "name": "activation49", 
      "attrs": {"act_type": "tanh"}, 
      "inputs": [[722, 0, 0]]
    }, 
    {
      "op": "elemwise_mul", 
      "name": "encoder_birnn_forward_l0_t49_out", 
      "inputs": [[716, 0, 0], [723, 0, 0]]
    }, 
    {
      "op": "expand_dims", 
      "name": "expand_dims49", 
      "attrs": {"axis": "0"}, 
      "inputs": [[724, 0, 0]]
    }, 
    {
      "op": "FullyConnected", 
      "name": "encoder_birnn_forward_l0_t50_i2h", 
      "attrs": {"num_hidden": "1024"}, 
      "inputs": [[19, 50, 0], [20, 0, 0], [21, 0, 0]]
    }, 
    {
      "op": "FullyConnected", 
      "name": "encoder_birnn_forward_l0_t50_h2h", 
      "attrs": {"num_hidden": "1024"}, 
      "inputs": [[724, 0, 0], [24, 0, 0], [25, 0, 0]]
    }, 
    {
      "op": "elemwise_add", 
      "name": "_plus50", 
      "inputs": [[726, 0, 0], [727, 0, 0]]
    }, 
    {
      "op": "SliceChannel", 
      "name": "encoder_birnn_forward_l0_t50_slice", 
      "attrs": {"num_outputs": "4"}, 
      "inputs": [[728, 0, 0]]
    }, 
    {
      "op": "Activation", 
      "name": "encoder_birnn_forward_l0_t50_o", 
      "attrs": {"act_type": "sigmoid"}, 
      "inputs": [[729, 3, 0]]
    }, 
    {
      "op": "Activation", 
      "name": "encoder_birnn_forward_l0_t50_f", 
      "attrs": {"act_type": "sigmoid"}, 
      "inputs": [[729, 1, 0]]
    }, 
    {
      "op": "elemwise_mul", 
      "name": "_mul100", 
      "inputs": [[731, 0, 0], [722, 0, 0]]
    }, 
    {
      "op": "Activation", 
      "name": "encoder_birnn_forward_l0_t50_i", 
      "attrs": {"act_type": "sigmoid"}, 
      "inputs": [[729, 0, 0]]
    }, 
    {
      "op": "Activation", 
      "name": "encoder_birnn_forward_l0_t50_c", 
      "attrs": {"act_type": "tanh"}, 
      "inputs": [[729, 2, 0]]
    }, 
    {
      "op": "elemwise_mul", 
      "name": "_mul101", 
      "inputs": [[733, 0, 0], [734, 0, 0]]
    }, 
    {
      "op": "elemwise_add", 
      "name": "encoder_birnn_forward_l0_t50_state", 
      "inputs": [[732, 0, 0], [735, 0, 0]]
    }, 
    {
      "op": "Activation", 
      "name": "activation50", 
      "attrs": {"act_type": "tanh"}, 
      "inputs": [[736, 0, 0]]
    }, 
    {
      "op": "elemwise_mul", 
      "name": "encoder_birnn_forward_l0_t50_out", 
      "inputs": [[730, 0, 0], [737, 0, 0]]
    }, 
    {
      "op": "expand_dims", 
      "name": "expand_dims50", 
      "attrs": {"axis": "0"}, 
      "inputs": [[738, 0, 0]]
    }, 
    {
      "op": "FullyConnected", 
      "name": "encoder_birnn_forward_l0_t51_i2h", 
      "attrs": {"num_hidden": "1024"}, 
      "inputs": [[19, 51, 0], [20, 0, 0], [21, 0, 0]]
    }, 
    {
      "op": "FullyConnected", 
      "name": "encoder_birnn_forward_l0_t51_h2h", 
      "attrs": {"num_hidden": "1024"}, 
      "inputs": [[738, 0, 0], [24, 0, 0], [25, 0, 0]]
    }, 
    {
      "op": "elemwise_add", 
      "name": "_plus51", 
      "inputs": [[740, 0, 0], [741, 0, 0]]
    }, 
    {
      "op": "SliceChannel", 
      "name": "encoder_birnn_forward_l0_t51_slice", 
      "attrs": {"num_outputs": "4"}, 
      "inputs": [[742, 0, 0]]
    }, 
    {
      "op": "Activation", 
      "name": "encoder_birnn_forward_l0_t51_o", 
      "attrs": {"act_type": "sigmoid"}, 
      "inputs": [[743, 3, 0]]
    }, 
    {
      "op": "Activation", 
      "name": "encoder_birnn_forward_l0_t51_f", 
      "attrs": {"act_type": "sigmoid"}, 
      "inputs": [[743, 1, 0]]
    }, 
    {
      "op": "elemwise_mul", 
      "name": "_mul102", 
      "inputs": [[745, 0, 0], [736, 0, 0]]
    }, 
    {
      "op": "Activation", 
      "name": "encoder_birnn_forward_l0_t51_i", 
      "attrs": {"act_type": "sigmoid"}, 
      "inputs": [[743, 0, 0]]
    }, 
    {
      "op": "Activation", 
      "name": "encoder_birnn_forward_l0_t51_c", 
      "attrs": {"act_type": "tanh"}, 
      "inputs": [[743, 2, 0]]
    }, 
    {
      "op": "elemwise_mul", 
      "name": "_mul103", 
      "inputs": [[747, 0, 0], [748, 0, 0]]
    }, 
    {
      "op": "elemwise_add", 
      "name": "encoder_birnn_forward_l0_t51_state", 
      "inputs": [[746, 0, 0], [749, 0, 0]]
    }, 
    {
      "op": "Activation", 
      "name": "activation51", 
      "attrs": {"act_type": "tanh"}, 
      "inputs": [[750, 0, 0]]
    }, 
    {
      "op": "elemwise_mul", 
      "name": "encoder_birnn_forward_l0_t51_out", 
      "inputs": [[744, 0, 0], [751, 0, 0]]
    }, 
    {
      "op": "expand_dims", 
      "name": "expand_dims51", 
      "attrs": {"axis": "0"}, 
      "inputs": [[752, 0, 0]]
    }, 
    {
      "op": "FullyConnected", 
      "name": "encoder_birnn_forward_l0_t52_i2h", 
      "attrs": {"num_hidden": "1024"}, 
      "inputs": [[19, 52, 0], [20, 0, 0], [21, 0, 0]]
    }, 
    {
      "op": "FullyConnected", 
      "name": "encoder_birnn_forward_l0_t52_h2h", 
      "attrs": {"num_hidden": "1024"}, 
      "inputs": [[752, 0, 0], [24, 0, 0], [25, 0, 0]]
    }, 
    {
      "op": "elemwise_add", 
      "name": "_plus52", 
      "inputs": [[754, 0, 0], [755, 0, 0]]
    }, 
    {
      "op": "SliceChannel", 
      "name": "encoder_birnn_forward_l0_t52_slice", 
      "attrs": {"num_outputs": "4"}, 
      "inputs": [[756, 0, 0]]
    }, 
    {
      "op": "Activation", 
      "name": "encoder_birnn_forward_l0_t52_o", 
      "attrs": {"act_type": "sigmoid"}, 
      "inputs": [[757, 3, 0]]
    }, 
    {
      "op": "Activation", 
      "name": "encoder_birnn_forward_l0_t52_f", 
      "attrs": {"act_type": "sigmoid"}, 
      "inputs": [[757, 1, 0]]
    }, 
    {
      "op": "elemwise_mul", 
      "name": "_mul104", 
      "inputs": [[759, 0, 0], [750, 0, 0]]
    }, 
    {
      "op": "Activation", 
      "name": "encoder_birnn_forward_l0_t52_i", 
      "attrs": {"act_type": "sigmoid"}, 
      "inputs": [[757, 0, 0]]
    }, 
    {
      "op": "Activation", 
      "name": "encoder_birnn_forward_l0_t52_c", 
      "attrs": {"act_type": "tanh"}, 
      "inputs": [[757, 2, 0]]
    }, 
    {
      "op": "elemwise_mul", 
      "name": "_mul105", 
      "inputs": [[761, 0, 0], [762, 0, 0]]
    }, 
    {
      "op": "elemwise_add", 
      "name": "encoder_birnn_forward_l0_t52_state", 
      "inputs": [[760, 0, 0], [763, 0, 0]]
    }, 
    {
      "op": "Activation", 
      "name": "activation52", 
      "attrs": {"act_type": "tanh"}, 
      "inputs": [[764, 0, 0]]
    }, 
    {
      "op": "elemwise_mul", 
      "name": "encoder_birnn_forward_l0_t52_out", 
      "inputs": [[758, 0, 0], [765, 0, 0]]
    }, 
    {
      "op": "expand_dims", 
      "name": "expand_dims52", 
      "attrs": {"axis": "0"}, 
      "inputs": [[766, 0, 0]]
    }, 
    {
      "op": "FullyConnected", 
      "name": "encoder_birnn_forward_l0_t53_i2h", 
      "attrs": {"num_hidden": "1024"}, 
      "inputs": [[19, 53, 0], [20, 0, 0], [21, 0, 0]]
    }, 
    {
      "op": "FullyConnected", 
      "name": "encoder_birnn_forward_l0_t53_h2h", 
      "attrs": {"num_hidden": "1024"}, 
      "inputs": [[766, 0, 0], [24, 0, 0], [25, 0, 0]]
    }, 
    {
      "op": "elemwise_add", 
      "name": "_plus53", 
      "inputs": [[768, 0, 0], [769, 0, 0]]
    }, 
    {
      "op": "SliceChannel", 
      "name": "encoder_birnn_forward_l0_t53_slice", 
      "attrs": {"num_outputs": "4"}, 
      "inputs": [[770, 0, 0]]
    }, 
    {
      "op": "Activation", 
      "name": "encoder_birnn_forward_l0_t53_o", 
      "attrs": {"act_type": "sigmoid"}, 
      "inputs": [[771, 3, 0]]
    }, 
    {
      "op": "Activation", 
      "name": "encoder_birnn_forward_l0_t53_f", 
      "attrs": {"act_type": "sigmoid"}, 
      "inputs": [[771, 1, 0]]
    }, 
    {
      "op": "elemwise_mul", 
      "name": "_mul106", 
      "inputs": [[773, 0, 0], [764, 0, 0]]
    }, 
    {
      "op": "Activation", 
      "name": "encoder_birnn_forward_l0_t53_i", 
      "attrs": {"act_type": "sigmoid"}, 
      "inputs": [[771, 0, 0]]
    }, 
    {
      "op": "Activation", 
      "name": "encoder_birnn_forward_l0_t53_c", 
      "attrs": {"act_type": "tanh"}, 
      "inputs": [[771, 2, 0]]
    }, 
    {
      "op": "elemwise_mul", 
      "name": "_mul107", 
      "inputs": [[775, 0, 0], [776, 0, 0]]
    }, 
    {
      "op": "elemwise_add", 
      "name": "encoder_birnn_forward_l0_t53_state", 
      "inputs": [[774, 0, 0], [777, 0, 0]]
    }, 
    {
      "op": "Activation", 
      "name": "activation53", 
      "attrs": {"act_type": "tanh"}, 
      "inputs": [[778, 0, 0]]
    }, 
    {
      "op": "elemwise_mul", 
      "name": "encoder_birnn_forward_l0_t53_out", 
      "inputs": [[772, 0, 0], [779, 0, 0]]
    }, 
    {
      "op": "expand_dims", 
      "name": "expand_dims53", 
      "attrs": {"axis": "0"}, 
      "inputs": [[780, 0, 0]]
    }, 
    {
      "op": "FullyConnected", 
      "name": "encoder_birnn_forward_l0_t54_i2h", 
      "attrs": {"num_hidden": "1024"}, 
      "inputs": [[19, 54, 0], [20, 0, 0], [21, 0, 0]]
    }, 
    {
      "op": "FullyConnected", 
      "name": "encoder_birnn_forward_l0_t54_h2h", 
      "attrs": {"num_hidden": "1024"}, 
      "inputs": [[780, 0, 0], [24, 0, 0], [25, 0, 0]]
    }, 
    {
      "op": "elemwise_add", 
      "name": "_plus54", 
      "inputs": [[782, 0, 0], [783, 0, 0]]
    }, 
    {
      "op": "SliceChannel", 
      "name": "encoder_birnn_forward_l0_t54_slice", 
      "attrs": {"num_outputs": "4"}, 
      "inputs": [[784, 0, 0]]
    }, 
    {
      "op": "Activation", 
      "name": "encoder_birnn_forward_l0_t54_o", 
      "attrs": {"act_type": "sigmoid"}, 
      "inputs": [[785, 3, 0]]
    }, 
    {
      "op": "Activation", 
      "name": "encoder_birnn_forward_l0_t54_f", 
      "attrs": {"act_type": "sigmoid"}, 
      "inputs": [[785, 1, 0]]
    }, 
    {
      "op": "elemwise_mul", 
      "name": "_mul108", 
      "inputs": [[787, 0, 0], [778, 0, 0]]
    }, 
    {
      "op": "Activation", 
      "name": "encoder_birnn_forward_l0_t54_i", 
      "attrs": {"act_type": "sigmoid"}, 
      "inputs": [[785, 0, 0]]
    }, 
    {
      "op": "Activation", 
      "name": "encoder_birnn_forward_l0_t54_c", 
      "attrs": {"act_type": "tanh"}, 
      "inputs": [[785, 2, 0]]
    }, 
    {
      "op": "elemwise_mul", 
      "name": "_mul109", 
      "inputs": [[789, 0, 0], [790, 0, 0]]
    }, 
    {
      "op": "elemwise_add", 
      "name": "encoder_birnn_forward_l0_t54_state", 
      "inputs": [[788, 0, 0], [791, 0, 0]]
    }, 
    {
      "op": "Activation", 
      "name": "activation54", 
      "attrs": {"act_type": "tanh"}, 
      "inputs": [[792, 0, 0]]
    }, 
    {
      "op": "elemwise_mul", 
      "name": "encoder_birnn_forward_l0_t54_out", 
      "inputs": [[786, 0, 0], [793, 0, 0]]
    }, 
    {
      "op": "expand_dims", 
      "name": "expand_dims54", 
      "attrs": {"axis": "0"}, 
      "inputs": [[794, 0, 0]]
    }, 
    {
      "op": "FullyConnected", 
      "name": "encoder_birnn_forward_l0_t55_i2h", 
      "attrs": {"num_hidden": "1024"}, 
      "inputs": [[19, 55, 0], [20, 0, 0], [21, 0, 0]]
    }, 
    {
      "op": "FullyConnected", 
      "name": "encoder_birnn_forward_l0_t55_h2h", 
      "attrs": {"num_hidden": "1024"}, 
      "inputs": [[794, 0, 0], [24, 0, 0], [25, 0, 0]]
    }, 
    {
      "op": "elemwise_add", 
      "name": "_plus55", 
      "inputs": [[796, 0, 0], [797, 0, 0]]
    }, 
    {
      "op": "SliceChannel", 
      "name": "encoder_birnn_forward_l0_t55_slice", 
      "attrs": {"num_outputs": "4"}, 
      "inputs": [[798, 0, 0]]
    }, 
    {
      "op": "Activation", 
      "name": "encoder_birnn_forward_l0_t55_o", 
      "attrs": {"act_type": "sigmoid"}, 
      "inputs": [[799, 3, 0]]
    }, 
    {
      "op": "Activation", 
      "name": "encoder_birnn_forward_l0_t55_f", 
      "attrs": {"act_type": "sigmoid"}, 
      "inputs": [[799, 1, 0]]
    }, 
    {
      "op": "elemwise_mul", 
      "name": "_mul110", 
      "inputs": [[801, 0, 0], [792, 0, 0]]
    }, 
    {
      "op": "Activation", 
      "name": "encoder_birnn_forward_l0_t55_i", 
      "attrs": {"act_type": "sigmoid"}, 
      "inputs": [[799, 0, 0]]
    }, 
    {
      "op": "Activation", 
      "name": "encoder_birnn_forward_l0_t55_c", 
      "attrs": {"act_type": "tanh"}, 
      "inputs": [[799, 2, 0]]
    }, 
    {
      "op": "elemwise_mul", 
      "name": "_mul111", 
      "inputs": [[803, 0, 0], [804, 0, 0]]
    }, 
    {
      "op": "elemwise_add", 
      "name": "encoder_birnn_forward_l0_t55_state", 
      "inputs": [[802, 0, 0], [805, 0, 0]]
    }, 
    {
      "op": "Activation", 
      "name": "activation55", 
      "attrs": {"act_type": "tanh"}, 
      "inputs": [[806, 0, 0]]
    }, 
    {
      "op": "elemwise_mul", 
      "name": "encoder_birnn_forward_l0_t55_out", 
      "inputs": [[800, 0, 0], [807, 0, 0]]
    }, 
    {
      "op": "expand_dims", 
      "name": "expand_dims55", 
      "attrs": {"axis": "0"}, 
      "inputs": [[808, 0, 0]]
    }, 
    {
      "op": "FullyConnected", 
      "name": "encoder_birnn_forward_l0_t56_i2h", 
      "attrs": {"num_hidden": "1024"}, 
      "inputs": [[19, 56, 0], [20, 0, 0], [21, 0, 0]]
    }, 
    {
      "op": "FullyConnected", 
      "name": "encoder_birnn_forward_l0_t56_h2h", 
      "attrs": {"num_hidden": "1024"}, 
      "inputs": [[808, 0, 0], [24, 0, 0], [25, 0, 0]]
    }, 
    {
      "op": "elemwise_add", 
      "name": "_plus56", 
      "inputs": [[810, 0, 0], [811, 0, 0]]
    }, 
    {
      "op": "SliceChannel", 
      "name": "encoder_birnn_forward_l0_t56_slice", 
      "attrs": {"num_outputs": "4"}, 
      "inputs": [[812, 0, 0]]
    }, 
    {
      "op": "Activation", 
      "name": "encoder_birnn_forward_l0_t56_o", 
      "attrs": {"act_type": "sigmoid"}, 
      "inputs": [[813, 3, 0]]
    }, 
    {
      "op": "Activation", 
      "name": "encoder_birnn_forward_l0_t56_f", 
      "attrs": {"act_type": "sigmoid"}, 
      "inputs": [[813, 1, 0]]
    }, 
    {
      "op": "elemwise_mul", 
      "name": "_mul112", 
      "inputs": [[815, 0, 0], [806, 0, 0]]
    }, 
    {
      "op": "Activation", 
      "name": "encoder_birnn_forward_l0_t56_i", 
      "attrs": {"act_type": "sigmoid"}, 
      "inputs": [[813, 0, 0]]
    }, 
    {
      "op": "Activation", 
      "name": "encoder_birnn_forward_l0_t56_c", 
      "attrs": {"act_type": "tanh"}, 
      "inputs": [[813, 2, 0]]
    }, 
    {
      "op": "elemwise_mul", 
      "name": "_mul113", 
      "inputs": [[817, 0, 0], [818, 0, 0]]
    }, 
    {
      "op": "elemwise_add", 
      "name": "encoder_birnn_forward_l0_t56_state", 
      "inputs": [[816, 0, 0], [819, 0, 0]]
    }, 
    {
      "op": "Activation", 
      "name": "activation56", 
      "attrs": {"act_type": "tanh"}, 
      "inputs": [[820, 0, 0]]
    }, 
    {
      "op": "elemwise_mul", 
      "name": "encoder_birnn_forward_l0_t56_out", 
      "inputs": [[814, 0, 0], [821, 0, 0]]
    }, 
    {
      "op": "expand_dims", 
      "name": "expand_dims56", 
      "attrs": {"axis": "0"}, 
      "inputs": [[822, 0, 0]]
    }, 
    {
      "op": "FullyConnected", 
      "name": "encoder_birnn_forward_l0_t57_i2h", 
      "attrs": {"num_hidden": "1024"}, 
      "inputs": [[19, 57, 0], [20, 0, 0], [21, 0, 0]]
    }, 
    {
      "op": "FullyConnected", 
      "name": "encoder_birnn_forward_l0_t57_h2h", 
      "attrs": {"num_hidden": "1024"}, 
      "inputs": [[822, 0, 0], [24, 0, 0], [25, 0, 0]]
    }, 
    {
      "op": "elemwise_add", 
      "name": "_plus57", 
      "inputs": [[824, 0, 0], [825, 0, 0]]
    }, 
    {
      "op": "SliceChannel", 
      "name": "encoder_birnn_forward_l0_t57_slice", 
      "attrs": {"num_outputs": "4"}, 
      "inputs": [[826, 0, 0]]
    }, 
    {
      "op": "Activation", 
      "name": "encoder_birnn_forward_l0_t57_o", 
      "attrs": {"act_type": "sigmoid"}, 
      "inputs": [[827, 3, 0]]
    }, 
    {
      "op": "Activation", 
      "name": "encoder_birnn_forward_l0_t57_f", 
      "attrs": {"act_type": "sigmoid"}, 
      "inputs": [[827, 1, 0]]
    }, 
    {
      "op": "elemwise_mul", 
      "name": "_mul114", 
      "inputs": [[829, 0, 0], [820, 0, 0]]
    }, 
    {
      "op": "Activation", 
      "name": "encoder_birnn_forward_l0_t57_i", 
      "attrs": {"act_type": "sigmoid"}, 
      "inputs": [[827, 0, 0]]
    }, 
    {
      "op": "Activation", 
      "name": "encoder_birnn_forward_l0_t57_c", 
      "attrs": {"act_type": "tanh"}, 
      "inputs": [[827, 2, 0]]
    }, 
    {
      "op": "elemwise_mul", 
      "name": "_mul115", 
      "inputs": [[831, 0, 0], [832, 0, 0]]
    }, 
    {
      "op": "elemwise_add", 
      "name": "encoder_birnn_forward_l0_t57_state", 
      "inputs": [[830, 0, 0], [833, 0, 0]]
    }, 
    {
      "op": "Activation", 
      "name": "activation57", 
      "attrs": {"act_type": "tanh"}, 
      "inputs": [[834, 0, 0]]
    }, 
    {
      "op": "elemwise_mul", 
      "name": "encoder_birnn_forward_l0_t57_out", 
      "inputs": [[828, 0, 0], [835, 0, 0]]
    }, 
    {
      "op": "expand_dims", 
      "name": "expand_dims57", 
      "attrs": {"axis": "0"}, 
      "inputs": [[836, 0, 0]]
    }, 
    {
      "op": "FullyConnected", 
      "name": "encoder_birnn_forward_l0_t58_i2h", 
      "attrs": {"num_hidden": "1024"}, 
      "inputs": [[19, 58, 0], [20, 0, 0], [21, 0, 0]]
    }, 
    {
      "op": "FullyConnected", 
      "name": "encoder_birnn_forward_l0_t58_h2h", 
      "attrs": {"num_hidden": "1024"}, 
      "inputs": [[836, 0, 0], [24, 0, 0], [25, 0, 0]]
    }, 
    {
      "op": "elemwise_add", 
      "name": "_plus58", 
      "inputs": [[838, 0, 0], [839, 0, 0]]
    }, 
    {
      "op": "SliceChannel", 
      "name": "encoder_birnn_forward_l0_t58_slice", 
      "attrs": {"num_outputs": "4"}, 
      "inputs": [[840, 0, 0]]
    }, 
    {
      "op": "Activation", 
      "name": "encoder_birnn_forward_l0_t58_o", 
      "attrs": {"act_type": "sigmoid"}, 
      "inputs": [[841, 3, 0]]
    }, 
    {
      "op": "Activation", 
      "name": "encoder_birnn_forward_l0_t58_f", 
      "attrs": {"act_type": "sigmoid"}, 
      "inputs": [[841, 1, 0]]
    }, 
    {
      "op": "elemwise_mul", 
      "name": "_mul116", 
      "inputs": [[843, 0, 0], [834, 0, 0]]
    }, 
    {
      "op": "Activation", 
      "name": "encoder_birnn_forward_l0_t58_i", 
      "attrs": {"act_type": "sigmoid"}, 
      "inputs": [[841, 0, 0]]
    }, 
    {
      "op": "Activation", 
      "name": "encoder_birnn_forward_l0_t58_c", 
      "attrs": {"act_type": "tanh"}, 
      "inputs": [[841, 2, 0]]
    }, 
    {
      "op": "elemwise_mul", 
      "name": "_mul117", 
      "inputs": [[845, 0, 0], [846, 0, 0]]
    }, 
    {
      "op": "elemwise_add", 
      "name": "encoder_birnn_forward_l0_t58_state", 
      "inputs": [[844, 0, 0], [847, 0, 0]]
    }, 
    {
      "op": "Activation", 
      "name": "activation58", 
      "attrs": {"act_type": "tanh"}, 
      "inputs": [[848, 0, 0]]
    }, 
    {
      "op": "elemwise_mul", 
      "name": "encoder_birnn_forward_l0_t58_out", 
      "inputs": [[842, 0, 0], [849, 0, 0]]
    }, 
    {
      "op": "expand_dims", 
      "name": "expand_dims58", 
      "attrs": {"axis": "0"}, 
      "inputs": [[850, 0, 0]]
    }, 
    {
      "op": "FullyConnected", 
      "name": "encoder_birnn_forward_l0_t59_i2h", 
      "attrs": {"num_hidden": "1024"}, 
      "inputs": [[19, 59, 0], [20, 0, 0], [21, 0, 0]]
    }, 
    {
      "op": "FullyConnected", 
      "name": "encoder_birnn_forward_l0_t59_h2h", 
      "attrs": {"num_hidden": "1024"}, 
      "inputs": [[850, 0, 0], [24, 0, 0], [25, 0, 0]]
    }, 
    {
      "op": "elemwise_add", 
      "name": "_plus59", 
      "inputs": [[852, 0, 0], [853, 0, 0]]
    }, 
    {
      "op": "SliceChannel", 
      "name": "encoder_birnn_forward_l0_t59_slice", 
      "attrs": {"num_outputs": "4"}, 
      "inputs": [[854, 0, 0]]
    }, 
    {
      "op": "Activation", 
      "name": "encoder_birnn_forward_l0_t59_o", 
      "attrs": {"act_type": "sigmoid"}, 
      "inputs": [[855, 3, 0]]
    }, 
    {
      "op": "Activation", 
      "name": "encoder_birnn_forward_l0_t59_f", 
      "attrs": {"act_type": "sigmoid"}, 
      "inputs": [[855, 1, 0]]
    }, 
    {
      "op": "elemwise_mul", 
      "name": "_mul118", 
      "inputs": [[857, 0, 0], [848, 0, 0]]
    }, 
    {
      "op": "Activation", 
      "name": "encoder_birnn_forward_l0_t59_i", 
      "attrs": {"act_type": "sigmoid"}, 
      "inputs": [[855, 0, 0]]
    }, 
    {
      "op": "Activation", 
      "name": "encoder_birnn_forward_l0_t59_c", 
      "attrs": {"act_type": "tanh"}, 
      "inputs": [[855, 2, 0]]
    }, 
    {
      "op": "elemwise_mul", 
      "name": "_mul119", 
      "inputs": [[859, 0, 0], [860, 0, 0]]
    }, 
    {
      "op": "elemwise_add", 
      "name": "encoder_birnn_forward_l0_t59_state", 
      "inputs": [[858, 0, 0], [861, 0, 0]]
    }, 
    {
      "op": "Activation", 
      "name": "activation59", 
      "attrs": {"act_type": "tanh"}, 
      "inputs": [[862, 0, 0]]
    }, 
    {
      "op": "elemwise_mul", 
      "name": "encoder_birnn_forward_l0_t59_out", 
      "inputs": [[856, 0, 0], [863, 0, 0]]
    }, 
    {
      "op": "expand_dims", 
      "name": "expand_dims59", 
      "attrs": {"axis": "0"}, 
      "inputs": [[864, 0, 0]]
    }, 
    {
      "op": "FullyConnected", 
      "name": "encoder_birnn_forward_l0_t60_i2h", 
      "attrs": {"num_hidden": "1024"}, 
      "inputs": [[19, 60, 0], [20, 0, 0], [21, 0, 0]]
    }, 
    {
      "op": "FullyConnected", 
      "name": "encoder_birnn_forward_l0_t60_h2h", 
      "attrs": {"num_hidden": "1024"}, 
      "inputs": [[864, 0, 0], [24, 0, 0], [25, 0, 0]]
    }, 
    {
      "op": "elemwise_add", 
      "name": "_plus60", 
      "inputs": [[866, 0, 0], [867, 0, 0]]
    }, 
    {
      "op": "SliceChannel", 
      "name": "encoder_birnn_forward_l0_t60_slice", 
      "attrs": {"num_outputs": "4"}, 
      "inputs": [[868, 0, 0]]
    }, 
    {
      "op": "Activation", 
      "name": "encoder_birnn_forward_l0_t60_o", 
      "attrs": {"act_type": "sigmoid"}, 
      "inputs": [[869, 3, 0]]
    }, 
    {
      "op": "Activation", 
      "name": "encoder_birnn_forward_l0_t60_f", 
      "attrs": {"act_type": "sigmoid"}, 
      "inputs": [[869, 1, 0]]
    }, 
    {
      "op": "elemwise_mul", 
      "name": "_mul120", 
      "inputs": [[871, 0, 0], [862, 0, 0]]
    }, 
    {
      "op": "Activation", 
      "name": "encoder_birnn_forward_l0_t60_i", 
      "attrs": {"act_type": "sigmoid"}, 
      "inputs": [[869, 0, 0]]
    }, 
    {
      "op": "Activation", 
      "name": "encoder_birnn_forward_l0_t60_c", 
      "attrs": {"act_type": "tanh"}, 
      "inputs": [[869, 2, 0]]
    }, 
    {
      "op": "elemwise_mul", 
      "name": "_mul121", 
      "inputs": [[873, 0, 0], [874, 0, 0]]
    }, 
    {
      "op": "elemwise_add", 
      "name": "encoder_birnn_forward_l0_t60_state", 
      "inputs": [[872, 0, 0], [875, 0, 0]]
    }, 
    {
      "op": "Activation", 
      "name": "activation60", 
      "attrs": {"act_type": "tanh"}, 
      "inputs": [[876, 0, 0]]
    }, 
    {
      "op": "elemwise_mul", 
      "name": "encoder_birnn_forward_l0_t60_out", 
      "inputs": [[870, 0, 0], [877, 0, 0]]
    }, 
    {
      "op": "expand_dims", 
      "name": "expand_dims60", 
      "attrs": {"axis": "0"}, 
      "inputs": [[878, 0, 0]]
    }, 
    {
      "op": "FullyConnected", 
      "name": "encoder_birnn_forward_l0_t61_i2h", 
      "attrs": {"num_hidden": "1024"}, 
      "inputs": [[19, 61, 0], [20, 0, 0], [21, 0, 0]]
    }, 
    {
      "op": "FullyConnected", 
      "name": "encoder_birnn_forward_l0_t61_h2h", 
      "attrs": {"num_hidden": "1024"}, 
      "inputs": [[878, 0, 0], [24, 0, 0], [25, 0, 0]]
    }, 
    {
      "op": "elemwise_add", 
      "name": "_plus61", 
      "inputs": [[880, 0, 0], [881, 0, 0]]
    }, 
    {
      "op": "SliceChannel", 
      "name": "encoder_birnn_forward_l0_t61_slice", 
      "attrs": {"num_outputs": "4"}, 
      "inputs": [[882, 0, 0]]
    }, 
    {
      "op": "Activation", 
      "name": "encoder_birnn_forward_l0_t61_o", 
      "attrs": {"act_type": "sigmoid"}, 
      "inputs": [[883, 3, 0]]
    }, 
    {
      "op": "Activation", 
      "name": "encoder_birnn_forward_l0_t61_f", 
      "attrs": {"act_type": "sigmoid"}, 
      "inputs": [[883, 1, 0]]
    }, 
    {
      "op": "elemwise_mul", 
      "name": "_mul122", 
      "inputs": [[885, 0, 0], [876, 0, 0]]
    }, 
    {
      "op": "Activation", 
      "name": "encoder_birnn_forward_l0_t61_i", 
      "attrs": {"act_type": "sigmoid"}, 
      "inputs": [[883, 0, 0]]
    }, 
    {
      "op": "Activation", 
      "name": "encoder_birnn_forward_l0_t61_c", 
      "attrs": {"act_type": "tanh"}, 
      "inputs": [[883, 2, 0]]
    }, 
    {
      "op": "elemwise_mul", 
      "name": "_mul123", 
      "inputs": [[887, 0, 0], [888, 0, 0]]
    }, 
    {
      "op": "elemwise_add", 
      "name": "encoder_birnn_forward_l0_t61_state", 
      "inputs": [[886, 0, 0], [889, 0, 0]]
    }, 
    {
      "op": "Activation", 
      "name": "activation61", 
      "attrs": {"act_type": "tanh"}, 
      "inputs": [[890, 0, 0]]
    }, 
    {
      "op": "elemwise_mul", 
      "name": "encoder_birnn_forward_l0_t61_out", 
      "inputs": [[884, 0, 0], [891, 0, 0]]
    }, 
    {
      "op": "expand_dims", 
      "name": "expand_dims61", 
      "attrs": {"axis": "0"}, 
      "inputs": [[892, 0, 0]]
    }, 
    {
      "op": "FullyConnected", 
      "name": "encoder_birnn_forward_l0_t62_i2h", 
      "attrs": {"num_hidden": "1024"}, 
      "inputs": [[19, 62, 0], [20, 0, 0], [21, 0, 0]]
    }, 
    {
      "op": "FullyConnected", 
      "name": "encoder_birnn_forward_l0_t62_h2h", 
      "attrs": {"num_hidden": "1024"}, 
      "inputs": [[892, 0, 0], [24, 0, 0], [25, 0, 0]]
    }, 
    {
      "op": "elemwise_add", 
      "name": "_plus62", 
      "inputs": [[894, 0, 0], [895, 0, 0]]
    }, 
    {
      "op": "SliceChannel", 
      "name": "encoder_birnn_forward_l0_t62_slice", 
      "attrs": {"num_outputs": "4"}, 
      "inputs": [[896, 0, 0]]
    }, 
    {
      "op": "Activation", 
      "name": "encoder_birnn_forward_l0_t62_o", 
      "attrs": {"act_type": "sigmoid"}, 
      "inputs": [[897, 3, 0]]
    }, 
    {
      "op": "Activation", 
      "name": "encoder_birnn_forward_l0_t62_f", 
      "attrs": {"act_type": "sigmoid"}, 
      "inputs": [[897, 1, 0]]
    }, 
    {
      "op": "elemwise_mul", 
      "name": "_mul124", 
      "inputs": [[899, 0, 0], [890, 0, 0]]
    }, 
    {
      "op": "Activation", 
      "name": "encoder_birnn_forward_l0_t62_i", 
      "attrs": {"act_type": "sigmoid"}, 
      "inputs": [[897, 0, 0]]
    }, 
    {
      "op": "Activation", 
      "name": "encoder_birnn_forward_l0_t62_c", 
      "attrs": {"act_type": "tanh"}, 
      "inputs": [[897, 2, 0]]
    }, 
    {
      "op": "elemwise_mul", 
      "name": "_mul125", 
      "inputs": [[901, 0, 0], [902, 0, 0]]
    }, 
    {
      "op": "elemwise_add", 
      "name": "encoder_birnn_forward_l0_t62_state", 
      "inputs": [[900, 0, 0], [903, 0, 0]]
    }, 
    {
      "op": "Activation", 
      "name": "activation62", 
      "attrs": {"act_type": "tanh"}, 
      "inputs": [[904, 0, 0]]
    }, 
    {
      "op": "elemwise_mul", 
      "name": "encoder_birnn_forward_l0_t62_out", 
      "inputs": [[898, 0, 0], [905, 0, 0]]
    }, 
    {
      "op": "expand_dims", 
      "name": "expand_dims62", 
      "attrs": {"axis": "0"}, 
      "inputs": [[906, 0, 0]]
    }, 
    {
      "op": "FullyConnected", 
      "name": "encoder_birnn_forward_l0_t63_i2h", 
      "attrs": {"num_hidden": "1024"}, 
      "inputs": [[19, 63, 0], [20, 0, 0], [21, 0, 0]]
    }, 
    {
      "op": "FullyConnected", 
      "name": "encoder_birnn_forward_l0_t63_h2h", 
      "attrs": {"num_hidden": "1024"}, 
      "inputs": [[906, 0, 0], [24, 0, 0], [25, 0, 0]]
    }, 
    {
      "op": "elemwise_add", 
      "name": "_plus63", 
      "inputs": [[908, 0, 0], [909, 0, 0]]
    }, 
    {
      "op": "SliceChannel", 
      "name": "encoder_birnn_forward_l0_t63_slice", 
      "attrs": {"num_outputs": "4"}, 
      "inputs": [[910, 0, 0]]
    }, 
    {
      "op": "Activation", 
      "name": "encoder_birnn_forward_l0_t63_o", 
      "attrs": {"act_type": "sigmoid"}, 
      "inputs": [[911, 3, 0]]
    }, 
    {
      "op": "Activation", 
      "name": "encoder_birnn_forward_l0_t63_f", 
      "attrs": {"act_type": "sigmoid"}, 
      "inputs": [[911, 1, 0]]
    }, 
    {
      "op": "elemwise_mul", 
      "name": "_mul126", 
      "inputs": [[913, 0, 0], [904, 0, 0]]
    }, 
    {
      "op": "Activation", 
      "name": "encoder_birnn_forward_l0_t63_i", 
      "attrs": {"act_type": "sigmoid"}, 
      "inputs": [[911, 0, 0]]
    }, 
    {
      "op": "Activation", 
      "name": "encoder_birnn_forward_l0_t63_c", 
      "attrs": {"act_type": "tanh"}, 
      "inputs": [[911, 2, 0]]
    }, 
    {
      "op": "elemwise_mul", 
      "name": "_mul127", 
      "inputs": [[915, 0, 0], [916, 0, 0]]
    }, 
    {
      "op": "elemwise_add", 
      "name": "encoder_birnn_forward_l0_t63_state", 
      "inputs": [[914, 0, 0], [917, 0, 0]]
    }, 
    {
      "op": "Activation", 
      "name": "activation63", 
      "attrs": {"act_type": "tanh"}, 
      "inputs": [[918, 0, 0]]
    }, 
    {
      "op": "elemwise_mul", 
      "name": "encoder_birnn_forward_l0_t63_out", 
      "inputs": [[912, 0, 0], [919, 0, 0]]
    }, 
    {
      "op": "expand_dims", 
      "name": "expand_dims63", 
      "attrs": {"axis": "0"}, 
      "inputs": [[920, 0, 0]]
    }, 
    {
      "op": "FullyConnected", 
      "name": "encoder_birnn_forward_l0_t64_i2h", 
      "attrs": {"num_hidden": "1024"}, 
      "inputs": [[19, 64, 0], [20, 0, 0], [21, 0, 0]]
    }, 
    {
      "op": "FullyConnected", 
      "name": "encoder_birnn_forward_l0_t64_h2h", 
      "attrs": {"num_hidden": "1024"}, 
      "inputs": [[920, 0, 0], [24, 0, 0], [25, 0, 0]]
    }, 
    {
      "op": "elemwise_add", 
      "name": "_plus64", 
      "inputs": [[922, 0, 0], [923, 0, 0]]
    }, 
    {
      "op": "SliceChannel", 
      "name": "encoder_birnn_forward_l0_t64_slice", 
      "attrs": {"num_outputs": "4"}, 
      "inputs": [[924, 0, 0]]
    }, 
    {
      "op": "Activation", 
      "name": "encoder_birnn_forward_l0_t64_o", 
      "attrs": {"act_type": "sigmoid"}, 
      "inputs": [[925, 3, 0]]
    }, 
    {
      "op": "Activation", 
      "name": "encoder_birnn_forward_l0_t64_f", 
      "attrs": {"act_type": "sigmoid"}, 
      "inputs": [[925, 1, 0]]
    }, 
    {
      "op": "elemwise_mul", 
      "name": "_mul128", 
      "inputs": [[927, 0, 0], [918, 0, 0]]
    }, 
    {
      "op": "Activation", 
      "name": "encoder_birnn_forward_l0_t64_i", 
      "attrs": {"act_type": "sigmoid"}, 
      "inputs": [[925, 0, 0]]
    }, 
    {
      "op": "Activation", 
      "name": "encoder_birnn_forward_l0_t64_c", 
      "attrs": {"act_type": "tanh"}, 
      "inputs": [[925, 2, 0]]
    }, 
    {
      "op": "elemwise_mul", 
      "name": "_mul129", 
      "inputs": [[929, 0, 0], [930, 0, 0]]
    }, 
    {
      "op": "elemwise_add", 
      "name": "encoder_birnn_forward_l0_t64_state", 
      "inputs": [[928, 0, 0], [931, 0, 0]]
    }, 
    {
      "op": "Activation", 
      "name": "activation64", 
      "attrs": {"act_type": "tanh"}, 
      "inputs": [[932, 0, 0]]
    }, 
    {
      "op": "elemwise_mul", 
      "name": "encoder_birnn_forward_l0_t64_out", 
      "inputs": [[926, 0, 0], [933, 0, 0]]
    }, 
    {
      "op": "expand_dims", 
      "name": "expand_dims64", 
      "attrs": {"axis": "0"}, 
      "inputs": [[934, 0, 0]]
    }, 
    {
      "op": "FullyConnected", 
      "name": "encoder_birnn_forward_l0_t65_i2h", 
      "attrs": {"num_hidden": "1024"}, 
      "inputs": [[19, 65, 0], [20, 0, 0], [21, 0, 0]]
    }, 
    {
      "op": "FullyConnected", 
      "name": "encoder_birnn_forward_l0_t65_h2h", 
      "attrs": {"num_hidden": "1024"}, 
      "inputs": [[934, 0, 0], [24, 0, 0], [25, 0, 0]]
    }, 
    {
      "op": "elemwise_add", 
      "name": "_plus65", 
      "inputs": [[936, 0, 0], [937, 0, 0]]
    }, 
    {
      "op": "SliceChannel", 
      "name": "encoder_birnn_forward_l0_t65_slice", 
      "attrs": {"num_outputs": "4"}, 
      "inputs": [[938, 0, 0]]
    }, 
    {
      "op": "Activation", 
      "name": "encoder_birnn_forward_l0_t65_o", 
      "attrs": {"act_type": "sigmoid"}, 
      "inputs": [[939, 3, 0]]
    }, 
    {
      "op": "Activation", 
      "name": "encoder_birnn_forward_l0_t65_f", 
      "attrs": {"act_type": "sigmoid"}, 
      "inputs": [[939, 1, 0]]
    }, 
    {
      "op": "elemwise_mul", 
      "name": "_mul130", 
      "inputs": [[941, 0, 0], [932, 0, 0]]
    }, 
    {
      "op": "Activation", 
      "name": "encoder_birnn_forward_l0_t65_i", 
      "attrs": {"act_type": "sigmoid"}, 
      "inputs": [[939, 0, 0]]
    }, 
    {
      "op": "Activation", 
      "name": "encoder_birnn_forward_l0_t65_c", 
      "attrs": {"act_type": "tanh"}, 
      "inputs": [[939, 2, 0]]
    }, 
    {
      "op": "elemwise_mul", 
      "name": "_mul131", 
      "inputs": [[943, 0, 0], [944, 0, 0]]
    }, 
    {
      "op": "elemwise_add", 
      "name": "encoder_birnn_forward_l0_t65_state", 
      "inputs": [[942, 0, 0], [945, 0, 0]]
    }, 
    {
      "op": "Activation", 
      "name": "activation65", 
      "attrs": {"act_type": "tanh"}, 
      "inputs": [[946, 0, 0]]
    }, 
    {
      "op": "elemwise_mul", 
      "name": "encoder_birnn_forward_l0_t65_out", 
      "inputs": [[940, 0, 0], [947, 0, 0]]
    }, 
    {
      "op": "expand_dims", 
      "name": "expand_dims65", 
      "attrs": {"axis": "0"}, 
      "inputs": [[948, 0, 0]]
    }, 
    {
      "op": "FullyConnected", 
      "name": "encoder_birnn_forward_l0_t66_i2h", 
      "attrs": {"num_hidden": "1024"}, 
      "inputs": [[19, 66, 0], [20, 0, 0], [21, 0, 0]]
    }, 
    {
      "op": "FullyConnected", 
      "name": "encoder_birnn_forward_l0_t66_h2h", 
      "attrs": {"num_hidden": "1024"}, 
      "inputs": [[948, 0, 0], [24, 0, 0], [25, 0, 0]]
    }, 
    {
      "op": "elemwise_add", 
      "name": "_plus66", 
      "inputs": [[950, 0, 0], [951, 0, 0]]
    }, 
    {
      "op": "SliceChannel", 
      "name": "encoder_birnn_forward_l0_t66_slice", 
      "attrs": {"num_outputs": "4"}, 
      "inputs": [[952, 0, 0]]
    }, 
    {
      "op": "Activation", 
      "name": "encoder_birnn_forward_l0_t66_o", 
      "attrs": {"act_type": "sigmoid"}, 
      "inputs": [[953, 3, 0]]
    }, 
    {
      "op": "Activation", 
      "name": "encoder_birnn_forward_l0_t66_f", 
      "attrs": {"act_type": "sigmoid"}, 
      "inputs": [[953, 1, 0]]
    }, 
    {
      "op": "elemwise_mul", 
      "name": "_mul132", 
      "inputs": [[955, 0, 0], [946, 0, 0]]
    }, 
    {
      "op": "Activation", 
      "name": "encoder_birnn_forward_l0_t66_i", 
      "attrs": {"act_type": "sigmoid"}, 
      "inputs": [[953, 0, 0]]
    }, 
    {
      "op": "Activation", 
      "name": "encoder_birnn_forward_l0_t66_c", 
      "attrs": {"act_type": "tanh"}, 
      "inputs": [[953, 2, 0]]
    }, 
    {
      "op": "elemwise_mul", 
      "name": "_mul133", 
      "inputs": [[957, 0, 0], [958, 0, 0]]
    }, 
    {
      "op": "elemwise_add", 
      "name": "encoder_birnn_forward_l0_t66_state", 
      "inputs": [[956, 0, 0], [959, 0, 0]]
    }, 
    {
      "op": "Activation", 
      "name": "activation66", 
      "attrs": {"act_type": "tanh"}, 
      "inputs": [[960, 0, 0]]
    }, 
    {
      "op": "elemwise_mul", 
      "name": "encoder_birnn_forward_l0_t66_out", 
      "inputs": [[954, 0, 0], [961, 0, 0]]
    }, 
    {
      "op": "expand_dims", 
      "name": "expand_dims66", 
      "attrs": {"axis": "0"}, 
      "inputs": [[962, 0, 0]]
    }, 
    {
      "op": "FullyConnected", 
      "name": "encoder_birnn_forward_l0_t67_i2h", 
      "attrs": {"num_hidden": "1024"}, 
      "inputs": [[19, 67, 0], [20, 0, 0], [21, 0, 0]]
    }, 
    {
      "op": "FullyConnected", 
      "name": "encoder_birnn_forward_l0_t67_h2h", 
      "attrs": {"num_hidden": "1024"}, 
      "inputs": [[962, 0, 0], [24, 0, 0], [25, 0, 0]]
    }, 
    {
      "op": "elemwise_add", 
      "name": "_plus67", 
      "inputs": [[964, 0, 0], [965, 0, 0]]
    }, 
    {
      "op": "SliceChannel", 
      "name": "encoder_birnn_forward_l0_t67_slice", 
      "attrs": {"num_outputs": "4"}, 
      "inputs": [[966, 0, 0]]
    }, 
    {
      "op": "Activation", 
      "name": "encoder_birnn_forward_l0_t67_o", 
      "attrs": {"act_type": "sigmoid"}, 
      "inputs": [[967, 3, 0]]
    }, 
    {
      "op": "Activation", 
      "name": "encoder_birnn_forward_l0_t67_f", 
      "attrs": {"act_type": "sigmoid"}, 
      "inputs": [[967, 1, 0]]
    }, 
    {
      "op": "elemwise_mul", 
      "name": "_mul134", 
      "inputs": [[969, 0, 0], [960, 0, 0]]
    }, 
    {
      "op": "Activation", 
      "name": "encoder_birnn_forward_l0_t67_i", 
      "attrs": {"act_type": "sigmoid"}, 
      "inputs": [[967, 0, 0]]
    }, 
    {
      "op": "Activation", 
      "name": "encoder_birnn_forward_l0_t67_c", 
      "attrs": {"act_type": "tanh"}, 
      "inputs": [[967, 2, 0]]
    }, 
    {
      "op": "elemwise_mul", 
      "name": "_mul135", 
      "inputs": [[971, 0, 0], [972, 0, 0]]
    }, 
    {
      "op": "elemwise_add", 
      "name": "encoder_birnn_forward_l0_t67_state", 
      "inputs": [[970, 0, 0], [973, 0, 0]]
    }, 
    {
      "op": "Activation", 
      "name": "activation67", 
      "attrs": {"act_type": "tanh"}, 
      "inputs": [[974, 0, 0]]
    }, 
    {
      "op": "elemwise_mul", 
      "name": "encoder_birnn_forward_l0_t67_out", 
      "inputs": [[968, 0, 0], [975, 0, 0]]
    }, 
    {
      "op": "expand_dims", 
      "name": "expand_dims67", 
      "attrs": {"axis": "0"}, 
      "inputs": [[976, 0, 0]]
    }, 
    {
      "op": "FullyConnected", 
      "name": "encoder_birnn_forward_l0_t68_i2h", 
      "attrs": {"num_hidden": "1024"}, 
      "inputs": [[19, 68, 0], [20, 0, 0], [21, 0, 0]]
    }, 
    {
      "op": "FullyConnected", 
      "name": "encoder_birnn_forward_l0_t68_h2h", 
      "attrs": {"num_hidden": "1024"}, 
      "inputs": [[976, 0, 0], [24, 0, 0], [25, 0, 0]]
    }, 
    {
      "op": "elemwise_add", 
      "name": "_plus68", 
      "inputs": [[978, 0, 0], [979, 0, 0]]
    }, 
    {
      "op": "SliceChannel", 
      "name": "encoder_birnn_forward_l0_t68_slice", 
      "attrs": {"num_outputs": "4"}, 
      "inputs": [[980, 0, 0]]
    }, 
    {
      "op": "Activation", 
      "name": "encoder_birnn_forward_l0_t68_o", 
      "attrs": {"act_type": "sigmoid"}, 
      "inputs": [[981, 3, 0]]
    }, 
    {
      "op": "Activation", 
      "name": "encoder_birnn_forward_l0_t68_f", 
      "attrs": {"act_type": "sigmoid"}, 
      "inputs": [[981, 1, 0]]
    }, 
    {
      "op": "elemwise_mul", 
      "name": "_mul136", 
      "inputs": [[983, 0, 0], [974, 0, 0]]
    }, 
    {
      "op": "Activation", 
      "name": "encoder_birnn_forward_l0_t68_i", 
      "attrs": {"act_type": "sigmoid"}, 
      "inputs": [[981, 0, 0]]
    }, 
    {
      "op": "Activation", 
      "name": "encoder_birnn_forward_l0_t68_c", 
      "attrs": {"act_type": "tanh"}, 
      "inputs": [[981, 2, 0]]
    }, 
    {
      "op": "elemwise_mul", 
      "name": "_mul137", 
      "inputs": [[985, 0, 0], [986, 0, 0]]
    }, 
    {
      "op": "elemwise_add", 
      "name": "encoder_birnn_forward_l0_t68_state", 
      "inputs": [[984, 0, 0], [987, 0, 0]]
    }, 
    {
      "op": "Activation", 
      "name": "activation68", 
      "attrs": {"act_type": "tanh"}, 
      "inputs": [[988, 0, 0]]
    }, 
    {
      "op": "elemwise_mul", 
      "name": "encoder_birnn_forward_l0_t68_out", 
      "inputs": [[982, 0, 0], [989, 0, 0]]
    }, 
    {
      "op": "expand_dims", 
      "name": "expand_dims68", 
      "attrs": {"axis": "0"}, 
      "inputs": [[990, 0, 0]]
    }, 
    {
      "op": "FullyConnected", 
      "name": "encoder_birnn_forward_l0_t69_i2h", 
      "attrs": {"num_hidden": "1024"}, 
      "inputs": [[19, 69, 0], [20, 0, 0], [21, 0, 0]]
    }, 
    {
      "op": "FullyConnected", 
      "name": "encoder_birnn_forward_l0_t69_h2h", 
      "attrs": {"num_hidden": "1024"}, 
      "inputs": [[990, 0, 0], [24, 0, 0], [25, 0, 0]]
    }, 
    {
      "op": "elemwise_add", 
      "name": "_plus69", 
      "inputs": [[992, 0, 0], [993, 0, 0]]
    }, 
    {
      "op": "SliceChannel", 
      "name": "encoder_birnn_forward_l0_t69_slice", 
      "attrs": {"num_outputs": "4"}, 
      "inputs": [[994, 0, 0]]
    }, 
    {
      "op": "Activation", 
      "name": "encoder_birnn_forward_l0_t69_o", 
      "attrs": {"act_type": "sigmoid"}, 
      "inputs": [[995, 3, 0]]
    }, 
    {
      "op": "Activation", 
      "name": "encoder_birnn_forward_l0_t69_f", 
      "attrs": {"act_type": "sigmoid"}, 
      "inputs": [[995, 1, 0]]
    }, 
    {
      "op": "elemwise_mul", 
      "name": "_mul138", 
      "inputs": [[997, 0, 0], [988, 0, 0]]
    }, 
    {
      "op": "Activation", 
      "name": "encoder_birnn_forward_l0_t69_i", 
      "attrs": {"act_type": "sigmoid"}, 
      "inputs": [[995, 0, 0]]
    }, 
    {
      "op": "Activation", 
      "name": "encoder_birnn_forward_l0_t69_c", 
      "attrs": {"act_type": "tanh"}, 
      "inputs": [[995, 2, 0]]
    }, 
    {
      "op": "elemwise_mul", 
      "name": "_mul139", 
      "inputs": [[999, 0, 0], [1000, 0, 0]]
    }, 
    {
      "op": "elemwise_add", 
      "name": "encoder_birnn_forward_l0_t69_state", 
      "inputs": [[998, 0, 0], [1001, 0, 0]]
    }, 
    {
      "op": "Activation", 
      "name": "activation69", 
      "attrs": {"act_type": "tanh"}, 
      "inputs": [[1002, 0, 0]]
    }, 
    {
      "op": "elemwise_mul", 
      "name": "encoder_birnn_forward_l0_t69_out", 
      "inputs": [[996, 0, 0], [1003, 0, 0]]
    }, 
    {
      "op": "expand_dims", 
      "name": "expand_dims69", 
      "attrs": {"axis": "0"}, 
      "inputs": [[1004, 0, 0]]
    }, 
    {
      "op": "FullyConnected", 
      "name": "encoder_birnn_forward_l0_t70_i2h", 
      "attrs": {"num_hidden": "1024"}, 
      "inputs": [[19, 70, 0], [20, 0, 0], [21, 0, 0]]
    }, 
    {
      "op": "FullyConnected", 
      "name": "encoder_birnn_forward_l0_t70_h2h", 
      "attrs": {"num_hidden": "1024"}, 
      "inputs": [[1004, 0, 0], [24, 0, 0], [25, 0, 0]]
    }, 
    {
      "op": "elemwise_add", 
      "name": "_plus70", 
      "inputs": [[1006, 0, 0], [1007, 0, 0]]
    }, 
    {
      "op": "SliceChannel", 
      "name": "encoder_birnn_forward_l0_t70_slice", 
      "attrs": {"num_outputs": "4"}, 
      "inputs": [[1008, 0, 0]]
    }, 
    {
      "op": "Activation", 
      "name": "encoder_birnn_forward_l0_t70_o", 
      "attrs": {"act_type": "sigmoid"}, 
      "inputs": [[1009, 3, 0]]
    }, 
    {
      "op": "Activation", 
      "name": "encoder_birnn_forward_l0_t70_f", 
      "attrs": {"act_type": "sigmoid"}, 
      "inputs": [[1009, 1, 0]]
    }, 
    {
      "op": "elemwise_mul", 
      "name": "_mul140", 
      "inputs": [[1011, 0, 0], [1002, 0, 0]]
    }, 
    {
      "op": "Activation", 
      "name": "encoder_birnn_forward_l0_t70_i", 
…
    4672, 
    4673, 
    4674, 
    4675, 
    4676, 
    4677, 
    4678, 
    4679, 
    4680, 
    4681, 
    4685, 
    4686, 
    4687, 
    4688, 
    4689, 
    4690, 
    4691, 
    4692, 
    4693, 
    4694, 
    4695, 
    4696, 
    4697, 
    4698, 
    4702, 
    4703, 
    4704, 
    4705, 
    4706, 
    4707, 
    4708, 
    4709, 
    4710, 
    4711, 
    4712, 
    4713, 
    4714, 
    4715, 
    4719, 
    4720, 
    4721, 
    4722, 
    4723, 
    4724, 
    4725, 
    4726, 
    4727, 
    4728, 
    4729, 
    4730, 
    4731, 
    4732, 
    4736, 
    4737, 
    4738, 
    4739, 
    4740, 
    4741, 
    4742, 
    4743, 
    4744, 
    4745, 
    4746, 
    4747, 
    4748, 
    4749, 
    4753, 
    4754, 
    4755, 
    4756, 
    4757, 
    4758, 
    4759, 
    4760, 
    4761, 
    4762, 
    4763, 
    4764, 
    4765, 
    4766, 
    4770, 
    4771, 
    4772, 
    4773, 
    4774, 
    4775, 
    4776, 
    4777, 
    4778, 
    4779, 
    4780, 
    4781, 
    4782, 
    4783, 
    4787, 
    4788, 
    4789, 
    4790, 
    4791, 
    4792, 
    4793, 
    4794, 
    4795, 
    4796, 
    4797, 
    4798, 
    4799, 
    4800, 
    4804, 
    4805, 
    4806, 
    4807, 
    4808, 
    4809, 
    4810, 
    4811, 
    4812, 
    4813, 
    4814, 
    4815, 
    4816, 
    4817, 
    4821, 
    4822, 
    4823, 
    4824, 
    4825, 
    4826, 
    4827, 
    4828, 
    4829, 
    4830, 
    4831, 
    4832, 
    4833, 
    4834, 
    4838, 
    4839, 
    4840, 
    4841, 
    4842, 
    4843, 
    4844, 
    4845, 
    4846, 
    4847, 
    4848, 
    4849, 
    4850, 
    4851, 
    4855, 
    4856, 
    4857, 
    4858, 
    4859, 
    4860, 
    4861, 
    4862, 
    4863, 
    4864, 
    4865, 
    4866, 
    4867, 
    4868, 
    4872, 
    4873, 
    4874, 
    4875, 
    4876, 
    4877, 
    4878, 
    4879, 
    4880, 
    4881, 
    4882, 
    4883, 
    4884, 
    4885, 
    4889, 
    4890, 
    4891, 
    4892, 
    4893, 
    4894, 
    4895, 
    4896, 
    4897, 
    4898, 
    4899, 
    4900, 
    4901, 
    4902, 
    4906, 
    4907, 
    4908, 
    4909, 
    4910, 
    4911, 
    4912, 
    4913, 
    4914, 
    4915, 
    4916, 
    4917, 
    4918, 
    4919, 
    4923, 
    4924, 
    4925, 
    4926, 
    4927, 
    4928, 
    4929, 
    4930, 
    4931, 
    4932, 
    4933, 
    4934, 
    4935, 
    4936, 
    4940, 
    4941, 
    4942, 
    4943, 
    4944, 
    4945, 
    4946, 
    4947, 
    4948, 
    4949, 
    4950, 
    4951, 
    4952, 
    4953, 
    4957, 
    4958, 
    4959, 
    4960, 
    4961, 
    4962, 
    4963, 
    4964, 
    4965, 
    4966, 
    4967, 
    4968, 
    4969, 
    4970, 
    4974, 
    4975, 
    4976, 
    4977, 
    4978, 
    4979, 
    4980, 
    4981, 
    4982, 
    4983, 
    4984, 
    4985, 
    4986, 
    4987, 
    4991, 
    4992, 
    4993, 
    4994, 
    4995, 
    4996, 
    4997, 
    4998, 
    4999, 
    5000, 
    5001, 
    5002, 
    5003, 
    5004, 
    5008, 
    5009, 
    5010, 
    5011, 
    5012, 
    5013, 
    5014, 
    5015, 
    5016, 
    5017, 
    5018, 
    5019, 
    5020, 
    5021, 
    5025, 
    5026, 
    5027, 
    5028, 
    5029, 
    5030, 
    5031, 
    5032, 
    5033, 
    5034, 
    5035, 
    5036, 
    5037, 
    5038, 
    5042, 
    5043, 
    5044, 
    5045, 
    5046, 
    5047, 
    5048, 
    5049, 
    5050, 
    5051, 
    5052, 
    5053, 
    5054, 
    5055, 
    5059, 
    5060, 
    5061, 
    5062, 
    5063, 
    5064, 
    5065, 
    5066, 
    5067, 
    5068, 
    5069, 
    5070, 
    5071, 
    5072, 
    5076, 
    5077, 
    5078, 
    5079, 
    5080, 
    5081, 
    5082, 
    5083, 
    5084, 
    5085, 
    5086, 
    5087, 
    5088, 
    5089, 
    5093, 
    5094, 
    5095, 
    5096, 
    5097, 
    5098, 
    5099, 
    5100, 
    5101, 
    5102, 
    5103, 
    5104, 
    5105, 
    5106, 
    5110, 
    5111, 
    5112, 
    5113, 
    5114, 
    5115, 
    5116, 
    5117, 
    5118, 
    5119, 
    5120, 
    5121, 
    5122, 
    5123, 
    5127, 
    5128, 
    5129, 
    5130, 
    5131, 
    5132, 
    5133, 
    5134, 
    5135, 
    5136, 
    5137, 
    5138, 
    5139, 
    5140, 
    5144, 
    5145, 
    5146, 
    5147, 
    5148, 
    5149, 
    5150, 
    5151, 
    5152, 
    5153, 
    5154, 
    5155, 
    5156, 
    5157, 
    5161, 
    5162, 
    5163, 
    5164, 
    5165, 
    5166, 
    5167, 
    5168, 
    5169, 
    5170, 
    5171, 
    5172, 
    5173, 
    5174, 
    5178, 
    5179, 
    5180, 
    5181, 
    5182, 
    5183, 
    5184, 
    5185, 
    5186, 
    5187, 
    5188, 
    5189, 
    5190, 
    5191, 
    5195, 
    5196, 
    5197, 
    5198, 
    5199, 
    5200, 
    5201, 
    5202, 
    5203, 
    5204, 
    5205, 
    5206, 
    5207, 
    5208, 
    5212, 
    5213, 
    5214, 
    5215, 
    5216, 
    5217, 
    5218, 
    5219, 
    5220, 
    5221, 
    5222, 
    5223, 
    5224, 
    5225, 
    5229, 
    5230, 
    5231, 
    5232, 
    5233, 
    5234, 
    5235, 
    5236, 
    5237, 
    5238, 
    5239, 
    5240, 
    5241, 
    5242, 
    5246, 
    5247, 
    5248, 
    5249, 
    5250, 
    5251, 
    5252, 
    5253, 
    5254, 
    5255, 
    5256, 
    5257, 
    5258, 
    5259, 
    5263, 
    5264, 
    5265, 
    5266, 
    5267, 
    5268, 
    5269, 
    5270, 
    5271, 
    5272, 
    5273, 
    5274, 
    5275, 
    5276, 
    5280, 
    5281, 
    5282, 
    5283, 
    5284, 
    5285, 
    5286, 
    5287, 
    5288, 
    5289, 
    5290, 
    5291, 
    5292, 
    5293, 
    5297, 
    5298, 
    5299, 
    5300, 
    5301, 
    5302, 
    5303, 
    5304, 
    5305, 
    5306, 
    5307, 
    5308, 
    5309, 
    5310, 
    5314, 
    5315, 
    5316, 
    5317, 
    5318, 
    5319, 
    5320, 
    5321, 
    5322, 
    5323, 
    5324, 
    5325, 
    5326, 
    5327, 
    5331, 
    5332, 
    5333, 
    5334, 
    5335, 
    5336, 
    5337, 
    5338, 
    5339, 
    5340, 
    5341, 
    5342, 
    5343, 
    5344, 
    5348, 
    5349, 
    5350, 
    5351, 
    5352, 
    5353, 
    5354, 
    5355, 
    5356, 
    5357, 
    5358, 
    5359, 
    5360, 
    5361, 
    5365, 
    5366, 
    5367, 
    5368, 
    5369, 
    5370, 
    5371, 
    5372, 
    5373, 
    5374, 
    5375, 
    5376, 
    5377, 
    5378, 
    5382, 
    5383, 
    5384, 
    5385, 
    5386, 
    5387, 
    5388, 
    5389, 
    5390, 
    5391, 
    5392, 
    5393, 
    5394, 
    5395, 
    5399, 
    5400, 
    5401, 
    5402, 
    5403, 
    5404, 
    5405, 
    5406, 
    5407, 
    5408, 
    5409, 
    5410, 
    5411, 
    5412, 
    5416, 
    5417, 
    5418, 
    5419, 
    5420, 
    5421, 
    5422, 
    5423, 
    5424, 
    5425, 
    5426, 
    5427, 
    5428, 
    5429, 
    5433, 
    5434, 
    5435, 
    5436, 
    5437, 
    5438, 
    5439, 
    5440, 
    5441, 
    5442, 
    5443, 
    5444, 
    5445, 
    5446, 
    5450, 
    5451, 
    5452, 
    5453, 
    5454, 
    5455, 
    5456, 
    5457, 
    5458, 
    5459, 
    5460, 
    5461, 
    5462, 
    5463, 
    5467, 
    5468, 
    5469, 
    5470, 
    5471, 
    5472, 
    5473, 
    5474, 
    5475, 
    5476, 
    5477, 
    5478, 
    5479, 
    5480, 
    5484, 
    5485, 
    5486, 
    5487, 
    5488, 
    5489, 
    5490, 
    5491, 
    5492, 
    5493, 
    5494, 
    5495, 
    5496, 
    5497, 
    5501, 
    5502, 
    5503, 
    5504, 
    5505, 
    5506, 
    5507, 
    5508, 
    5509, 
    5510, 
    5511, 
    5512, 
    5513, 
    5514, 
    5518, 
    5519, 
    5520, 
    5521, 
    5522, 
    5523, 
    5524, 
    5525, 
    5526, 
    5527, 
    5528, 
    5529, 
    5530, 
    5531, 
    5535, 
    5536, 
    5537, 
    5538, 
    5539, 
    5540, 
    5541, 
    5542, 
    5543, 
    5544, 
    5545, 
    5546, 
    5547, 
    5548, 
    5552, 
    5553, 
    5554, 
    5555, 
    5556, 
    5557, 
    5558, 
    5559, 
    5560, 
    5561, 
    5562, 
    5563, 
    5564, 
    5565, 
    5569, 
    5570, 
    5571, 
    5572, 
    5573, 
    5574, 
    5575, 
    5576, 
    5577, 
    5578, 
    5579, 
    5580, 
    5581, 
    5582, 
    5586, 
    5587, 
    5588, 
    5589, 
    5590, 
    5591, 
    5592, 
    5593, 
    5594, 
    5595, 
    5596, 
    5597, 
    5598, 
    5599, 
    5600, 
    5601, 
    5602, 
    5603, 
    5604, 
    5605, 
    5606, 
    5607, 
    5611, 
    5612, 
    5613, 
    5614, 
    5615, 
    5616, 
    5617, 
    5618, 
    5619, 
    5620, 
    5621, 
    5622, 
    5623, 
    5624, 
    5625, 
    5626, 
    5627, 
    5628, 
    5629, 
    5630, 
    5631, 
    5632, 
    5633, 
    5634, 
    5635, 
    5639, 
    5640, 
    5641, 
    5642, 
    5643, 
    5644, 
    5645, 
    5646, 
    5647, 
    5648, 
    5649, 
    5650, 
    5651, 
    5652, 
    5653, 
    5654, 
    5655, 
    5656, 
    5657, 
    5658, 
    5659, 
    5661, 
    5662, 
    5663, 
    5664, 
    5665, 
    5666, 
    5667, 
    5668, 
    5669, 
    5673, 
    5674, 
    5675, 
    5676, 
    5677, 
    5678, 
    5679, 
    5680, 
    5681, 
    5682, 
    5683, 
    5684, 
    5685, 
    5689, 
    5690, 
    5691, 
    5692, 
    5693, 
    5694, 
    5695, 
    5696, 
    5697, 
    5698, 
    5699, 
    5700, 
    5701, 
    5702, 
    5703, 
    5704, 
    5705, 
    5707, 
    5708, 
    5709, 
    5710, 
    5711, 
    5712, 
    5713, 
    5717, 
    5718, 
    5719, 
    5720, 
    5721, 
    5722, 
    5723, 
    5724, 
    5725, 
    5726, 
    5727, 
    5728, 
    5729, 
    5733, 
    5734, 
    5735, 
    5736, 
    5737, 
    5738, 
    5739, 
    5740, 
    5741, 
    5742, 
    5743, 
    5744, 
    5745, 
    5746, 
    5747, 
    5748, 
    5749, 
    5751, 
    5752, 
    5753, 
    5754, 
    5755, 
    5756, 
    5757, 
    5761, 
    5762, 
    5763, 
    5764, 
    5765, 
    5766, 
    5767, 
    5768, 
    5769, 
    5770, 
    5771, 
    5772, 
    5773, 
    5777, 
    5778, 
    5779, 
    5780, 
    5781, 
    5782, 
    5783, 
    5784, 
    5785, 
    5786, 
    5787, 
    5788, 
    5789, 
    5790, 
    5791, 
    5792, 
    5793, 
    5795, 
    5796, 
    5797, 
    5798, 
    5799, 
    5800, 
    5801, 
    5805, 
    5806, 
    5807, 
    5808, 
    5809, 
    5810, 
    5811, 
    5812, 
    5813, 
    5814, 
    5815, 
    5816, 
    5817, 
    5821, 
    5822, 
    5823, 
    5824, 
    5825, 
    5826, 
    5827, 
    5828, 
    5829, 
    5830, 
    5831, 
    5832, 
    5833, 
    5834, 
    5835, 
    5836, 
    5837, 
    5839, 
    5840, 
    5841, 
    5842, 
    5843, 
    5844, 
    5845, 
    5849, 
    5850, 
    5851, 
    5852, 
    5853, 
    5854, 
    5855, 
    5856, 
    5857, 
    5858, 
    5859, 
    5860, 
    5861, 
    5865, 
    5866, 
    5867, 
    5868, 
    5869, 
    5870, 
    5871, 
    5872, 
    5873, 
    5874, 
    5875, 
    5876, 
    5877, 
    5878, 
    5879, 
    5880, 
    5881, 
    5883, 
    5884, 
    5885, 
    5886, 
    5887, 
    5888, 
    5889, 
    5893, 
    5894, 
    5895, 
    5896, 
    5897, 
    5898, 
    5899, 
    5900, 
    5901, 
    5902, 
    5903, 
    5904, 
    5905, 
    5909, 
    5910, 
    5911, 
    5912, 
    5913, 
    5914, 
    5915, 
    5916, 
    5917, 
    5918, 
    5919, 
    5920, 
    5921, 
    5922, 
    5923, 
    5924, 
    5925, 
    5927, 
    5928, 
    5929, 
    5930, 
    5931, 
    5932, 
    5933, 
    5937, 
    5938, 
    5939, 
    5940, 
    5941, 
    5942, 
    5943, 
    5944, 
    5945, 
    5946, 
    5947, 
    5948, 
    5949, 
    5953, 
    5954, 
    5955, 
    5956, 
    5957, 
    5958, 
    5959, 
    5960, 
    5961, 
    5962, 
    5963, 
    5964, 
    5965, 
    5966, 
    5967, 
    5968, 
    5969, 
    5971, 
    5972, 
    5973, 
    5974, 
    5975, 
    5976, 
    5977, 
    5981, 
    5982, 
    5983, 
    5984, 
    5985, 
    5986, 
    5987, 
    5988, 
    5989, 
    5990, 
    5991, 
    5992, 
    5993, 
    5997, 
    5998, 
    5999, 
    6000, 
    6001, 
    6002, 
    6003, 
    6004, 
    6005, 
    6006, 
    6007, 
    6008, 
    6009, 
    6010, 
    6011, 
    6012, 
    6013, 
    6015, 
    6016, 
    6017, 
    6018, 
    6019, 
    6020, 
    6021, 
    6025, 
    6026, 
    6027, 
    6028, 
    6029, 
    6030, 
    6031, 
    6032, 
    6033, 
    6034, 
    6035, 
    6036, 
    6037, 
    6041, 
    6042, 
    6043, 
    6044, 
    6045, 
    6046, 
    6047, 
    6048, 
    6049, 
    6050, 
    6051, 
    6052, 
    6053, 
    6054, 
    6055, 
    6056, 
    6057, 
    6059, 
    6060, 
    6061, 
    6062, 
    6063, 
    6064, 
    6065, 
    6069, 
    6070, 
    6071, 
    6072, 
    6073, 
    6074, 
    6075, 
    6076, 
    6077, 
    6078, 
    6079, 
    6080, 
    6081, 
    6085, 
    6086, 
    6087, 
    6088, 
    6089, 
    6090, 
    6091, 
    6092, 
    6093, 
    6094, 
    6095, 
    6096, 
    6097, 
    6098, 
    6099, 
    6100, 
    6101, 
    6103, 
    6104, 
    6105, 
    6106, 
    6107, 
    6108, 
    6109, 
    6113, 
    6114, 
    6115, 
    6116, 
    6117, 
    6118, 
    6119, 
    6120, 
    6121, 
    6122, 
    6123, 
    6124, 
    6125, 
    6129, 
    6130, 
    6131, 
    6132, 
    6133, 
    6134, 
    6135, 
    6136, 
    6137, 
    6138, 
    6139, 
    6140, 
    6141, 
    6142, 
    6143, 
    6144, 
    6145, 
    6147, 
    6148, 
    6149, 
    6150, 
    6151, 
    6152, 
    6153, 
    6157, 
    6158, 
    6159, 
    6160, 
    6161, 
    6162, 
    6163, 
    6164, 
    6165, 
    6166, 
    6167, 
    6168, 
    6169, 
    6173, 
    6174, 
    6175, 
    6176, 
    6177, 
    6178, 
    6179, 
    6180, 
    6181, 
    6182, 
    6183, 
    6184, 
    6185, 
    6186, 
    6187, 
    6188, 
    6189, 
    6191, 
    6192, 
    6193, 
    6194, 
    6195, 
    6196, 
    6197, 
    6201, 
    6202, 
    6203, 
    6204, 
    6205, 
    6206, 
    6207, 
    6208, 
    6209, 
    6210, 
    6211, 
    6212, 
    6213, 
    6217, 
    6218, 
    6219, 
    6220, 
    6221, 
    6222, 
    6223, 
    6224, 
    6225, 
    6226, 
    6227, 
    6228, 
    6229, 
    6230, 
    6231, 
    6232, 
    6233, 
    6235, 
    6236, 
    6237, 
    6238, 
    6239, 
    6240, 
    6241, 
    6245, 
    6246, 
    6247, 
    6248, 
    6249, 
    6250, 
    6251, 
    6252, 
    6253, 
    6254, 
    6255, 
    6256, 
    6257, 
    6261, 
    6262, 
    6263, 
    6264, 
    6265, 
    6266, 
    6267, 
    6268, 
    6269, 
    6270, 
    6271, 
    6272, 
    6273, 
    6274, 
    6275, 
    6276, 
    6277, 
    6279, 
    6280, 
    6281, 
    6282, 
    6283, 
    6284, 
    6285, 
    6289, 
    6290, 
    6291, 
    6292, 
    6293, 
    6294, 
    6295, 
    6296, 
    6297, 
    6298, 
    6299, 
    6300, 
    6301, 
    6305, 
    6306, 
    6307, 
    6308, 
    6309, 
    6310, 
    6311, 
    6312, 
    6313, 
    6314, 
    6315, 
    6316, 
    6317, 
    6318, 
    6319, 
    6320, 
    6321, 
    6323, 
    6324, 
    6325, 
    6326, 
    6327, 
    6328, 
    6329, 
    6333, 
    6334, 
    6335, 
    6336, 
    6337, 
    6338, 
    6339, 
    6340, 
    6341, 
    6342, 
    6343, 
    6344, 
    6345, 
    6349, 
    6350, 
    6351, 
    6352, 
    6353, 
    6354, 
    6355, 
    6356, 
    6357, 
    6358, 
    6359, 
    6360, 
    6361, 
    6362, 
    6363, 
    6364, 
    6365, 
    6367, 
    6368, 
    6369, 
    6370, 
    6371, 
    6372, 
    6373, 
    6377, 
    6378, 
    6379, 
    6380, 
    6381, 
    6382, 
    6383, 
    6384, 
    6385, 
    6386, 
    6387, 
    6388, 
    6389, 
    6393, 
    6394, 
    6395, 
    6396, 
    6397, 
    6398, 
    6399, 
    6400, 
    6401, 
    6402, 
    6403, 
    6404, 
    6405, 
    6406, 
    6407, 
    6408, 
    6409, 
    6411, 
    6412, 
    6413, 
    6414, 
    6415, 
    6416, 
    6417, 
    6421, 
    6422, 
    6423, 
    6424, 
    6425, 
    6426, 
    6427, 
    6428, 
    6429, 
    6430, 
    6431, 
    6432, 
    6433, 
    6437, 
    6438, 
    6439, 
    6440, 
    6441, 
    6442, 
    6443, 
    6444, 
    6445, 
    6446, 
    6447, 
    6448, 
    6449, 
    6450, 
    6451, 
    6452, 
    6453, 
    6455, 
    6456, 
    6457, 
    6458, 
    6459, 
    6460, 
    6461, 
    6465, 
    6466, 
    6467, 
    6468, 
    6469, 
    6470, 
    6471, 
    6472, 
    6473, 
    6474, 
    6475, 
    6476, 
    6477, 
    6481, 
    6482, 
    6483, 
    6484, 
    6485, 
    6486, 
    6487, 
    6488, 
    6489, 
    6490, 
    6491, 
    6492, 
    6493, 
    6494, 
    6495, 
    6496, 
    6497, 
    6499, 
    6500, 
    6501, 
    6502, 
    6503, 
    6504, 
    6505, 
    6509, 
    6510, 
    6511, 
    6512, 
    6513, 
    6514, 
    6515, 
    6516, 
    6517, 
    6518, 
    6519, 
    6520, 
    6521, 
    6525, 
    6526, 
    6527, 
    6528, 
    6529, 
    6530, 
    6531, 
    6532, 
    6533, 
    6534, 
    6535, 
    6536, 
    6537, 
    6538, 
    6539, 
    6540, 
    6541, 
    6543, 
    6544, 
    6545, 
    6546, 
    6547, 
    6548, 
    6549, 
    6553, 
    6554, 
    6555, 
    6556, 
    6557, 
    6558, 
    6559, 
    6560, 
    6561, 
    6562, 
    6563, 
    6564, 
    6565, 
    6569, 
    6570, 
    6571, 
    6572, 
    6573, 
    6574, 
    6575, 
    6576, 
    6577, 
    6578, 
    6579, 
    6580, 
    6581, 
    6582, 
    6583, 
    6584, 
    6585, 
    6587, 
    6588, 
    6589, 
    6590, 
    6591, 
    6592, 
    6593, 
    6597, 
    6598, 
    6599, 
    6600, 
    6601, 
    6602, 
    6603, 
    6604, 
    6605, 
    6606, 
    6607, 
    6608, 
    6609, 
    6613, 
    6614, 
    6615, 
    6616, 
    6617, 
    6618, 
    6619, 
    6620, 
    6621, 
    6622, 
    6623, 
    6624, 
    6625, 
    6626, 
    6627, 
    6628, 
    6629, 
    6631, 
    6632, 
    6633, 
    6634, 
    6635, 
    6636, 
    6637, 
    6641, 
    6642, 
    6643, 
    6644, 
    6645, 
    6646, 
    6647, 
    6648, 
    6649, 
    6650, 
    6651, 
    6652, 
    6653, 
    6657, 
    6658, 
    6659, 
    6660, 
    6661, 
    6662, 
    6663, 
    6664, 
    6665, 
    6666, 
    6667, 
    6668, 
    6669, 
    6670, 
    6671, 
    6672, 
    6673, 
    6675, 
    6676, 
    6677, 
    6678, 
    6679, 
    6680, 
    6681, 
    6685, 
    6686, 
    6687, 
    6688, 
    6689, 
    6690, 
    6691, 
    6692, 
    6693, 
    6694, 
    6695, 
    6696, 
    6697, 
    6701, 
    6702, 
    6703, 
    6704, 
    6705, 
    6706, 
    6707, 
    6708, 
    6709, 
    6710, 
    6711, 
    6712, 
    6713, 
    6714, 
    6715, 
    6716, 
    6717, 
    6719, 
    6720, 
    6721, 
    6722, 
    6723, 
    6724, 
    6725, 
    6729, 
    6730, 
    6731, 
    6732, 
    6733, 
    6734, 
    6735, 
    6736, 
    6737, 
    6738, 
    6739, 
    6740, 
    6741, 
    6745, 
    6746, 
    6747, 
    6748, 
    6749, 
    6750, 
    6751, 
    6752, 
    6753, 
    6754, 
    6755, 
    6756, 
    6757, 
    6758, 
    6759, 
    6760, 
    6761, 
    6763, 
    6764, 
    6765, 
    6766, 
    6767, 
    6768, 
    6769, 
    6773, 
    6774, 
    6775, 
    6776, 
    6777, 
    6778, 
    6779, 
    6780, 
    6781, 
    6782, 
    6783, 
    6784, 
    6785, 
    6789, 
    6790, 
    6791, 
    6792, 
    6793, 
    6794, 
    6795, 
    6796, 
    6797, 
    6798, 
    6799, 
    6800, 
    6801, 
    6802, 
    6803, 
    6804, 
    6805, 
    6807, 
    6808, 
    6809, 
    6810, 
    6811, 
    6812, 
    6813, 
    6817, 
    6818, 
    6819, 
    6820, 
    6821, 
    6822, 
    6823, 
    6824, 
    6825, 
    6826, 
    6827, 
    6828, 
    6829, 
    6833, 
    6834, 
    6835, 
    6836, 
    6837, 
    6838, 
    6839, 
    6840, 
    6841, 
    6842, 
    6843, 
    6844, 
    6845, 
    6846, 
    6847, 
    6848, 
    6849, 
    6851, 
    6852, 
    6853, 
    6854, 
    6855, 
    6856, 
    6857, 
    6861, 
    6862, 
    6863, 
    6864, 
    6865, 
    6866, 
    6867, 
    6868, 
    6869, 
    6870, 
    6871, 
    6872, 
    6873, 
    6877, 
    6878, 
    6879, 
    6880, 
    6881, 
    6882, 
    6883, 
    6884, 
    6885, 
    6886, 
    6887, 
    6888, 
    6889, 
    6890, 
    6891, 
    6892, 
    6893, 
    6895, 
    6896, 
    6897, 
    6898, 
    6899, 
    6900, 
    6901, 
    6905, 
    6906, 
    6907, 
    6908, 
    6909, 
    6910, 
    6911, 
    6912, 
    6913, 
    6914, 
    6915, 
    6916, 
    6917, 
    6921, 
    6922, 
    6923, 
    6924, 
    6925, 
    6926, 
    6927, 
    6928, 
    6929, 
    6930, 
    6931, 
    6932, 
    6933, 
    6934, 
    6935, 
    6936, 
    6937, 
    6939, 
    6940, 
    6941, 
    6942, 
    6943, 
    6944, 
    6945, 
    6949, 
    6950, 
    6951, 
    6952, 
    6953, 
    6954, 
    6955, 
    6956, 
    6957, 
    6958, 
    6959, 
    6960, 
    6961, 
    6965, 
    6966, 
    6967, 
    6968, 
    6969, 
    6970, 
    6971, 
    6972, 
    6973, 
    6974, 
    6975, 
    6976, 
    6977, 
    6978, 
    6979, 
    6980, 
    6981, 
    6983, 
    6984, 
    6985, 
    6986, 
    6987, 
    6988, 
    6989, 
    6993, 
    6994, 
    6995, 
    6996, 
    6997, 
    6998, 
    6999, 
    7000, 
    7001, 
    7002, 
    7003, 
    7004, 
    7005, 
    7009, 
    7010, 
    7011, 
    7012, 
    7013, 
    7014, 
    7015, 
    7016, 
    7017, 
    7018, 
    7019, 
    7020, 
    7021, 
    7022, 
    7023, 
    7024, 
    7025, 
    7027, 
    7028, 
    7029, 
    7030, 
    7031, 
    7032, 
    7033, 
    7037, 
    7038, 
    7039, 
    7040, 
    7041, 
    7042, 
    7043, 
    7044, 
    7045, 
    7046, 
    7047, 
    7048, 
    7049, 
    7053, 
    7054, 
    7055, 
    7056, 
    7057, 
    7058, 
    7059, 
    7060, 
    7061, 
    7062, 
    7063, 
    7064, 
    7065, 
    7066, 
    7067, 
    7068, 
    7069, 
    7071, 
    7072, 
    7073, 
    7074, 
    7075, 
    7076, 
    7077, 
    7081, 
    7082, 
    7083, 
    7084, 
    7085, 
    7086, 
    7087, 
    7088, 
    7089, 
    7090, 
    7091, 
    7092, 
    7093, 
    7097, 
    7098, 
    7099, 
    7100, 
    7101, 
    7102, 
    7103, 
    7104, 
    7105, 
    7106, 
    7107, 
    7108, 
    7109, 
    7110, 
    7111, 
    7112, 
    7113, 
    7115, 
    7116, 
    7117, 
    7118, 
    7119, 
    7120, 
    7121, 
    7125, 
    7126, 
    7127, 
    7128, 
    7129, 
    7130, 
    7131, 
    7132, 
    7133, 
    7134, 
    7135, 
    7136, 
    7137, 
    7141, 
    7142, 
    7143, 
    7144, 
    7145, 
    7146, 
    7147, 
    7148, 
    7149, 
    7150, 
    7151, 
    7152, 
    7153, 
    7154, 
    7155, 
    7156, 
    7157, 
    7159, 
    7160, 
    7161, 
    7162, 
    7163, 
    7164, 
    7165, 
    7169, 
    7170, 
    7171, 
    7172, 
    7173, 
    7174, 
    7175, 
    7176, 
    7177, 
    7178, 
    7179, 
    7180, 
    7181, 
    7185, 
    7186, 
    7187, 
    7188, 
    7189, 
    7190, 
    7191, 
    7192, 
    7193, 
    7194, 
    7195, 
    7196, 
    7197, 
    7198, 
    7199, 
    7200, 
    7201, 
    7203, 
    7204, 
    7205, 
    7206, 
    7207, 
    7208, 
    7209, 
    7213, 
    7214, 
    7215, 
    7216, 
    7217, 
    7218, 
    7219, 
    7220, 
    7221, 
    7222, 
    7223, 
    7224, 
    7225, 
    7229, 
    7230, 
    7231, 
    7232, 
    7233, 
    7234, 
    7235, 
    7236, 
    7237, 
    7238, 
    7239, 
    7240, 
    7241, 
    7242, 
    7243, 
    7244, 
    7245, 
    7247, 
    7248, 
    7249, 
    7250, 
    7251, 
    7252, 
    7253, 
    7257, 
    7258, 
    7259, 
    7260, 
    7261, 
    7262, 
    7263, 
    7264, 
    7265, 
    7266, 
    7267, 
    7268, 
    7269, 
    7273, 
    7274, 
    7275, 
    7276, 
    7277, 
    7278, 
    7279, 
    7280, 
    7281, 
    7282, 
    7283, 
    7284, 
    7285, 
    7286, 
    7287, 
    7288, 
    7289, 
    7291, 
    7292, 
    7293, 
    7294, 
    7295, 
    7296, 
    7297, 
    7301, 
    7302, 
    7303, 
    7304, 
    7305, 
    7306, 
    7307, 
    7308, 
    7309, 
    7310, 
    7311, 
    7312, 
    7313, 
    7317, 
    7318, 
    7319, 
    7320, 
    7321, 
    7322, 
    7323, 
    7324, 
    7325, 
    7326, 
    7327, 
    7328, 
    7329, 
    7330, 
    7331, 
    7332, 
    7333, 
    7335, 
    7336, 
    7337, 
    7338, 
    7339, 
    7340, 
    7341, 
    7345, 
    7346, 
    7347, 
    7348, 
    7349, 
    7350, 
    7351, 
    7352, 
    7353, 
    7354, 
    7355, 
    7356, 
    7357, 
    7361, 
    7362, 
    7363, 
    7364, 
    7365, 
    7366, 
    7367, 
    7368, 
    7369, 
    7370, 
    7371, 
    7372, 
    7373, 
    7374, 
    7375, 
    7376, 
    7377, 
    7379, 
    7380, 
    7381, 
    7382, 
    7383, 
    7384, 
    7385, 
    7389, 
    7390, 
    7391, 
    7392, 
    7393, 
    7394, 
    7395, 
    7396, 
    7397, 
    7398, 
    7399, 
    7400, 
    7401, 
    7405, 
    7406, 
    7407, 
    7408, 
    7409, 
    7410, 
    7411, 
    7412, 
    7413, 
    7414, 
    7415, 
    7416, 
    7417, 
    7418, 
    7419, 
    7420, 
    7421, 
    7423, 
    7424, 
    7425, 
    7426, 
    7427, 
    7428, 
    7429, 
    7433, 
    7434, 
    7435, 
    7436, 
    7437, 
    7438, 
    7439, 
    7440, 
    7441, 
    7442, 
    7443, 
    7444, 
    7445, 
    7449, 
    7450, 
    7451, 
    7452, 
    7453, 
    7454, 
    7455, 
    7456, 
    7457, 
    7458, 
    7459, 
    7460, 
    7461, 
    7462, 
    7463, 
    7464, 
    7465, 
    7467, 
    7468, 
    7469, 
    7470, 
    7471, 
    7472, 
    7473, 
    7477, 
    7478, 
    7479, 
    7480, 
    7481, 
    7482, 
    7483, 
    7484, 
    7485, 
    7486, 
    7487, 
    7488, 
    7489, 
    7493, 
    7494, 
    7495, 
    7496, 
    7497, 
    7498, 
    7499, 
    7500, 
    7501, 
    7502, 
    7503, 
    7504, 
    7505, 
    7506, 
    7507, 
    7508, 
    7509, 
    7511, 
    7512, 
    7513, 
    7514, 
    7515, 
    7516, 
    7517, 
    7521, 
    7522, 
    7523, 
    7524, 
    7525, 
    7526, 
    7527, 
    7528, 
    7529, 
    7530, 
    7531, 
    7532, 
    7533, 
    7537, 
    7538, 
    7539, 
    7540, 
    7541, 
    7542, 
    7543, 
    7544, 
    7545, 
    7546, 
    7547, 
    7548, 
    7549, 
    7550, 
    7551, 
    7552, 
    7553, 
    7555, 
    7556, 
    7557, 
    7558, 
    7559, 
    7560, 
    7561, 
    7565, 
    7566, 
    7567, 
    7568, 
    7569, 
    7570, 
    7571, 
    7572, 
    7573, 
    7574, 
    7575, 
    7576, 
    7577, 
    7581, 
    7582, 
    7583, 
    7584, 
    7585, 
    7586, 
    7587, 
    7588, 
    7589, 
    7590, 
    7591, 
    7592, 
    7593, 
    7594, 
    7595, 
    7596, 
    7597, 
    7599, 
    7600, 
    7601, 
    7602, 
    7603, 
    7604, 
    7605, 
    7609, 
    7610, 
    7611, 
    7612, 
    7613, 
    7614, 
    7615, 
    7616, 
    7617, 
    7618, 
    7619, 
    7620, 
    7621, 
    7625, 
    7626, 
    7627, 
    7628, 
    7629, 
    7630, 
    7631, 
    7632, 
    7633, 
    7634, 
    7635, 
    7636, 
    7637, 
    7638, 
    7639, 
    7640, 
    7641, 
    7643, 
    7644, 
    7645, 
    7646, 
    7647, 
    7648, 
    7649, 
    7653, 
    7654, 
    7655, 
    7656, 
    7657, 
    7658, 
    7659, 
    7660, 
    7661, 
    7662, 
    7663, 
    7664, 
    7665, 
    7669, 
    7670, 
    7671, 
    7672, 
    7673, 
    7674, 
    7675, 
    7676, 
    7677, 
    7678, 
    7679, 
    7680, 
    7681, 
    7682, 
    7683, 
    7684, 
    7685, 
    7687, 
    7688, 
    7689, 
    7690, 
    7691, 
    7692, 
    7693, 
    7697, 
    7698, 
    7699, 
    7700, 
    7701, 
    7702, 
    7703, 
    7704, 
    7705, 
    7706, 
    7707, 
    7708, 
    7709, 
    7713, 
    7714, 
    7715, 
    7716, 
    7717, 
    7718, 
    7719, 
    7720, 
    7721, 
    7722, 
    7723, 
    7724, 
    7725, 
    7726, 
    7727, 
    7728, 
    7729, 
    7731, 
    7732, 
    7733, 
    7734, 
    7735, 
    7736, 
    7737, 
    7741, 
    7742, 
    7743, 
    7744, 
    7745, 
    7746, 
    7747, 
    7748, 
    7749, 
    7750, 
    7751, 
    7752, 
    7753, 
    7757, 
    7758, 
    7759, 
    7760, 
    7761, 
    7762, 
    7763, 
    7764, 
    7765, 
    7766, 
    7767, 
    7768, 
    7769, 
    7770, 
    7771, 
    7772, 
    7773, 
    7775, 
    7776, 
    7777, 
    7778, 
    7779, 
    7780, 
    7781, 
    7785, 
    7786, 
    7787, 
    7788, 
    7789, 
    7790, 
    7791, 
    7792, 
    7793, 
    7794, 
    7795, 
    7796, 
    7797, 
    7801, 
    7802, 
    7803, 
    7804, 
    7805, 
    7806, 
    7807, 
    7808, 
    7809, 
    7810, 
    7811, 
    7812, 
    7813, 
    7814, 
    7815, 
    7816, 
    7817, 
    7819, 
    7820, 
    7821, 
    7822, 
    7823, 
    7824, 
    7825, 
    7829, 
    7830, 
    7831, 
    7832, 
    7833, 
    7834, 
    7835, 
    7836, 
    7837, 
    7838, 
    7839, 
    7840, 
    7841, 
    7845, 
    7846, 
    7847, 
    7848, 
    7849, 
    7850, 
    7851, 
    7852, 
    7853, 
    7854, 
    7855, 
    7856, 
    7857, 
    7858, 
    7859, 
    7860, 
    7861, 
    7863, 
    7864, 
    7865, 
    7866, 
    7867, 
    7868, 
    7869, 
    7873, 
    7874, 
    7875, 
    7876, 
    7877, 
    7878, 
    7879, 
    7880, 
    7881, 
    7882, 
    7883, 
    7884, 
    7885, 
    7889, 
    7890, 
    7891, 
    7892, 
    7893, 
    7894, 
    7895, 
    7896, 
    7897, 
    7898, 
    7899, 
    7900, 
    7901, 
    7902, 
    7903, 
    7904, 
    7905, 
    7907, 
    7908, 
    7909, 
    7910, 
    7911, 
    7912, 
    7913, 
    7917, 
    7918, 
    7919, 
    7920, 
    7921, 
    7922, 
    7923, 
    7924, 
    7925, 
    7926, 
    7927, 
    7928, 
    7929, 
    7933, 
    7934, 
    7935, 
    7936, 
    7937, 
    7938, 
    7939, 
    7940, 
    7941, 
    7942, 
    7943, 
    7944, 
    7945, 
    7946, 
    7947, 
    7948, 
    7949, 
    7951, 
    7952, 
    7953, 
    7954, 
    7955, 
    7956, 
    7957, 
    7961, 
    7962, 
    7963, 
    7964, 
    7965, 
    7966, 
    7967, 
    7968, 
    7969, 
    7970, 
    7971, 
    7972, 
    7973, 
    7977, 
    7978, 
    7979, 
    7980, 
    7981, 
    7982, 
    7983, 
    7984, 
    7985, 
    7986, 
    7987, 
    7988, 
    7989, 
    7990, 
    7991, 
    7992, 
    7993, 
    7995, 
    7996, 
    7997, 
    7998, 
    7999, 
    8000, 
    8001, 
    8005, 
    8006, 
    8007, 
    8008, 
    8009, 
    8010, 
    8011, 
    8012, 
    8013, 
    8014, 
    8015, 
    8016, 
    8017, 
    8021, 
    8022, 
    8023, 
    8024, 
    8025, 
    8026, 
    8027, 
    8028, 
    8029, 
    8030, 
    8031, 
    8032, 
    8033, 
    8034, 
    8035, 
    8036, 
    8037, 
    8039, 
    8040, 
    8041, 
    8042, 
    8043, 
    8044, 
    8045, 
    8049, 
    8050, 
    8051, 
    8052, 
    8053, 
    8054, 
    8055, 
    8056, 
    8057, 
    8058, 
    8059, 
    8060, 
    8061, 
    8065, 
    8066, 
    8067, 
    8068, 
    8069, 
    8070, 
    8071, 
    8072, 
    8073, 
    8074, 
    8075, 
    8076, 
    8077, 
    8078, 
    8079, 
    8080, 
    8081, 
    8083, 
    8084, 
    8085, 
    8086, 
    8087, 
    8088, 
    8089, 
    8093, 
    8094, 
    8095, 
    8096, 
    8097, 
    8098, 
    8099, 
    8100, 
    8101, 
    8102, 
    8103, 
    8104, 
    8105, 
    8109, 
    8110, 
    8111, 
    8112, 
    8113, 
    8114, 
    8115, 
    8116, 
    8117, 
    8118, 
    8119, 
    8120, 
    8121, 
    8122, 
    8123, 
    8124, 
    8125, 
    8127, 
    8128, 
    8129, 
    8130, 
    8131, 
    8132, 
    8133, 
    8137, 
    8138, 
    8139, 
    8140, 
    8141, 
    8142, 
    8143, 
    8144, 
    8145, 
    8146, 
    8147, 
    8148, 
    8149, 
    8153, 
    8154, 
    8155, 
    8156, 
    8157, 
    8158, 
    8159, 
    8160, 
    8161, 
    8162, 
    8163, 
    8164, 
    8165, 
    8166, 
    8167, 
    8168, 
    8169, 
    8171, 
    8172, 
    8173, 
    8174, 
    8175, 
    8176, 
    8177, 
    8181, 
    8182, 
    8183, 
    8184, 
    8185, 
    8186, 
    8187, 
    8188, 
    8189, 
    8190, 
    8191, 
    8192, 
    8193, 
    8197, 
    8198, 
    8199, 
    8200, 
    8201, 
    8202, 
    8203, 
    8204, 
    8205, 
    8206, 
    8207, 
    8208, 
    8209, 
    8210, 
    8211, 
    8212, 
    8213, 
    8215, 
    8216, 
    8217, 
    8218, 
    8219, 
    8220, 
    8221, 
    8225, 
    8226, 
    8227, 
    8228, 
    8229, 
    8230, 
    8231, 
    8232, 
    8233, 
    8234, 
    8235, 
    8236, 
    8237, 
    8241, 
    8242, 
    8243, 
    8244, 
    8245, 
    8246, 
    8247, 
    8248, 
    8249, 
    8250, 
    8251, 
    8252, 
    8253, 
    8254, 
    8255, 
    8256, 
    8257, 
    8259, 
    8260, 
    8261, 
    8262, 
    8263, 
    8264, 
    8265, 
    8269, 
    8270, 
    8271, 
    8272, 
    8273, 
    8274, 
    8275, 
    8276, 
    8277, 
    8278, 
    8279, 
    8280, 
    8281, 
    8285, 
    8286, 
    8287, 
    8288, 
    8289, 
    8290, 
    8291, 
    8292, 
    8293, 
    8294, 
    8295, 
    8296, 
    8297, 
    8298, 
    8299, 
    8300, 
    8301, 
    8303, 
    8304, 
    8305, 
    8306, 
    8307, 
    8308, 
    8309, 
    8313, 
    8314, 
    8315, 
    8316, 
    8317, 
    8318, 
    8319, 
    8320, 
    8321, 
    8322, 
    8323, 
    8324, 
    8325, 
    8329, 
    8330, 
    8331, 
    8332, 
    8333, 
    8334, 
    8335, 
    8336, 
    8337, 
    8338, 
    8339, 
    8340, 
    8341, 
    8342, 
    8343, 
    8344, 
    8345, 
    8347, 
    8348, 
    8349, 
    8350, 
    8351, 
    8352, 
    8353, 
    8357, 
    8358, 
    8359, 
    8360, 
    8361, 
    8362, 
    8363, 
    8364, 
    8365, 
    8366, 
    8367, 
    8368, 
    8369, 
    8373, 
    8374, 
    8375, 
    8376, 
    8377, 
    8378, 
    8379, 
    8380, 
    8381, 
    8382, 
    8383, 
    8384, 
    8385, 
    8386, 
    8387, 
    8388, 
    8389, 
    8391, 
    8392, 
    8393, 
    8394, 
    8395, 
    8396, 
    8397, 
    8401, 
    8402, 
    8403, 
    8404, 
    8405, 
    8406, 
    8407, 
    8408, 
    8409, 
    8410, 
    8411, 
    8412, 
    8413, 
    8417, 
    8418, 
    8419, 
    8420, 
    8421, 
    8422, 
    8423, 
    8424, 
    8425, 
    8426, 
    8427, 
    8428, 
    8429, 
    8430, 
    8431, 
    8432, 
    8433, 
    8435, 
    8436, 
    8437, 
    8438, 
    8439, 
    8440, 
    8441, 
    8445, 
    8446, 
    8447, 
    8448, 
    8449, 
    8450, 
    8451, 
    8452, 
    8453, 
    8454, 
    8455, 
    8456, 
    8457, 
    8461, 
    8462, 
    8463, 
    8464, 
    8465, 
    8466, 
    8467, 
    8468, 
    8469, 
    8470, 
    8471, 
    8472, 
    8473, 
    8474, 
    8475, 
    8476, 
    8477, 
    8479, 
    8480, 
    8481, 
    8482, 
    8483, 
    8484, 
    8485, 
    8489, 
    8490, 
    8491, 
    8492, 
    8493, 
    8494, 
    8495, 
    8496, 
    8497, 
    8498, 
    8499, 
    8500, 
    8501, 
    8505, 
    8506, 
    8507, 
    8508, 
    8509, 
    8510, 
    8511, 
    8512, 
    8513, 
    8514, 
    8515, 
    8516, 
    8517, 
    8518, 
    8519, 
    8520, 
    8521, 
    8523, 
    8524, 
    8525, 
    8526, 
    8527, 
    8528, 
    8529, 
    8533, 
    8534, 
    8535, 
    8536, 
    8537, 
    8538, 
    8539, 
    8540, 
    8541, 
    8542, 
    8543, 
    8544, 
    8545, 
    8549, 
    8550, 
    8551, 
    8552, 
    8553, 
    8554, 
    8555, 
    8556, 
    8557, 
    8558, 
    8559, 
    8560, 
    8561, 
    8562, 
    8563, 
    8564, 
    8565, 
    8567, 
    8568, 
    8569, 
    8570, 
    8571, 
    8572, 
    8573, 
    8577, 
    8578, 
    8579, 
    8580, 
    8581, 
    8582, 
    8583, 
    8584, 
    8585, 
    8586, 
    8587, 
    8588, 
    8589, 
    8593, 
    8594, 
    8595, 
    8596, 
    8597, 
    8598, 
    8599, 
    8600, 
    8601, 
    8602, 
    8603, 
    8604, 
    8605, 
    8606, 
    8607, 
    8608, 
    8609, 
    8611, 
    8612, 
    8613, 
    8614, 
    8615, 
    8616, 
    8617, 
    8621, 
    8622, 
    8623, 
    8624, 
    8625, 
    8626, 
    8627, 
    8628, 
    8629, 
    8630, 
    8631, 
    8632, 
    8633, 
    8637, 
    8638, 
    8639, 
    8640, 
    8641, 
    8642, 
    8643, 
    8644, 
    8645, 
    8646, 
    8647, 
    8648, 
    8649, 
    8650, 
    8651, 
    8652, 
    8653, 
    8655, 
    8656, 
    8657, 
    8658, 
    8659, 
    8660, 
    8661, 
    8665, 
    8666, 
    8667, 
    8668, 
    8669, 
    8670, 
    8671, 
    8672, 
    8673, 
    8674, 
    8675, 
    8676, 
    8677, 
    8681, 
    8682, 
    8683, 
    8684, 
    8685, 
    8686, 
    8687, 
    8688, 
    8689, 
    8690, 
    8691, 
    8692, 
    8693, 
    8694, 
    8695, 
    8696, 
    8697, 
    8699, 
    8700, 
    8701, 
    8702, 
    8703, 
    8704, 
    8705, 
    8709, 
    8710, 
    8711, 
    8712, 
    8713, 
    8714, 
    8715, 
    8716, 
    8717, 
    8718, 
    8719, 
    8720, 
    8721, 
    8725, 
    8726, 
    8727, 
    8728, 
    8729, 
    8730, 
    8731, 
    8732, 
    8733, 
    8734, 
    8735, 
    8736, 
    8737, 
    8738, 
    8739, 
    8740, 
    8741, 
    8743, 
    8744, 
    8745, 
    8746, 
    8747, 
    8748, 
    8749, 
    8753, 
    8754, 
    8755, 
    8756, 
    8757, 
    8758, 
    8759, 
    8760, 
    8761, 
    8762, 
    8763, 
    8764, 
    8765, 
    8769, 
    8770, 
    8771, 
    8772, 
    8773, 
    8774, 
    8775, 
    8776, 
    8777, 
    8778, 
    8779, 
    8780, 
    8781, 
    8782, 
    8783, 
    8784, 
    8785, 
    8787, 
    8788, 
    8789, 
    8790, 
    8791, 
    8792, 
    8793, 
    8797, 
    8798, 
    8799, 
    8800, 
    8801, 
    8802, 
    8803, 
    8804, 
    8805, 
    8806, 
    8807, 
    8808, 
    8809, 
    8813, 
    8814, 
    8815, 
    8816, 
    8817, 
    8818, 
    8819, 
    8820, 
    8821, 
    8822, 
    8823, 
    8824, 
    8825, 
    8826, 
    8827, 
    8828, 
    8829, 
    8831, 
    8832, 
    8833, 
    8834, 
    8835, 
    8836, 
    8837, 
    8841, 
    8842, 
    8843, 
    8844, 
    8845, 
    8846, 
    8847, 
    8848, 
    8849, 
    8850, 
    8851, 
    8852, 
    8853, 
    8857, 
    8858, 
    8859, 
    8860, 
    8861, 
    8862, 
    8863, 
    8864, 
    8865, 
    8866, 
    8867, 
    8868, 
    8869, 
    8870, 
    8871, 
    8872, 
    8873, 
    8875, 
    8876, 
    8877, 
    8878, 
    8879, 
    8880, 
    8881, 
    8885, 
    8886, 
    8887, 
    8888, 
    8889, 
    8890, 
    8891, 
    8892, 
    8893, 
    8894, 
    8895, 
    8896, 
    8897, 
    8901, 
    8902, 
    8903, 
    8904, 
    8905, 
    8906, 
    8907, 
    8908, 
    8909, 
    8910, 
    8911, 
    8912, 
    8913, 
    8914, 
    8915, 
    8916, 
    8917, 
    8919, 
    8920, 
    8921, 
    8922, 
    8923, 
    8924, 
    8925, 
    8929, 
    8930, 
    8931, 
    8932, 
    8933, 
    8934, 
    8935, 
    8936, 
    8937, 
    8938, 
    8939, 
    8940, 
    8941, 
    8945, 
    8946, 
    8947, 
    8948, 
    8949, 
    8950, 
    8951, 
    8952, 
    8953, 
    8954, 
    8955, 
    8956, 
    8957, 
    8958, 
    8959, 
    8960, 
    8961, 
    8963, 
    8964, 
    8965, 
    8966, 
    8967, 
    8968, 
    8969, 
    8973, 
    8974, 
    8975, 
    8976, 
    8977, 
    8978, 
    8979, 
    8980, 
    8981, 
    8982, 
    8983, 
    8984, 
    8985, 
    8989, 
    8990, 
    8991, 
    8992, 
    8993, 
    8994, 
    8995, 
    8996, 
    8997, 
    8998, 
    8999, 
    9000, 
    9001, 
    9002, 
    9003, 
    9004, 
    9005, 
    9007, 
    9008, 
    9009, 
    9010, 
    9011, 
    9012, 
    9013, 
    9017, 
    9018, 
    9019, 
    9020, 
    9021, 
    9022, 
    9023, 
    9024, 
    9025, 
    9026, 
    9027, 
    9028, 
    9029, 
    9033, 
    9034, 
    9035, 
    9036, 
    9037, 
    9038, 
    9039, 
    9040, 
    9041, 
    9042, 
    9043, 
    9044, 
    9045, 
    9046, 
    9047, 
    9048, 
    9049, 
    9051, 
    9052, 
    9053, 
    9054, 
    9055, 
    9056, 
    9057, 
    9061, 
    9062, 
    9063, 
    9064, 
    9065, 
    9066, 
    9067, 
    9068, 
    9069, 
    9070, 
    9071, 
    9072, 
    9073, 
    9077, 
    9078, 
    9079, 
    9080, 
    9081, 
    9082, 
    9083, 
    9084, 
    9085, 
    9086, 
    9087, 
    9088, 
    9089, 
    9090, 
    9091, 
    9092, 
    9093, 
    9095, 
    9096, 
    9097, 
    9098, 
    9099, 
    9100, 
    9101, 
    9105, 
    9106, 
    9107, 
    9108, 
    9109, 
    9110, 
    9111, 
    9112, 
    9113, 
    9114, 
    9115, 
    9116, 
    9117, 
    9121, 
    9122, 
    9123, 
    9124, 
    9125, 
    9126, 
    9127, 
    9128, 
    9129, 
    9130, 
    9131, 
    9132, 
    9133, 
    9134, 
    9135, 
    9136, 
    9137, 
    9139, 
    9140, 
    9141, 
    9142, 
    9143, 
    9144, 
    9145, 
    9149, 
    9150, 
    9151, 
    9152, 
    9153, 
    9154, 
    9155, 
    9156, 
    9157, 
    9158, 
    9159, 
    9160, 
    9161, 
    9165, 
    9166, 
    9167, 
    9168, 
    9169, 
    9170, 
    9171, 
    9172, 
    9173, 
    9174, 
    9175, 
    9176, 
    9177, 
    9178, 
    9179, 
    9180, 
    9181, 
    9183, 
    9184, 
    9185, 
    9186, 
    9187, 
    9188, 
    9189, 
    9193, 
    9194, 
    9195, 
    9196, 
    9197, 
    9198, 
    9199, 
    9200, 
    9201, 
    9202, 
    9203, 
    9204, 
    9205, 
    9209, 
    9210, 
    9211, 
    9212, 
    9213, 
    9214, 
    9215, 
    9216, 
    9217, 
    9218, 
    9219, 
    9220, 
    9221, 
    9222, 
    9223, 
    9224, 
    9225, 
    9227, 
    9228, 
    9229, 
    9230, 
    9231, 
    9232, 
    9233, 
    9237, 
    9238, 
    9239, 
    9240, 
    9241, 
    9242, 
    9243, 
    9244, 
    9245, 
    9246, 
    9247, 
    9248, 
    9249, 
    9253, 
    9254, 
    9255, 
    9256, 
    9257, 
    9258, 
    9259, 
    9260, 
    9261, 
    9262, 
    9263, 
    9264, 
    9265, 
    9266, 
    9267, 
    9268, 
    9269, 
    9271, 
    9272, 
    9273, 
    9274, 
    9275, 
    9276, 
    9277, 
    9281, 
    9282, 
    9283, 
    9284, 
    9285, 
    9286, 
    9287, 
    9288, 
    9289, 
    9290, 
    9291, 
    9292, 
    9293, 
    9297, 
    9298, 
    9299, 
    9300, 
    9301, 
    9302, 
    9303, 
    9304, 
    9305, 
    9306, 
    9307, 
    9308, 
    9309, 
    9310, 
    9311, 
    9312, 
    9313, 
    9315, 
    9316, 
    9317, 
    9318, 
    9319, 
    9320, 
    9321, 
    9325, 
    9326, 
    9327, 
    9328, 
    9329, 
    9330, 
    9331, 
    9332, 
    9333, 
    9334, 
    9335, 
    9336, 
    9337, 
    9341, 
    9342, 
    9343, 
    9344, 
    9345, 
    9346, 
    9347, 
    9348, 
    9349, 
    9350, 
    9351, 
    9352, 
    9353, 
    9354, 
    9355, 
    9356, 
    9357, 
    9359, 
    9360, 
    9361, 
    9362, 
    9363, 
    9364, 
    9365, 
    9369, 
    9370, 
    9371, 
    9372, 
    9373, 
    9374, 
    9375, 
    9376, 
    9377, 
    9378, 
    9379, 
    9380, 
    9381, 
    9385, 
    9386, 
    9387, 
    9388, 
    9389, 
    9390, 
    9391, 
    9392, 
    9393, 
    9394, 
    9395, 
    9396, 
    9397, 
    9398, 
    9399, 
    9400, 
    9401, 
    9403, 
    9404, 
    9405, 
    9406, 
    9407, 
    9408, 
    9409, 
    9413, 
    9414, 
    9415, 
    9416, 
    9417, 
    9418, 
    9419, 
    9420, 
    9421, 
    9422, 
    9423, 
    9424, 
    9425, 
    9429, 
    9430, 
    9431, 
    9432, 
    9433, 
    9434, 
    9435, 
    9436, 
    9437, 
    9438, 
    9439, 
    9440, 
    9441, 
    9442, 
    9443, 
    9444, 
    9445, 
    9447, 
    9448, 
    9449, 
    9450, 
    9451, 
    9452, 
    9453, 
    9457, 
    9458, 
    9459, 
    9460, 
    9461, 
    9462, 
    9463, 
    9464, 
    9465, 
    9466, 
    9467, 
    9468, 
    9469, 
    9473, 
    9474, 
    9475, 
    9476, 
    9477, 
    9478, 
    9479, 
    9480, 
    9481, 
    9482, 
    9483, 
    9484, 
    9485, 
    9486, 
    9487, 
    9488, 
    9489, 
    9491, 
    9492, 
    9493, 
    9494, 
    9495, 
    9496, 
    9497, 
    9501, 
    9502, 
    9503, 
    9504, 
    9505, 
    9506, 
    9507, 
    9508, 
    9509, 
    9510, 
    9511, 
    9512, 
    9513, 
    9517, 
    9518, 
    9519, 
    9520, 
    9521, 
    9522, 
    9523, 
    9524, 
    9525, 
    9526, 
    9527, 
    9528, 
    9529, 
    9530, 
    9531, 
    9532, 
    9533, 
    9535, 
    9536, 
    9537, 
    9538, 
    9539, 
    9540, 
    9541, 
    9545, 
    9546, 
    9547, 
    9548, 
    9549, 
    9550, 
    9551, 
    9552, 
    9553, 
    9554, 
    9555, 
    9556, 
    9557, 
    9561, 
    9562, 
    9563, 
    9564, 
    9565, 
    9566, 
    9567, 
    9568, 
    9569, 
    9570, 
    9571, 
    9572, 
    9573, 
    9574, 
    9575, 
    9576, 
    9577, 
    9579, 
    9580, 
    9581, 
    9582, 
    9583, 
    9584, 
    9585, 
    9589, 
    9590, 
    9591, 
    9592, 
    9593, 
    9594, 
    9595, 
    9596, 
    9597, 
    9598, 
    9599, 
    9600, 
    9601, 
    9605, 
    9606, 
    9607, 
    9608, 
    9609, 
    9610, 
    9611, 
    9612, 
    9613, 
    9614, 
    9615, 
    9616, 
    9617, 
    9618, 
    9619, 
    9620, 
    9621, 
    9623, 
    9624, 
    9625, 
    9626, 
    9627, 
    9628, 
    9629, 
    9633, 
    9634, 
    9635, 
    9636, 
    9637, 
    9638, 
    9639, 
    9640, 
    9641, 
    9642, 
    9643, 
    9644, 
    9645, 
    9649, 
    9650, 
    9651, 
    9652, 
    9653, 
    9654, 
    9655, 
    9656, 
    9657, 
    9658, 
    9659, 
    9660, 
    9661, 
    9662, 
    9663, 
    9664, 
    9665, 
    9667, 
    9668, 
    9669, 
    9670, 
    9671, 
    9672, 
    9673, 
    9677, 
    9678, 
    9679, 
    9680, 
    9681, 
    9682, 
    9683, 
    9684, 
    9685, 
    9686, 
    9687, 
    9688, 
    9689, 
    9693, 
    9694, 
    9695, 
    9696, 
    9697, 
    9698, 
    9699, 
    9700, 
    9701, 
    9702, 
    9703, 
    9704, 
    9705, 
    9706, 
    9707, 
    9708, 
    9709, 
    9711, 
    9712, 
    9713, 
    9714, 
    9715, 
    9716, 
    9717, 
    9721, 
    9722, 
    9723, 
    9724, 
    9725, 
    9726, 
    9727, 
    9728, 
    9729, 
    9730, 
    9731, 
    9732, 
    9733, 
    9737, 
    9738, 
    9739, 
    9740, 
    9741, 
    9742, 
    9743, 
    9744, 
    9745, 
    9746, 
    9747, 
    9748, 
    9749, 
    9750, 
    9751, 
    9752, 
    9753, 
    9755, 
    9756, 
    9757, 
    9758, 
    9759, 
    9760, 
    9761, 
    9765, 
    9766, 
    9767, 
    9768, 
    9769, 
    9770, 
    9771, 
    9772, 
    9773, 
    9774, 
    9775, 
    9776, 
    9777, 
    9781, 
    9782, 
    9783, 
    9784, 
    9785, 
    9786, 
    9787, 
    9788, 
    9789, 
    9790, 
    9791, 
    9792, 
    9793, 
    9794, 
    9795, 
    9796, 
    9797, 
    9799, 
    9800, 
    9801, 
    9802, 
    9803, 
    9804, 
    9805, 
    9809, 
    9810, 
    9811, 
    9812, 
    9813, 
    9814, 
    9815, 
    9816, 
    9817, 
    9818, 
    9819, 
    9820, 
    9821, 
    9825, 
    9826, 
    9827, 
    9828, 
    9829, 
    9830, 
    9831, 
    9832, 
    9833, 
    9834, 
    9835, 
    9836, 
    9837, 
    9838, 
    9839, 
    9840, 
    9841, 
    9843, 
    9844, 
    9845, 
    9846, 
    9847, 
    9848, 
    9849, 
    9853, 
    9854, 
    9855, 
    9856, 
    9857, 
    9858, 
    9859, 
    9860, 
    9861, 
    9862, 
    9863, 
    9864, 
    9865, 
    9869, 
    9870, 
    9871, 
    9872, 
    9873, 
    9874, 
    9875, 
    9876, 
    9877, 
    9878, 
    9879, 
    9880, 
    9881, 
    9882, 
    9883, 
    9884, 
    9885, 
    9887, 
    9888, 
    9889, 
    9890, 
    9891, 
    9892, 
    9893, 
    9897, 
    9898, 
    9899, 
    9900, 
    9901, 
    9902, 
    9903, 
    9904, 
    9905, 
    9906, 
    9907, 
    9908, 
    9909, 
    9913, 
    9914, 
    9915, 
    9916, 
    9917, 
    9918, 
    9919, 
    9920, 
    9921, 
    9922, 
    9923, 
    9924, 
    9925, 
    9926, 
    9927, 
    9928, 
    9929, 
    9931, 
    9932, 
    9933, 
    9934, 
    9935, 
    9936, 
    9937, 
    9941, 
    9942, 
    9943, 
    9944, 
    9945, 
    9946, 
    9947, 
    9948, 
    9949, 
    9950, 
    9951, 
    9952, 
    9953, 
    9957, 
    9958, 
    9959, 
    9960, 
    9961, 
    9962, 
    9963, 
    9964, 
    9965, 
    9966, 
    9967, 
    9968, 
    9969, 
    9970, 
    9971, 
    9972, 
    9973, 
    9975, 
    9976, 
    9977, 
    9978, 
    9979, 
    9980, 
    9981, 
    9985, 
    9986, 
    9987, 
    9988, 
    9989, 
    9990, 
    9991, 
    9992, 
    9993, 
    9994, 
    9995, 
    9996, 
    9997, 
    10001, 
    10002, 
    10003, 
    10004, 
    10005, 
    10006, 
    10007, 
    10008, 
    10009, 
    10010, 
    10011, 
    10012, 
    10013, 
    10014, 
    10015, 
    10016, 
    10017, 
    10019, 
    10020, 
    10021, 
    10022, 
    10023, 
    10024, 
    10025, 
    10029, 
    10030, 
    10031, 
    10032, 
    10033, 
    10034, 
    10035, 
    10036, 
    10037, 
    10038, 
    10039, 
    10040, 
    10041, 
    10045, 
    10046, 
    10047, 
    10048, 
    10049, 
    10050, 
    10051, 
    10052, 
    10053, 
    10054, 
    10055, 
    10056, 
    10057, 
    10058, 
    10059, 
    10060, 
    10061, 
    10063, 
    10064, 
    10065, 
    10066, 
    10067, 
    10068, 
    10069, 
    10070, 
    10071, 
    10072, 
    10073
  ], 
  "heads": [[8056, 0, 0]], 
  "attrs": {"mxnet_version": ["int", 10400]}
}