{
  "nodes": [
    {
      "op": "null", 
      "name": "target", 
      "inputs": []
    }, 
    {
      "op": "null", 
      "name": "target_embed_weight", 
      "attrs": {"__shape__": "(1596, 32)"}, 
      "inputs": []
    }, 
    {
      "op": "Embedding", 
      "name": "target_embed_embed", 
      "attrs": {
        "input_dim": "1596", 
        "output_dim": "32"
      }, 
      "inputs": [[0, 0, 0], [1, 0, 0]]
    }, 
    {
      "op": "SliceChannel", 
      "name": "split3", 
      "attrs": {
        "axis": "1", 
        "num_outputs": "61", 
        "squeeze_axis": "True"
      }, 
      "inputs": [[2, 0, 0]]
    }, 
    {
      "op": "null", 
      "name": "source", 
      "inputs": []
    }, 
    {
      "op": "SliceChannel", 
      "name": "split0", 
      "attrs": {
        "axis": "2", 
        "num_outputs": "1", 
        "squeeze_axis": "True"
      }, 
      "inputs": [[4, 0, 0]]
    }, 
    {
      "op": "_not_equal_scalar", 
      "name": "_not_equal_scalar0", 
      "attrs": {"scalar": "0"}, 
      "inputs": [[5, 0, 0]]
    }, 
    {
      "op": "sum", 
      "name": "sum0", 
      "attrs": {"axis": "1"}, 
      "inputs": [[6, 0, 0]]
    }, 
    {
      "op": "zeros_like", 
      "name": "zeros_like1", 
      "inputs": [[7, 0, 0]]
    }, 
    {
      "op": "expand_dims", 
      "name": "expand_dims183", 
      "attrs": {"axis": "1"}, 
      "inputs": [[8, 0, 0]]
    }, 
    {
      "op": "tile", 
      "name": "tile0", 
      "attrs": {"reps": "(1, 256)"}, 
      "inputs": [[9, 0, 0]]
    }, 
    {
      "op": "Concat", 
      "name": "decoder_rnn_concat_target_context_t0", 
      "attrs": {
        "dim": "1", 
        "num_args": "2"
      }, 
      "inputs": [[3, 0, 0], [10, 0, 0]]
    }, 
    {
      "op": "null", 
      "name": "decoder_rnn_l0_i2h_weight", 
      "inputs": []
    }, 
    {
      "op": "null", 
      "name": "decoder_rnn_l0_i2h_bias", 
      "attrs": {"__init__": "[\"lstmbias\", {\"forget_bias\": 0.0}]"}, 
      "inputs": []
    }, 
    {
      "op": "FullyConnected", 
      "name": "decoder_rnn_l0_t0_i2h", 
      "attrs": {"num_hidden": "1024"}, 
      "inputs": [[11, 0, 0], [12, 0, 0], [13, 0, 0]]
    }, 
    {
      "op": "SliceChannel", 
      "name": "source_embed_factor_split", 
      "attrs": {
        "axis": "2", 
        "num_outputs": "1", 
        "squeeze_axis": "True"
      }, 
      "inputs": [[4, 0, 0]]
    }, 
    {
      "op": "null", 
      "name": "source_embed_weight", 
      "attrs": {"__shape__": "(1562, 32)"}, 
      "inputs": []
    }, 
    {
      "op": "Embedding", 
      "name": "source_embed_embed", 
      "attrs": {
        "input_dim": "1562", 
        "output_dim": "32"
      }, 
      "inputs": [[15, 0, 0], [16, 0, 0]]
    }, 
    {
      "op": "SwapAxis", 
      "name": "swapaxes0", 
      "attrs": {
        "__layout__": "TNC", 
        "dim1": "0", 
        "dim2": "1"
      }, 
      "inputs": [[17, 0, 0]]
    }, 
    {
      "op": "SliceChannel", 
      "name": "split0", 
      "attrs": {
        "axis": "0", 
        "num_outputs": "61", 
        "squeeze_axis": "1"
      }, 
      "inputs": [[18, 0, 0]]
    }, 
    {
      "op": "null", 
      "name": "encoder_birnn_forward_l0_i2h_weight", 
      "inputs": []
    }, 
    {
      "op": "null", 
      "name": "encoder_birnn_forward_l0_i2h_bias", 
      "attrs": {"__init__": "[\"lstmbias\", {\"forget_bias\": 0.0}]"}, 
      "inputs": []
    }, 
    {
      "op": "FullyConnected", 
      "name": "encoder_birnn_forward_l0_t0_i2h", 
      "attrs": {"num_hidden": "512"}, 
      "inputs": [[19, 0, 0], [20, 0, 0], [21, 0, 0]]
    }, 
    {
      "op": "_zeros", 
      "name": "encoder_birnn_forward_l0_begin_state_0", 
      "attrs": {
        "__layout__": "NC", 
        "dtype": "float32", 
        "shape": "(0, 128)"
      }, 
      "inputs": []
    }, 
    {
      "op": "null", 
      "name": "encoder_birnn_forward_l0_h2h_weight", 
      "inputs": []
    }, 
    {
      "op": "null", 
      "name": "encoder_birnn_forward_l0_h2h_bias", 
      "inputs": []
    }, 
    {
      "op": "FullyConnected", 
      "name": "encoder_birnn_forward_l0_t0_h2h", 
      "attrs": {"num_hidden": "512"}, 
      "inputs": [[23, 0, 0], [24, 0, 0], [25, 0, 0]]
    }, 
    {
      "op": "elemwise_add", 
      "name": "_plus0", 
      "inputs": [[22, 0, 0], [26, 0, 0]]
    }, 
    {
      "op": "SliceChannel", 
      "name": "encoder_birnn_forward_l0_t0_slice", 
      "attrs": {"num_outputs": "4"}, 
      "inputs": [[27, 0, 0]]
    }, 
    {
      "op": "Activation", 
      "name": "encoder_birnn_forward_l0_t0_o", 
      "attrs": {"act_type": "sigmoid"}, 
      "inputs": [[28, 3, 0]]
    }, 
    {
      "op": "Activation", 
      "name": "encoder_birnn_forward_l0_t0_f", 
      "attrs": {"act_type": "sigmoid"}, 
      "inputs": [[28, 1, 0]]
    }, 
    {
      "op": "_zeros", 
      "name": "encoder_birnn_forward_l0_begin_state_1", 
      "attrs": {
        "__layout__": "NC", 
        "dtype": "float32", 
        "shape": "(0, 128)"
      }, 
      "inputs": []
    }, 
    {
      "op": "elemwise_mul", 
      "name": "_mul0", 
      "inputs": [[30, 0, 0], [31, 0, 0]]
    }, 
    {
      "op": "Activation", 
      "name": "encoder_birnn_forward_l0_t0_i", 
      "attrs": {"act_type": "sigmoid"}, 
      "inputs": [[28, 0, 0]]
    }, 
    {
      "op": "Activation", 
      "name": "encoder_birnn_forward_l0_t0_c", 
      "attrs": {"act_type": "tanh"}, 
      "inputs": [[28, 2, 0]]
    }, 
    {
      "op": "elemwise_mul", 
      "name": "_mul1", 
      "inputs": [[33, 0, 0], [34, 0, 0]]
    }, 
    {
      "op": "elemwise_add", 
      "name": "encoder_birnn_forward_l0_t0_state", 
      "inputs": [[32, 0, 0], [35, 0, 0]]
    }, 
    {
      "op": "Activation", 
      "name": "activation0", 
      "attrs": {"act_type": "tanh"}, 
      "inputs": [[36, 0, 0]]
    }, 
    {
      "op": "elemwise_mul", 
      "name": "encoder_birnn_forward_l0_t0_out", 
      "inputs": [[29, 0, 0], [37, 0, 0]]
    }, 
    {
      "op": "expand_dims", 
      "name": "expand_dims0", 
      "attrs": {"axis": "0"}, 
      "inputs": [[38, 0, 0]]
    }, 
    {
      "op": "FullyConnected", 
      "name": "encoder_birnn_forward_l0_t1_i2h", 
      "attrs": {"num_hidden": "512"}, 
      "inputs": [[19, 1, 0], [20, 0, 0], [21, 0, 0]]
    }, 
    {
      "op": "FullyConnected", 
      "name": "encoder_birnn_forward_l0_t1_h2h", 
      "attrs": {"num_hidden": "512"}, 
      "inputs": [[38, 0, 0], [24, 0, 0], [25, 0, 0]]
    }, 
    {
      "op": "elemwise_add", 
      "name": "_plus1", 
      "inputs": [[40, 0, 0], [41, 0, 0]]
    }, 
    {
      "op": "SliceChannel", 
      "name": "encoder_birnn_forward_l0_t1_slice", 
      "attrs": {"num_outputs": "4"}, 
      "inputs": [[42, 0, 0]]
    }, 
    {
      "op": "Activation", 
      "name": "encoder_birnn_forward_l0_t1_o", 
      "attrs": {"act_type": "sigmoid"}, 
      "inputs": [[43, 3, 0]]
    }, 
    {
      "op": "Activation", 
      "name": "encoder_birnn_forward_l0_t1_f", 
      "attrs": {"act_type": "sigmoid"}, 
      "inputs": [[43, 1, 0]]
    }, 
    {
      "op": "elemwise_mul", 
      "name": "_mul2", 
      "inputs": [[45, 0, 0], [36, 0, 0]]
    }, 
    {
      "op": "Activation", 
      "name": "encoder_birnn_forward_l0_t1_i", 
      "attrs": {"act_type": "sigmoid"}, 
      "inputs": [[43, 0, 0]]
    }, 
    {
      "op": "Activation", 
      "name": "encoder_birnn_forward_l0_t1_c", 
      "attrs": {"act_type": "tanh"}, 
      "inputs": [[43, 2, 0]]
    }, 
    {
      "op": "elemwise_mul", 
      "name": "_mul3", 
      "inputs": [[47, 0, 0], [48, 0, 0]]
    }, 
    {
      "op": "elemwise_add", 
      "name": "encoder_birnn_forward_l0_t1_state", 
      "inputs": [[46, 0, 0], [49, 0, 0]]
    }, 
    {
      "op": "Activation", 
      "name": "activation1", 
      "attrs": {"act_type": "tanh"}, 
      "inputs": [[50, 0, 0]]
    }, 
    {
      "op": "elemwise_mul", 
      "name": "encoder_birnn_forward_l0_t1_out", 
      "inputs": [[44, 0, 0], [51, 0, 0]]
    }, 
    {
      "op": "expand_dims", 
      "name": "expand_dims1", 
      "attrs": {"axis": "0"}, 
      "inputs": [[52, 0, 0]]
    }, 
    {
      "op": "FullyConnected", 
      "name": "encoder_birnn_forward_l0_t2_i2h", 
      "attrs": {"num_hidden": "512"}, 
      "inputs": [[19, 2, 0], [20, 0, 0], [21, 0, 0]]
    }, 
    {
      "op": "FullyConnected", 
      "name": "encoder_birnn_forward_l0_t2_h2h", 
      "attrs": {"num_hidden": "512"}, 
      "inputs": [[52, 0, 0], [24, 0, 0], [25, 0, 0]]
    }, 
    {
      "op": "elemwise_add", 
      "name": "_plus2", 
      "inputs": [[54, 0, 0], [55, 0, 0]]
    }, 
    {
      "op": "SliceChannel", 
      "name": "encoder_birnn_forward_l0_t2_slice", 
      "attrs": {"num_outputs": "4"}, 
      "inputs": [[56, 0, 0]]
    }, 
    {
      "op": "Activation", 
      "name": "encoder_birnn_forward_l0_t2_o", 
      "attrs": {"act_type": "sigmoid"}, 
      "inputs": [[57, 3, 0]]
    }, 
    {
      "op": "Activation", 
      "name": "encoder_birnn_forward_l0_t2_f", 
      "attrs": {"act_type": "sigmoid"}, 
      "inputs": [[57, 1, 0]]
    }, 
    {
      "op": "elemwise_mul", 
      "name": "_mul4", 
      "inputs": [[59, 0, 0], [50, 0, 0]]
    }, 
    {
      "op": "Activation", 
      "name": "encoder_birnn_forward_l0_t2_i", 
      "attrs": {"act_type": "sigmoid"}, 
      "inputs": [[57, 0, 0]]
    }, 
    {
      "op": "Activation", 
      "name": "encoder_birnn_forward_l0_t2_c", 
      "attrs": {"act_type": "tanh"}, 
      "inputs": [[57, 2, 0]]
    }, 
    {
      "op": "elemwise_mul", 
      "name": "_mul5", 
      "inputs": [[61, 0, 0], [62, 0, 0]]
    }, 
    {
      "op": "elemwise_add", 
      "name": "encoder_birnn_forward_l0_t2_state", 
      "inputs": [[60, 0, 0], [63, 0, 0]]
    }, 
    {
      "op": "Activation", 
      "name": "activation2", 
      "attrs": {"act_type": "tanh"}, 
      "inputs": [[64, 0, 0]]
    }, 
    {
      "op": "elemwise_mul", 
      "name": "encoder_birnn_forward_l0_t2_out", 
      "inputs": [[58, 0, 0], [65, 0, 0]]
    }, 
    {
      "op": "expand_dims", 
      "name": "expand_dims2", 
      "attrs": {"axis": "0"}, 
      "inputs": [[66, 0, 0]]
    }, 
    {
      "op": "FullyConnected", 
      "name": "encoder_birnn_forward_l0_t3_i2h", 
      "attrs": {"num_hidden": "512"}, 
      "inputs": [[19, 3, 0], [20, 0, 0], [21, 0, 0]]
    }, 
    {
      "op": "FullyConnected", 
      "name": "encoder_birnn_forward_l0_t3_h2h", 
      "attrs": {"num_hidden": "512"}, 
      "inputs": [[66, 0, 0], [24, 0, 0], [25, 0, 0]]
    }, 
    {
      "op": "elemwise_add", 
      "name": "_plus3", 
      "inputs": [[68, 0, 0], [69, 0, 0]]
    }, 
    {
      "op": "SliceChannel", 
      "name": "encoder_birnn_forward_l0_t3_slice", 
      "attrs": {"num_outputs": "4"}, 
      "inputs": [[70, 0, 0]]
    }, 
    {
      "op": "Activation", 
      "name": "encoder_birnn_forward_l0_t3_o", 
      "attrs": {"act_type": "sigmoid"}, 
      "inputs": [[71, 3, 0]]
    }, 
    {
      "op": "Activation", 
      "name": "encoder_birnn_forward_l0_t3_f", 
      "attrs": {"act_type": "sigmoid"}, 
      "inputs": [[71, 1, 0]]
    }, 
    {
      "op": "elemwise_mul", 
      "name": "_mul6", 
      "inputs": [[73, 0, 0], [64, 0, 0]]
    }, 
    {
      "op": "Activation", 
      "name": "encoder_birnn_forward_l0_t3_i", 
      "attrs": {"act_type": "sigmoid"}, 
      "inputs": [[71, 0, 0]]
    }, 
    {
      "op": "Activation", 
      "name": "encoder_birnn_forward_l0_t3_c", 
      "attrs": {"act_type": "tanh"}, 
      "inputs": [[71, 2, 0]]
    }, 
    {
      "op": "elemwise_mul", 
      "name": "_mul7", 
      "inputs": [[75, 0, 0], [76, 0, 0]]
    }, 
    {
      "op": "elemwise_add", 
      "name": "encoder_birnn_forward_l0_t3_state", 
      "inputs": [[74, 0, 0], [77, 0, 0]]
    }, 
    {
      "op": "Activation", 
      "name": "activation3", 
      "attrs": {"act_type": "tanh"}, 
      "inputs": [[78, 0, 0]]
    }, 
    {
      "op": "elemwise_mul", 
      "name": "encoder_birnn_forward_l0_t3_out", 
      "inputs": [[72, 0, 0], [79, 0, 0]]
    }, 
    {
      "op": "expand_dims", 
      "name": "expand_dims3", 
      "attrs": {"axis": "0"}, 
      "inputs": [[80, 0, 0]]
    }, 
    {
      "op": "FullyConnected", 
      "name": "encoder_birnn_forward_l0_t4_i2h", 
      "attrs": {"num_hidden": "512"}, 
      "inputs": [[19, 4, 0], [20, 0, 0], [21, 0, 0]]
    }, 
    {
      "op": "FullyConnected", 
      "name": "encoder_birnn_forward_l0_t4_h2h", 
      "attrs": {"num_hidden": "512"}, 
      "inputs": [[80, 0, 0], [24, 0, 0], [25, 0, 0]]
    }, 
    {
      "op": "elemwise_add", 
      "name": "_plus4", 
      "inputs": [[82, 0, 0], [83, 0, 0]]
    }, 
    {
      "op": "SliceChannel", 
      "name": "encoder_birnn_forward_l0_t4_slice", 
      "attrs": {"num_outputs": "4"}, 
      "inputs": [[84, 0, 0]]
    }, 
    {
      "op": "Activation", 
      "name": "encoder_birnn_forward_l0_t4_o", 
      "attrs": {"act_type": "sigmoid"}, 
      "inputs": [[85, 3, 0]]
    }, 
    {
      "op": "Activation", 
      "name": "encoder_birnn_forward_l0_t4_f", 
      "attrs": {"act_type": "sigmoid"}, 
      "inputs": [[85, 1, 0]]
    }, 
    {
      "op": "elemwise_mul", 
      "name": "_mul8", 
      "inputs": [[87, 0, 0], [78, 0, 0]]
    }, 
    {
      "op": "Activation", 
      "name": "encoder_birnn_forward_l0_t4_i", 
      "attrs": {"act_type": "sigmoid"}, 
      "inputs": [[85, 0, 0]]
    }, 
    {
      "op": "Activation", 
      "name": "encoder_birnn_forward_l0_t4_c", 
      "attrs": {"act_type": "tanh"}, 
      "inputs": [[85, 2, 0]]
    }, 
    {
      "op": "elemwise_mul", 
      "name": "_mul9", 
      "inputs": [[89, 0, 0], [90, 0, 0]]
    }, 
    {
      "op": "elemwise_add", 
      "name": "encoder_birnn_forward_l0_t4_state", 
      "inputs": [[88, 0, 0], [91, 0, 0]]
    }, 
    {
      "op": "Activation", 
      "name": "activation4", 
      "attrs": {"act_type": "tanh"}, 
      "inputs": [[92, 0, 0]]
    }, 
    {
      "op": "elemwise_mul", 
      "name": "encoder_birnn_forward_l0_t4_out", 
      "inputs": [[86, 0, 0], [93, 0, 0]]
    }, 
    {
      "op": "expand_dims", 
      "name": "expand_dims4", 
      "attrs": {"axis": "0"}, 
      "inputs": [[94, 0, 0]]
    }, 
    {
      "op": "FullyConnected", 
      "name": "encoder_birnn_forward_l0_t5_i2h", 
      "attrs": {"num_hidden": "512"}, 
      "inputs": [[19, 5, 0], [20, 0, 0], [21, 0, 0]]
    }, 
    {
      "op": "FullyConnected", 
      "name": "encoder_birnn_forward_l0_t5_h2h", 
      "attrs": {"num_hidden": "512"}, 
      "inputs": [[94, 0, 0], [24, 0, 0], [25, 0, 0]]
    }, 
    {
      "op": "elemwise_add", 
      "name": "_plus5", 
      "inputs": [[96, 0, 0], [97, 0, 0]]
    }, 
    {
      "op": "SliceChannel", 
      "name": "encoder_birnn_forward_l0_t5_slice", 
      "attrs": {"num_outputs": "4"}, 
      "inputs": [[98, 0, 0]]
    }, 
    {
      "op": "Activation", 
      "name": "encoder_birnn_forward_l0_t5_o", 
      "attrs": {"act_type": "sigmoid"}, 
      "inputs": [[99, 3, 0]]
    }, 
    {
      "op": "Activation", 
      "name": "encoder_birnn_forward_l0_t5_f", 
      "attrs": {"act_type": "sigmoid"}, 
      "inputs": [[99, 1, 0]]
    }, 
    {
      "op": "elemwise_mul", 
      "name": "_mul10", 
      "inputs": [[101, 0, 0], [92, 0, 0]]
    }, 
    {
      "op": "Activation", 
      "name": "encoder_birnn_forward_l0_t5_i", 
      "attrs": {"act_type": "sigmoid"}, 
      "inputs": [[99, 0, 0]]
    }, 
    {
      "op": "Activation", 
      "name": "encoder_birnn_forward_l0_t5_c", 
      "attrs": {"act_type": "tanh"}, 
      "inputs": [[99, 2, 0]]
    }, 
    {
      "op": "elemwise_mul", 
      "name": "_mul11", 
      "inputs": [[103, 0, 0], [104, 0, 0]]
    }, 
    {
      "op": "elemwise_add", 
      "name": "encoder_birnn_forward_l0_t5_state", 
      "inputs": [[102, 0, 0], [105, 0, 0]]
    }, 
    {
      "op": "Activation", 
      "name": "activation5", 
      "attrs": {"act_type": "tanh"}, 
      "inputs": [[106, 0, 0]]
    }, 
    {
      "op": "elemwise_mul", 
      "name": "encoder_birnn_forward_l0_t5_out", 
      "inputs": [[100, 0, 0], [107, 0, 0]]
    }, 
    {
      "op": "expand_dims", 
      "name": "expand_dims5", 
      "attrs": {"axis": "0"}, 
      "inputs": [[108, 0, 0]]
    }, 
    {
      "op": "FullyConnected", 
      "name": "encoder_birnn_forward_l0_t6_i2h", 
      "attrs": {"num_hidden": "512"}, 
      "inputs": [[19, 6, 0], [20, 0, 0], [21, 0, 0]]
    }, 
    {
      "op": "FullyConnected", 
      "name": "encoder_birnn_forward_l0_t6_h2h", 
      "attrs": {"num_hidden": "512"}, 
      "inputs": [[108, 0, 0], [24, 0, 0], [25, 0, 0]]
    }, 
    {
      "op": "elemwise_add", 
      "name": "_plus6", 
      "inputs": [[110, 0, 0], [111, 0, 0]]
    }, 
    {
      "op": "SliceChannel", 
      "name": "encoder_birnn_forward_l0_t6_slice", 
      "attrs": {"num_outputs": "4"}, 
      "inputs": [[112, 0, 0]]
    }, 
    {
      "op": "Activation", 
      "name": "encoder_birnn_forward_l0_t6_o", 
      "attrs": {"act_type": "sigmoid"}, 
      "inputs": [[113, 3, 0]]
    }, 
    {
      "op": "Activation", 
      "name": "encoder_birnn_forward_l0_t6_f", 
      "attrs": {"act_type": "sigmoid"}, 
      "inputs": [[113, 1, 0]]
    }, 
    {
      "op": "elemwise_mul", 
      "name": "_mul12", 
      "inputs": [[115, 0, 0], [106, 0, 0]]
    }, 
    {
      "op": "Activation", 
      "name": "encoder_birnn_forward_l0_t6_i", 
      "attrs": {"act_type": "sigmoid"}, 
      "inputs": [[113, 0, 0]]
    }, 
    {
      "op": "Activation", 
      "name": "encoder_birnn_forward_l0_t6_c", 
      "attrs": {"act_type": "tanh"}, 
      "inputs": [[113, 2, 0]]
    }, 
    {
      "op": "elemwise_mul", 
      "name": "_mul13", 
      "inputs": [[117, 0, 0], [118, 0, 0]]
    }, 
    {
      "op": "elemwise_add", 
      "name": "encoder_birnn_forward_l0_t6_state", 
      "inputs": [[116, 0, 0], [119, 0, 0]]
    }, 
    {
      "op": "Activation", 
      "name": "activation6", 
      "attrs": {"act_type": "tanh"}, 
      "inputs": [[120, 0, 0]]
    }, 
    {
      "op": "elemwise_mul", 
      "name": "encoder_birnn_forward_l0_t6_out", 
      "inputs": [[114, 0, 0], [121, 0, 0]]
    }, 
    {
      "op": "expand_dims", 
      "name": "expand_dims6", 
      "attrs": {"axis": "0"}, 
      "inputs": [[122, 0, 0]]
    }, 
    {
      "op": "FullyConnected", 
      "name": "encoder_birnn_forward_l0_t7_i2h", 
      "attrs": {"num_hidden": "512"}, 
      "inputs": [[19, 7, 0], [20, 0, 0], [21, 0, 0]]
    }, 
    {
      "op": "FullyConnected", 
      "name": "encoder_birnn_forward_l0_t7_h2h", 
      "attrs": {"num_hidden": "512"}, 
      "inputs": [[122, 0, 0], [24, 0, 0], [25, 0, 0]]
    }, 
    {
      "op": "elemwise_add", 
      "name": "_plus7", 
      "inputs": [[124, 0, 0], [125, 0, 0]]
    }, 
    {
      "op": "SliceChannel", 
      "name": "encoder_birnn_forward_l0_t7_slice", 
      "attrs": {"num_outputs": "4"}, 
      "inputs": [[126, 0, 0]]
    }, 
    {
      "op": "Activation", 
      "name": "encoder_birnn_forward_l0_t7_o", 
      "attrs": {"act_type": "sigmoid"}, 
      "inputs": [[127, 3, 0]]
    }, 
    {
      "op": "Activation", 
      "name": "encoder_birnn_forward_l0_t7_f", 
      "attrs": {"act_type": "sigmoid"}, 
      "inputs": [[127, 1, 0]]
    }, 
    {
      "op": "elemwise_mul", 
      "name": "_mul14", 
      "inputs": [[129, 0, 0], [120, 0, 0]]
    }, 
    {
      "op": "Activation", 
      "name": "encoder_birnn_forward_l0_t7_i", 
      "attrs": {"act_type": "sigmoid"}, 
      "inputs": [[127, 0, 0]]
    }, 
    {
      "op": "Activation", 
      "name": "encoder_birnn_forward_l0_t7_c", 
      "attrs": {"act_type": "tanh"}, 
      "inputs": [[127, 2, 0]]
    }, 
    {
      "op": "elemwise_mul", 
      "name": "_mul15", 
      "inputs": [[131, 0, 0], [132, 0, 0]]
    }, 
    {
      "op": "elemwise_add", 
      "name": "encoder_birnn_forward_l0_t7_state", 
      "inputs": [[130, 0, 0], [133, 0, 0]]
    }, 
    {
      "op": "Activation", 
      "name": "activation7", 
      "attrs": {"act_type": "tanh"}, 
      "inputs": [[134, 0, 0]]
    }, 
    {
      "op": "elemwise_mul", 
      "name": "encoder_birnn_forward_l0_t7_out", 
      "inputs": [[128, 0, 0], [135, 0, 0]]
    }, 
    {
      "op": "expand_dims", 
      "name": "expand_dims7", 
      "attrs": {"axis": "0"}, 
      "inputs": [[136, 0, 0]]
    }, 
    {
      "op": "FullyConnected", 
      "name": "encoder_birnn_forward_l0_t8_i2h", 
      "attrs": {"num_hidden": "512"}, 
      "inputs": [[19, 8, 0], [20, 0, 0], [21, 0, 0]]
    }, 
    {
      "op": "FullyConnected", 
      "name": "encoder_birnn_forward_l0_t8_h2h", 
      "attrs": {"num_hidden": "512"}, 
      "inputs": [[136, 0, 0], [24, 0, 0], [25, 0, 0]]
    }, 
    {
      "op": "elemwise_add", 
      "name": "_plus8", 
      "inputs": [[138, 0, 0], [139, 0, 0]]
    }, 
    {
      "op": "SliceChannel", 
      "name": "encoder_birnn_forward_l0_t8_slice", 
      "attrs": {"num_outputs": "4"}, 
      "inputs": [[140, 0, 0]]
    }, 
    {
      "op": "Activation", 
      "name": "encoder_birnn_forward_l0_t8_o", 
      "attrs": {"act_type": "sigmoid"}, 
      "inputs": [[141, 3, 0]]
    }, 
    {
      "op": "Activation", 
      "name": "encoder_birnn_forward_l0_t8_f", 
      "attrs": {"act_type": "sigmoid"}, 
      "inputs": [[141, 1, 0]]
    }, 
    {
      "op": "elemwise_mul", 
      "name": "_mul16", 
      "inputs": [[143, 0, 0], [134, 0, 0]]
    }, 
    {
      "op": "Activation", 
      "name": "encoder_birnn_forward_l0_t8_i", 
      "attrs": {"act_type": "sigmoid"}, 
      "inputs": [[141, 0, 0]]
    }, 
    {
      "op": "Activation", 
      "name": "encoder_birnn_forward_l0_t8_c", 
      "attrs": {"act_type": "tanh"}, 
      "inputs": [[141, 2, 0]]
    }, 
    {
      "op": "elemwise_mul", 
      "name": "_mul17", 
      "inputs": [[145, 0, 0], [146, 0, 0]]
    }, 
    {
      "op": "elemwise_add", 
      "name": "encoder_birnn_forward_l0_t8_state", 
      "inputs": [[144, 0, 0], [147, 0, 0]]
    }, 
    {
      "op": "Activation", 
      "name": "activation8", 
      "attrs": {"act_type": "tanh"}, 
      "inputs": [[148, 0, 0]]
    }, 
    {
      "op": "elemwise_mul", 
      "name": "encoder_birnn_forward_l0_t8_out", 
      "inputs": [[142, 0, 0], [149, 0, 0]]
    }, 
    {
      "op": "expand_dims", 
      "name": "expand_dims8", 
      "attrs": {"axis": "0"}, 
      "inputs": [[150, 0, 0]]
    }, 
    {
      "op": "FullyConnected", 
      "name": "encoder_birnn_forward_l0_t9_i2h", 
      "attrs": {"num_hidden": "512"}, 
      "inputs": [[19, 9, 0], [20, 0, 0], [21, 0, 0]]
    }, 
    {
      "op": "FullyConnected", 
      "name": "encoder_birnn_forward_l0_t9_h2h", 
      "attrs": {"num_hidden": "512"}, 
      "inputs": [[150, 0, 0], [24, 0, 0], [25, 0, 0]]
    }, 
    {
      "op": "elemwise_add", 
      "name": "_plus9", 
      "inputs": [[152, 0, 0], [153, 0, 0]]
    }, 
    {
      "op": "SliceChannel", 
      "name": "encoder_birnn_forward_l0_t9_slice", 
      "attrs": {"num_outputs": "4"}, 
      "inputs": [[154, 0, 0]]
    }, 
    {
      "op": "Activation", 
      "name": "encoder_birnn_forward_l0_t9_o", 
      "attrs": {"act_type": "sigmoid"}, 
      "inputs": [[155, 3, 0]]
    }, 
    {
      "op": "Activation", 
      "name": "encoder_birnn_forward_l0_t9_f", 
      "attrs": {"act_type": "sigmoid"}, 
      "inputs": [[155, 1, 0]]
    }, 
    {
      "op": "elemwise_mul", 
      "name": "_mul18", 
      "inputs": [[157, 0, 0], [148, 0, 0]]
    }, 
    {
      "op": "Activation", 
      "name": "encoder_birnn_forward_l0_t9_i", 
      "attrs": {"act_type": "sigmoid"}, 
      "inputs": [[155, 0, 0]]
    }, 
    {
      "op": "Activation", 
      "name": "encoder_birnn_forward_l0_t9_c", 
      "attrs": {"act_type": "tanh"}, 
      "inputs": [[155, 2, 0]]
    }, 
    {
      "op": "elemwise_mul", 
      "name": "_mul19", 
      "inputs": [[159, 0, 0], [160, 0, 0]]
    }, 
    {
      "op": "elemwise_add", 
      "name": "encoder_birnn_forward_l0_t9_state", 
      "inputs": [[158, 0, 0], [161, 0, 0]]
    }, 
    {
      "op": "Activation", 
      "name": "activation9", 
      "attrs": {"act_type": "tanh"}, 
      "inputs": [[162, 0, 0]]
    }, 
    {
      "op": "elemwise_mul", 
      "name": "encoder_birnn_forward_l0_t9_out", 
      "inputs": [[156, 0, 0], [163, 0, 0]]
    }, 
    {
      "op": "expand_dims", 
      "name": "expand_dims9", 
      "attrs": {"axis": "0"}, 
      "inputs": [[164, 0, 0]]
    }, 
    {
      "op": "FullyConnected", 
      "name": "encoder_birnn_forward_l0_t10_i2h", 
      "attrs": {"num_hidden": "512"}, 
      "inputs": [[19, 10, 0], [20, 0, 0], [21, 0, 0]]
    }, 
    {
      "op": "FullyConnected", 
      "name": "encoder_birnn_forward_l0_t10_h2h", 
      "attrs": {"num_hidden": "512"}, 
      "inputs": [[164, 0, 0], [24, 0, 0], [25, 0, 0]]
    }, 
    {
      "op": "elemwise_add", 
      "name": "_plus10", 
      "inputs": [[166, 0, 0], [167, 0, 0]]
    }, 
    {
      "op": "SliceChannel", 
      "name": "encoder_birnn_forward_l0_t10_slice", 
      "attrs": {"num_outputs": "4"}, 
      "inputs": [[168, 0, 0]]
    }, 
    {
      "op": "Activation", 
      "name": "encoder_birnn_forward_l0_t10_o", 
      "attrs": {"act_type": "sigmoid"}, 
      "inputs": [[169, 3, 0]]
    }, 
    {
      "op": "Activation", 
      "name": "encoder_birnn_forward_l0_t10_f", 
      "attrs": {"act_type": "sigmoid"}, 
      "inputs": [[169, 1, 0]]
    }, 
    {
      "op": "elemwise_mul", 
      "name": "_mul20", 
      "inputs": [[171, 0, 0], [162, 0, 0]]
    }, 
    {
      "op": "Activation", 
      "name": "encoder_birnn_forward_l0_t10_i", 
      "attrs": {"act_type": "sigmoid"}, 
      "inputs": [[169, 0, 0]]
    }, 
    {
      "op": "Activation", 
      "name": "encoder_birnn_forward_l0_t10_c", 
      "attrs": {"act_type": "tanh"}, 
      "inputs": [[169, 2, 0]]
    }, 
    {
      "op": "elemwise_mul", 
      "name": "_mul21", 
      "inputs": [[173, 0, 0], [174, 0, 0]]
    }, 
    {
      "op": "elemwise_add", 
      "name": "encoder_birnn_forward_l0_t10_state", 
      "inputs": [[172, 0, 0], [175, 0, 0]]
    }, 
    {
      "op": "Activation", 
      "name": "activation10", 
      "attrs": {"act_type": "tanh"}, 
      "inputs": [[176, 0, 0]]
    }, 
    {
      "op": "elemwise_mul", 
      "name": "encoder_birnn_forward_l0_t10_out", 
      "inputs": [[170, 0, 0], [177, 0, 0]]
    }, 
    {
      "op": "expand_dims", 
      "name": "expand_dims10", 
      "attrs": {"axis": "0"}, 
      "inputs": [[178, 0, 0]]
    }, 
    {
      "op": "FullyConnected", 
      "name": "encoder_birnn_forward_l0_t11_i2h", 
      "attrs": {"num_hidden": "512"}, 
      "inputs": [[19, 11, 0], [20, 0, 0], [21, 0, 0]]
    }, 
    {
      "op": "FullyConnected", 
      "name": "encoder_birnn_forward_l0_t11_h2h", 
      "attrs": {"num_hidden": "512"}, 
      "inputs": [[178, 0, 0], [24, 0, 0], [25, 0, 0]]
    }, 
    {
      "op": "elemwise_add", 
      "name": "_plus11", 
      "inputs": [[180, 0, 0], [181, 0, 0]]
    }, 
    {
      "op": "SliceChannel", 
      "name": "encoder_birnn_forward_l0_t11_slice", 
      "attrs": {"num_outputs": "4"}, 
      "inputs": [[182, 0, 0]]
    }, 
    {
      "op": "Activation", 
      "name": "encoder_birnn_forward_l0_t11_o", 
      "attrs": {"act_type": "sigmoid"}, 
      "inputs": [[183, 3, 0]]
    }, 
    {
      "op": "Activation", 
      "name": "encoder_birnn_forward_l0_t11_f", 
      "attrs": {"act_type": "sigmoid"}, 
      "inputs": [[183, 1, 0]]
    }, 
    {
      "op": "elemwise_mul", 
      "name": "_mul22", 
      "inputs": [[185, 0, 0], [176, 0, 0]]
    }, 
    {
      "op": "Activation", 
      "name": "encoder_birnn_forward_l0_t11_i", 
      "attrs": {"act_type": "sigmoid"}, 
      "inputs": [[183, 0, 0]]
    }, 
    {
      "op": "Activation", 
      "name": "encoder_birnn_forward_l0_t11_c", 
      "attrs": {"act_type": "tanh"}, 
      "inputs": [[183, 2, 0]]
    }, 
    {
      "op": "elemwise_mul", 
      "name": "_mul23", 
      "inputs": [[187, 0, 0], [188, 0, 0]]
    }, 
    {
      "op": "elemwise_add", 
      "name": "encoder_birnn_forward_l0_t11_state", 
      "inputs": [[186, 0, 0], [189, 0, 0]]
    }, 
    {
      "op": "Activation", 
      "name": "activation11", 
      "attrs": {"act_type": "tanh"}, 
      "inputs": [[190, 0, 0]]
    }, 
    {
      "op": "elemwise_mul", 
      "name": "encoder_birnn_forward_l0_t11_out", 
      "inputs": [[184, 0, 0], [191, 0, 0]]
    }, 
    {
      "op": "expand_dims", 
      "name": "expand_dims11", 
      "attrs": {"axis": "0"}, 
      "inputs": [[192, 0, 0]]
    }, 
    {
      "op": "FullyConnected", 
      "name": "encoder_birnn_forward_l0_t12_i2h", 
      "attrs": {"num_hidden": "512"}, 
      "inputs": [[19, 12, 0], [20, 0, 0], [21, 0, 0]]
    }, 
    {
      "op": "FullyConnected", 
      "name": "encoder_birnn_forward_l0_t12_h2h", 
      "attrs": {"num_hidden": "512"}, 
      "inputs": [[192, 0, 0], [24, 0, 0], [25, 0, 0]]
    }, 
    {
      "op": "elemwise_add", 
      "name": "_plus12", 
      "inputs": [[194, 0, 0], [195, 0, 0]]
    }, 
    {
      "op": "SliceChannel", 
      "name": "encoder_birnn_forward_l0_t12_slice", 
      "attrs": {"num_outputs": "4"}, 
      "inputs": [[196, 0, 0]]
    }, 
    {
      "op": "Activation", 
      "name": "encoder_birnn_forward_l0_t12_o", 
      "attrs": {"act_type": "sigmoid"}, 
      "inputs": [[197, 3, 0]]
    }, 
    {
      "op": "Activation", 
      "name": "encoder_birnn_forward_l0_t12_f", 
      "attrs": {"act_type": "sigmoid"}, 
      "inputs": [[197, 1, 0]]
    }, 
    {
      "op": "elemwise_mul", 
      "name": "_mul24", 
      "inputs": [[199, 0, 0], [190, 0, 0]]
    }, 
    {
      "op": "Activation", 
      "name": "encoder_birnn_forward_l0_t12_i", 
      "attrs": {"act_type": "sigmoid"}, 
      "inputs": [[197, 0, 0]]
    }, 
    {
      "op": "Activation", 
      "name": "encoder_birnn_forward_l0_t12_c", 
      "attrs": {"act_type": "tanh"}, 
      "inputs": [[197, 2, 0]]
    }, 
    {
      "op": "elemwise_mul", 
      "name": "_mul25", 
      "inputs": [[201, 0, 0], [202, 0, 0]]
    }, 
    {
      "op": "elemwise_add", 
      "name": "encoder_birnn_forward_l0_t12_state", 
      "inputs": [[200, 0, 0], [203, 0, 0]]
    }, 
    {
      "op": "Activation", 
      "name": "activation12", 
      "attrs": {"act_type": "tanh"}, 
      "inputs": [[204, 0, 0]]
    }, 
    {
      "op": "elemwise_mul", 
      "name": "encoder_birnn_forward_l0_t12_out", 
      "inputs": [[198, 0, 0], [205, 0, 0]]
    }, 
    {
      "op": "expand_dims", 
      "name": "expand_dims12", 
      "attrs": {"axis": "0"}, 
      "inputs": [[206, 0, 0]]
    }, 
    {
      "op": "FullyConnected", 
      "name": "encoder_birnn_forward_l0_t13_i2h", 
      "attrs": {"num_hidden": "512"}, 
      "inputs": [[19, 13, 0], [20, 0, 0], [21, 0, 0]]
    }, 
    {
      "op": "FullyConnected", 
      "name": "encoder_birnn_forward_l0_t13_h2h", 
      "attrs": {"num_hidden": "512"}, 
      "inputs": [[206, 0, 0], [24, 0, 0], [25, 0, 0]]
    }, 
    {
      "op": "elemwise_add", 
      "name": "_plus13", 
      "inputs": [[208, 0, 0], [209, 0, 0]]
    }, 
    {
      "op": "SliceChannel", 
      "name": "encoder_birnn_forward_l0_t13_slice", 
      "attrs": {"num_outputs": "4"}, 
      "inputs": [[210, 0, 0]]
    }, 
    {
      "op": "Activation", 
      "name": "encoder_birnn_forward_l0_t13_o", 
      "attrs": {"act_type": "sigmoid"}, 
      "inputs": [[211, 3, 0]]
    }, 
    {
      "op": "Activation", 
      "name": "encoder_birnn_forward_l0_t13_f", 
      "attrs": {"act_type": "sigmoid"}, 
      "inputs": [[211, 1, 0]]
    }, 
    {
      "op": "elemwise_mul", 
      "name": "_mul26", 
      "inputs": [[213, 0, 0], [204, 0, 0]]
    }, 
    {
      "op": "Activation", 
      "name": "encoder_birnn_forward_l0_t13_i", 
      "attrs": {"act_type": "sigmoid"}, 
      "inputs": [[211, 0, 0]]
    }, 
    {
      "op": "Activation", 
      "name": "encoder_birnn_forward_l0_t13_c", 
      "attrs": {"act_type": "tanh"}, 
      "inputs": [[211, 2, 0]]
    }, 
    {
      "op": "elemwise_mul", 
      "name": "_mul27", 
      "inputs": [[215, 0, 0], [216, 0, 0]]
    }, 
    {
      "op": "elemwise_add", 
      "name": "encoder_birnn_forward_l0_t13_state", 
      "inputs": [[214, 0, 0], [217, 0, 0]]
    }, 
    {
      "op": "Activation", 
      "name": "activation13", 
      "attrs": {"act_type": "tanh"}, 
      "inputs": [[218, 0, 0]]
    }, 
    {
      "op": "elemwise_mul", 
      "name": "encoder_birnn_forward_l0_t13_out", 
      "inputs": [[212, 0, 0], [219, 0, 0]]
    }, 
    {
      "op": "expand_dims", 
      "name": "expand_dims13", 
      "attrs": {"axis": "0"}, 
      "inputs": [[220, 0, 0]]
    }, 
    {
      "op": "FullyConnected", 
      "name": "encoder_birnn_forward_l0_t14_i2h", 
      "attrs": {"num_hidden": "512"}, 
      "inputs": [[19, 14, 0], [20, 0, 0], [21, 0, 0]]
    }, 
    {
      "op": "FullyConnected", 
      "name": "encoder_birnn_forward_l0_t14_h2h", 
      "attrs": {"num_hidden": "512"}, 
      "inputs": [[220, 0, 0], [24, 0, 0], [25, 0, 0]]
    }, 
    {
      "op": "elemwise_add", 
      "name": "_plus14", 
      "inputs": [[222, 0, 0], [223, 0, 0]]
    }, 
    {
      "op": "SliceChannel", 
      "name": "encoder_birnn_forward_l0_t14_slice", 
      "attrs": {"num_outputs": "4"}, 
      "inputs": [[224, 0, 0]]
    }, 
    {
      "op": "Activation", 
      "name": "encoder_birnn_forward_l0_t14_o", 
      "attrs": {"act_type": "sigmoid"}, 
      "inputs": [[225, 3, 0]]
    }, 
    {
      "op": "Activation", 
      "name": "encoder_birnn_forward_l0_t14_f", 
      "attrs": {"act_type": "sigmoid"}, 
      "inputs": [[225, 1, 0]]
    }, 
    {
      "op": "elemwise_mul", 
      "name": "_mul28", 
      "inputs": [[227, 0, 0], [218, 0, 0]]
    }, 
    {
      "op": "Activation", 
      "name": "encoder_birnn_forward_l0_t14_i", 
      "attrs": {"act_type": "sigmoid"}, 
      "inputs": [[225, 0, 0]]
    }, 
    {
      "op": "Activation", 
      "name": "encoder_birnn_forward_l0_t14_c", 
      "attrs": {"act_type": "tanh"}, 
      "inputs": [[225, 2, 0]]
    }, 
    {
      "op": "elemwise_mul", 
      "name": "_mul29", 
      "inputs": [[229, 0, 0], [230, 0, 0]]
    }, 
    {
      "op": "elemwise_add", 
      "name": "encoder_birnn_forward_l0_t14_state", 
      "inputs": [[228, 0, 0], [231, 0, 0]]
    }, 
    {
      "op": "Activation", 
      "name": "activation14", 
      "attrs": {"act_type": "tanh"}, 
      "inputs": [[232, 0, 0]]
    }, 
    {
      "op": "elemwise_mul", 
      "name": "encoder_birnn_forward_l0_t14_out", 
      "inputs": [[226, 0, 0], [233, 0, 0]]
    }, 
    {
      "op": "expand_dims", 
      "name": "expand_dims14", 
      "attrs": {"axis": "0"}, 
      "inputs": [[234, 0, 0]]
    }, 
    {
      "op": "FullyConnected", 
      "name": "encoder_birnn_forward_l0_t15_i2h", 
      "attrs": {"num_hidden": "512"}, 
      "inputs": [[19, 15, 0], [20, 0, 0], [21, 0, 0]]
    }, 
    {
      "op": "FullyConnected", 
      "name": "encoder_birnn_forward_l0_t15_h2h", 
      "attrs": {"num_hidden": "512"}, 
      "inputs": [[234, 0, 0], [24, 0, 0], [25, 0, 0]]
    }, 
    {
      "op": "elemwise_add", 
      "name": "_plus15", 
      "inputs": [[236, 0, 0], [237, 0, 0]]
    }, 
    {
      "op": "SliceChannel", 
      "name": "encoder_birnn_forward_l0_t15_slice", 
      "attrs": {"num_outputs": "4"}, 
      "inputs": [[238, 0, 0]]
    }, 
    {
      "op": "Activation", 
      "name": "encoder_birnn_forward_l0_t15_o", 
      "attrs": {"act_type": "sigmoid"}, 
      "inputs": [[239, 3, 0]]
    }, 
    {
      "op": "Activation", 
      "name": "encoder_birnn_forward_l0_t15_f", 
      "attrs": {"act_type": "sigmoid"}, 
      "inputs": [[239, 1, 0]]
    }, 
    {
      "op": "elemwise_mul", 
      "name": "_mul30", 
      "inputs": [[241, 0, 0], [232, 0, 0]]
    }, 
    {
      "op": "Activation", 
      "name": "encoder_birnn_forward_l0_t15_i", 
      "attrs": {"act_type": "sigmoid"}, 
      "inputs": [[239, 0, 0]]
    }, 
    {
      "op": "Activation", 
      "name": "encoder_birnn_forward_l0_t15_c", 
      "attrs": {"act_type": "tanh"}, 
      "inputs": [[239, 2, 0]]
    }, 
    {
      "op": "elemwise_mul", 
      "name": "_mul31", 
      "inputs": [[243, 0, 0], [244, 0, 0]]
    }, 
    {
      "op": "elemwise_add", 
      "name": "encoder_birnn_forward_l0_t15_state", 
      "inputs": [[242, 0, 0], [245, 0, 0]]
    }, 
    {
      "op": "Activation", 
      "name": "activation15", 
      "attrs": {"act_type": "tanh"}, 
      "inputs": [[246, 0, 0]]
    }, 
    {
      "op": "elemwise_mul", 
      "name": "encoder_birnn_forward_l0_t15_out", 
      "inputs": [[240, 0, 0], [247, 0, 0]]
    }, 
    {
      "op": "expand_dims", 
      "name": "expand_dims15", 
      "attrs": {"axis": "0"}, 
      "inputs": [[248, 0, 0]]
    }, 
    {
      "op": "FullyConnected", 
      "name": "encoder_birnn_forward_l0_t16_i2h", 
      "attrs": {"num_hidden": "512"}, 
      "inputs": [[19, 16, 0], [20, 0, 0], [21, 0, 0]]
    }, 
    {
      "op": "FullyConnected", 
      "name": "encoder_birnn_forward_l0_t16_h2h", 
      "attrs": {"num_hidden": "512"}, 
      "inputs": [[248, 0, 0], [24, 0, 0], [25, 0, 0]]
    }, 
    {
      "op": "elemwise_add", 
      "name": "_plus16", 
      "inputs": [[250, 0, 0], [251, 0, 0]]
    }, 
    {
      "op": "SliceChannel", 
      "name": "encoder_birnn_forward_l0_t16_slice", 
      "attrs": {"num_outputs": "4"}, 
      "inputs": [[252, 0, 0]]
    }, 
    {
      "op": "Activation", 
      "name": "encoder_birnn_forward_l0_t16_o", 
      "attrs": {"act_type": "sigmoid"}, 
      "inputs": [[253, 3, 0]]
    }, 
    {
      "op": "Activation", 
      "name": "encoder_birnn_forward_l0_t16_f", 
      "attrs": {"act_type": "sigmoid"}, 
      "inputs": [[253, 1, 0]]
    }, 
    {
      "op": "elemwise_mul", 
      "name": "_mul32", 
      "inputs": [[255, 0, 0], [246, 0, 0]]
    }, 
    {
      "op": "Activation", 
      "name": "encoder_birnn_forward_l0_t16_i", 
      "attrs": {"act_type": "sigmoid"}, 
      "inputs": [[253, 0, 0]]
    }, 
    {
      "op": "Activation", 
      "name": "encoder_birnn_forward_l0_t16_c", 
      "attrs": {"act_type": "tanh"}, 
      "inputs": [[253, 2, 0]]
    }, 
    {
      "op": "elemwise_mul", 
      "name": "_mul33", 
      "inputs": [[257, 0, 0], [258, 0, 0]]
    }, 
    {
      "op": "elemwise_add", 
      "name": "encoder_birnn_forward_l0_t16_state", 
      "inputs": [[256, 0, 0], [259, 0, 0]]
    }, 
    {
      "op": "Activation", 
      "name": "activation16", 
      "attrs": {"act_type": "tanh"}, 
      "inputs": [[260, 0, 0]]
    }, 
    {
      "op": "elemwise_mul", 
      "name": "encoder_birnn_forward_l0_t16_out", 
      "inputs": [[254, 0, 0], [261, 0, 0]]
    }, 
    {
      "op": "expand_dims", 
      "name": "expand_dims16", 
      "attrs": {"axis": "0"}, 
      "inputs": [[262, 0, 0]]
    }, 
    {
      "op": "FullyConnected", 
      "name": "encoder_birnn_forward_l0_t17_i2h", 
      "attrs": {"num_hidden": "512"}, 
      "inputs": [[19, 17, 0], [20, 0, 0], [21, 0, 0]]
    }, 
    {
      "op": "FullyConnected", 
      "name": "encoder_birnn_forward_l0_t17_h2h", 
      "attrs": {"num_hidden": "512"}, 
      "inputs": [[262, 0, 0], [24, 0, 0], [25, 0, 0]]
    }, 
    {
      "op": "elemwise_add", 
      "name": "_plus17", 
      "inputs": [[264, 0, 0], [265, 0, 0]]
    }, 
    {
      "op": "SliceChannel", 
      "name": "encoder_birnn_forward_l0_t17_slice", 
      "attrs": {"num_outputs": "4"}, 
      "inputs": [[266, 0, 0]]
    }, 
    {
      "op": "Activation", 
      "name": "encoder_birnn_forward_l0_t17_o", 
      "attrs": {"act_type": "sigmoid"}, 
      "inputs": [[267, 3, 0]]
    }, 
    {
      "op": "Activation", 
      "name": "encoder_birnn_forward_l0_t17_f", 
      "attrs": {"act_type": "sigmoid"}, 
      "inputs": [[267, 1, 0]]
    }, 
    {
      "op": "elemwise_mul", 
      "name": "_mul34", 
      "inputs": [[269, 0, 0], [260, 0, 0]]
    }, 
    {
      "op": "Activation", 
      "name": "encoder_birnn_forward_l0_t17_i", 
      "attrs": {"act_type": "sigmoid"}, 
      "inputs": [[267, 0, 0]]
    }, 
    {
      "op": "Activation", 
      "name": "encoder_birnn_forward_l0_t17_c", 
      "attrs": {"act_type": "tanh"}, 
      "inputs": [[267, 2, 0]]
    }, 
    {
      "op": "elemwise_mul", 
      "name": "_mul35", 
      "inputs": [[271, 0, 0], [272, 0, 0]]
    }, 
    {
      "op": "elemwise_add", 
      "name": "encoder_birnn_forward_l0_t17_state", 
      "inputs": [[270, 0, 0], [273, 0, 0]]
    }, 
    {
      "op": "Activation", 
      "name": "activation17", 
      "attrs": {"act_type": "tanh"}, 
      "inputs": [[274, 0, 0]]
    }, 
    {
      "op": "elemwise_mul", 
      "name": "encoder_birnn_forward_l0_t17_out", 
      "inputs": [[268, 0, 0], [275, 0, 0]]
    }, 
    {
      "op": "expand_dims", 
      "name": "expand_dims17", 
      "attrs": {"axis": "0"}, 
      "inputs": [[276, 0, 0]]
    }, 
    {
      "op": "FullyConnected", 
      "name": "encoder_birnn_forward_l0_t18_i2h", 
      "attrs": {"num_hidden": "512"}, 
      "inputs": [[19, 18, 0], [20, 0, 0], [21, 0, 0]]
    }, 
    {
      "op": "FullyConnected", 
      "name": "encoder_birnn_forward_l0_t18_h2h", 
      "attrs": {"num_hidden": "512"}, 
      "inputs": [[276, 0, 0], [24, 0, 0], [25, 0, 0]]
    }, 
    {
      "op": "elemwise_add", 
      "name": "_plus18", 
      "inputs": [[278, 0, 0], [279, 0, 0]]
    }, 
    {
      "op": "SliceChannel", 
      "name": "encoder_birnn_forward_l0_t18_slice", 
      "attrs": {"num_outputs": "4"}, 
      "inputs": [[280, 0, 0]]
    }, 
    {
      "op": "Activation", 
      "name": "encoder_birnn_forward_l0_t18_o", 
      "attrs": {"act_type": "sigmoid"}, 
      "inputs": [[281, 3, 0]]
    }, 
    {
      "op": "Activation", 
      "name": "encoder_birnn_forward_l0_t18_f", 
      "attrs": {"act_type": "sigmoid"}, 
      "inputs": [[281, 1, 0]]
    }, 
    {
      "op": "elemwise_mul", 
      "name": "_mul36", 
      "inputs": [[283, 0, 0], [274, 0, 0]]
    }, 
    {
      "op": "Activation", 
      "name": "encoder_birnn_forward_l0_t18_i", 
      "attrs": {"act_type": "sigmoid"}, 
      "inputs": [[281, 0, 0]]
    }, 
    {
      "op": "Activation", 
      "name": "encoder_birnn_forward_l0_t18_c", 
      "attrs": {"act_type": "tanh"}, 
      "inputs": [[281, 2, 0]]
    }, 
    {
      "op": "elemwise_mul", 
      "name": "_mul37", 
      "inputs": [[285, 0, 0], [286, 0, 0]]
    }, 
    {
      "op": "elemwise_add", 
      "name": "encoder_birnn_forward_l0_t18_state", 
      "inputs": [[284, 0, 0], [287, 0, 0]]
    }, 
    {
      "op": "Activation", 
      "name": "activation18", 
      "attrs": {"act_type": "tanh"}, 
      "inputs": [[288, 0, 0]]
    }, 
    {
      "op": "elemwise_mul", 
      "name": "encoder_birnn_forward_l0_t18_out", 
      "inputs": [[282, 0, 0], [289, 0, 0]]
    }, 
    {
      "op": "expand_dims", 
      "name": "expand_dims18", 
      "attrs": {"axis": "0"}, 
      "inputs": [[290, 0, 0]]
    }, 
    {
      "op": "FullyConnected", 
      "name": "encoder_birnn_forward_l0_t19_i2h", 
      "attrs": {"num_hidden": "512"}, 
      "inputs": [[19, 19, 0], [20, 0, 0], [21, 0, 0]]
    }, 
    {
      "op": "FullyConnected", 
      "name": "encoder_birnn_forward_l0_t19_h2h", 
      "attrs": {"num_hidden": "512"}, 
      "inputs": [[290, 0, 0], [24, 0, 0], [25, 0, 0]]
    }, 
    {
      "op": "elemwise_add", 
      "name": "_plus19", 
      "inputs": [[292, 0, 0], [293, 0, 0]]
    }, 
    {
      "op": "SliceChannel", 
      "name": "encoder_birnn_forward_l0_t19_slice", 
      "attrs": {"num_outputs": "4"}, 
      "inputs": [[294, 0, 0]]
    }, 
    {
      "op": "Activation", 
      "name": "encoder_birnn_forward_l0_t19_o", 
      "attrs": {"act_type": "sigmoid"}, 
      "inputs": [[295, 3, 0]]
    }, 
    {
      "op": "Activation", 
      "name": "encoder_birnn_forward_l0_t19_f", 
      "attrs": {"act_type": "sigmoid"}, 
      "inputs": [[295, 1, 0]]
    }, 
    {
      "op": "elemwise_mul", 
      "name": "_mul38", 
      "inputs": [[297, 0, 0], [288, 0, 0]]
    }, 
    {
      "op": "Activation", 
      "name": "encoder_birnn_forward_l0_t19_i", 
      "attrs": {"act_type": "sigmoid"}, 
      "inputs": [[295, 0, 0]]
    }, 
    {
      "op": "Activation", 
      "name": "encoder_birnn_forward_l0_t19_c", 
      "attrs": {"act_type": "tanh"}, 
      "inputs": [[295, 2, 0]]
    }, 
    {
      "op": "elemwise_mul", 
      "name": "_mul39", 
      "inputs": [[299, 0, 0], [300, 0, 0]]
    }, 
    {
      "op": "elemwise_add", 
      "name": "encoder_birnn_forward_l0_t19_state", 
      "inputs": [[298, 0, 0], [301, 0, 0]]
    }, 
    {
      "op": "Activation", 
      "name": "activation19", 
      "attrs": {"act_type": "tanh"}, 
      "inputs": [[302, 0, 0]]
    }, 
    {
      "op": "elemwise_mul", 
      "name": "encoder_birnn_forward_l0_t19_out", 
      "inputs": [[296, 0, 0], [303, 0, 0]]
    }, 
    {
      "op": "expand_dims", 
      "name": "expand_dims19", 
      "attrs": {"axis": "0"}, 
      "inputs": [[304, 0, 0]]
    }, 
    {
      "op": "FullyConnected", 
      "name": "encoder_birnn_forward_l0_t20_i2h", 
      "attrs": {"num_hidden": "512"}, 
      "inputs": [[19, 20, 0], [20, 0, 0], [21, 0, 0]]
    }, 
    {
      "op": "FullyConnected", 
      "name": "encoder_birnn_forward_l0_t20_h2h", 
      "attrs": {"num_hidden": "512"}, 
      "inputs": [[304, 0, 0], [24, 0, 0], [25, 0, 0]]
    }, 
    {
      "op": "elemwise_add", 
      "name": "_plus20", 
      "inputs": [[306, 0, 0], [307, 0, 0]]
    }, 
    {
      "op": "SliceChannel", 
      "name": "encoder_birnn_forward_l0_t20_slice", 
      "attrs": {"num_outputs": "4"}, 
      "inputs": [[308, 0, 0]]
    }, 
    {
      "op": "Activation", 
      "name": "encoder_birnn_forward_l0_t20_o", 
      "attrs": {"act_type": "sigmoid"}, 
      "inputs": [[309, 3, 0]]
    }, 
    {
      "op": "Activation", 
      "name": "encoder_birnn_forward_l0_t20_f", 
      "attrs": {"act_type": "sigmoid"}, 
      "inputs": [[309, 1, 0]]
    }, 
    {
      "op": "elemwise_mul", 
      "name": "_mul40", 
      "inputs": [[311, 0, 0], [302, 0, 0]]
    }, 
    {
      "op": "Activation", 
      "name": "encoder_birnn_forward_l0_t20_i", 
      "attrs": {"act_type": "sigmoid"}, 
      "inputs": [[309, 0, 0]]
    }, 
    {
      "op": "Activation", 
      "name": "encoder_birnn_forward_l0_t20_c", 
      "attrs": {"act_type": "tanh"}, 
      "inputs": [[309, 2, 0]]
    }, 
    {
      "op": "elemwise_mul", 
      "name": "_mul41", 
      "inputs": [[313, 0, 0], [314, 0, 0]]
    }, 
    {
      "op": "elemwise_add", 
      "name": "encoder_birnn_forward_l0_t20_state", 
      "inputs": [[312, 0, 0], [315, 0, 0]]
    }, 
    {
      "op": "Activation", 
      "name": "activation20", 
      "attrs": {"act_type": "tanh"}, 
      "inputs": [[316, 0, 0]]
    }, 
    {
      "op": "elemwise_mul", 
      "name": "encoder_birnn_forward_l0_t20_out", 
      "inputs": [[310, 0, 0], [317, 0, 0]]
    }, 
    {
      "op": "expand_dims", 
      "name": "expand_dims20", 
      "attrs": {"axis": "0"}, 
      "inputs": [[318, 0, 0]]
    }, 
    {
      "op": "FullyConnected", 
      "name": "encoder_birnn_forward_l0_t21_i2h", 
      "attrs": {"num_hidden": "512"}, 
      "inputs": [[19, 21, 0], [20, 0, 0], [21, 0, 0]]
    }, 
    {
      "op": "FullyConnected", 
      "name": "encoder_birnn_forward_l0_t21_h2h", 
      "attrs": {"num_hidden": "512"}, 
      "inputs": [[318, 0, 0], [24, 0, 0], [25, 0, 0]]
    }, 
    {
      "op": "elemwise_add", 
      "name": "_plus21", 
      "inputs": [[320, 0, 0], [321, 0, 0]]
    }, 
    {
      "op": "SliceChannel", 
      "name": "encoder_birnn_forward_l0_t21_slice", 
      "attrs": {"num_outputs": "4"}, 
      "inputs": [[322, 0, 0]]
    }, 
    {
      "op": "Activation", 
      "name": "encoder_birnn_forward_l0_t21_o", 
      "attrs": {"act_type": "sigmoid"}, 
      "inputs": [[323, 3, 0]]
    }, 
    {
      "op": "Activation", 
      "name": "encoder_birnn_forward_l0_t21_f", 
      "attrs": {"act_type": "sigmoid"}, 
      "inputs": [[323, 1, 0]]
    }, 
    {
      "op": "elemwise_mul", 
      "name": "_mul42", 
      "inputs": [[325, 0, 0], [316, 0, 0]]
    }, 
    {
      "op": "Activation", 
      "name": "encoder_birnn_forward_l0_t21_i", 
      "attrs": {"act_type": "sigmoid"}, 
      "inputs": [[323, 0, 0]]
    }, 
    {
      "op": "Activation", 
      "name": "encoder_birnn_forward_l0_t21_c", 
      "attrs": {"act_type": "tanh"}, 
      "inputs": [[323, 2, 0]]
    }, 
    {
      "op": "elemwise_mul", 
      "name": "_mul43", 
      "inputs": [[327, 0, 0], [328, 0, 0]]
    }, 
    {
      "op": "elemwise_add", 
      "name": "encoder_birnn_forward_l0_t21_state", 
      "inputs": [[326, 0, 0], [329, 0, 0]]
    }, 
    {
      "op": "Activation", 
      "name": "activation21", 
      "attrs": {"act_type": "tanh"}, 
      "inputs": [[330, 0, 0]]
    }, 
    {
      "op": "elemwise_mul", 
      "name": "encoder_birnn_forward_l0_t21_out", 
      "inputs": [[324, 0, 0], [331, 0, 0]]
    }, 
    {
      "op": "expand_dims", 
      "name": "expand_dims21", 
      "attrs": {"axis": "0"}, 
      "inputs": [[332, 0, 0]]
    }, 
    {
      "op": "FullyConnected", 
      "name": "encoder_birnn_forward_l0_t22_i2h", 
      "attrs": {"num_hidden": "512"}, 
      "inputs": [[19, 22, 0], [20, 0, 0], [21, 0, 0]]
    }, 
    {
      "op": "FullyConnected", 
      "name": "encoder_birnn_forward_l0_t22_h2h", 
      "attrs": {"num_hidden": "512"}, 
      "inputs": [[332, 0, 0], [24, 0, 0], [25, 0, 0]]
    }, 
    {
      "op": "elemwise_add", 
      "name": "_plus22", 
      "inputs": [[334, 0, 0], [335, 0, 0]]
    }, 
    {
      "op": "SliceChannel", 
      "name": "encoder_birnn_forward_l0_t22_slice", 
      "attrs": {"num_outputs": "4"}, 
      "inputs": [[336, 0, 0]]
    }, 
    {
      "op": "Activation", 
      "name": "encoder_birnn_forward_l0_t22_o", 
      "attrs": {"act_type": "sigmoid"}, 
      "inputs": [[337, 3, 0]]
    }, 
    {
      "op": "Activation", 
      "name": "encoder_birnn_forward_l0_t22_f", 
      "attrs": {"act_type": "sigmoid"}, 
      "inputs": [[337, 1, 0]]
    }, 
    {
      "op": "elemwise_mul", 
      "name": "_mul44", 
      "inputs": [[339, 0, 0], [330, 0, 0]]
    }, 
    {
      "op": "Activation", 
      "name": "encoder_birnn_forward_l0_t22_i", 
      "attrs": {"act_type": "sigmoid"}, 
      "inputs": [[337, 0, 0]]
    }, 
    {
      "op": "Activation", 
      "name": "encoder_birnn_forward_l0_t22_c", 
      "attrs": {"act_type": "tanh"}, 
      "inputs": [[337, 2, 0]]
    }, 
    {
      "op": "elemwise_mul", 
      "name": "_mul45", 
      "inputs": [[341, 0, 0], [342, 0, 0]]
    }, 
    {
      "op": "elemwise_add", 
      "name": "encoder_birnn_forward_l0_t22_state", 
      "inputs": [[340, 0, 0], [343, 0, 0]]
    }, 
    {
      "op": "Activation", 
      "name": "activation22", 
      "attrs": {"act_type": "tanh"}, 
      "inputs": [[344, 0, 0]]
    }, 
    {
      "op": "elemwise_mul", 
      "name": "encoder_birnn_forward_l0_t22_out", 
      "inputs": [[338, 0, 0], [345, 0, 0]]
    }, 
    {
      "op": "expand_dims", 
      "name": "expand_dims22", 
      "attrs": {"axis": "0"}, 
      "inputs": [[346, 0, 0]]
    }, 
    {
      "op": "FullyConnected", 
      "name": "encoder_birnn_forward_l0_t23_i2h", 
      "attrs": {"num_hidden": "512"}, 
      "inputs": [[19, 23, 0], [20, 0, 0], [21, 0, 0]]
    }, 
    {
      "op": "FullyConnected", 
      "name": "encoder_birnn_forward_l0_t23_h2h", 
      "attrs": {"num_hidden": "512"}, 
      "inputs": [[346, 0, 0], [24, 0, 0], [25, 0, 0]]
    }, 
    {
      "op": "elemwise_add", 
      "name": "_plus23", 
      "inputs": [[348, 0, 0], [349, 0, 0]]
    }, 
    {
      "op": "SliceChannel", 
      "name": "encoder_birnn_forward_l0_t23_slice", 
      "attrs": {"num_outputs": "4"}, 
      "inputs": [[350, 0, 0]]
    }, 
    {
      "op": "Activation", 
      "name": "encoder_birnn_forward_l0_t23_o", 
      "attrs": {"act_type": "sigmoid"}, 
      "inputs": [[351, 3, 0]]
    }, 
    {
      "op": "Activation", 
      "name": "encoder_birnn_forward_l0_t23_f", 
      "attrs": {"act_type": "sigmoid"}, 
      "inputs": [[351, 1, 0]]
    }, 
    {
      "op": "elemwise_mul", 
      "name": "_mul46", 
      "inputs": [[353, 0, 0], [344, 0, 0]]
    }, 
    {
      "op": "Activation", 
      "name": "encoder_birnn_forward_l0_t23_i", 
      "attrs": {"act_type": "sigmoid"}, 
      "inputs": [[351, 0, 0]]
    }, 
    {
      "op": "Activation", 
      "name": "encoder_birnn_forward_l0_t23_c", 
      "attrs": {"act_type": "tanh"}, 
      "inputs": [[351, 2, 0]]
    }, 
    {
      "op": "elemwise_mul", 
      "name": "_mul47", 
      "inputs": [[355, 0, 0], [356, 0, 0]]
    }, 
    {
      "op": "elemwise_add", 
      "name": "encoder_birnn_forward_l0_t23_state", 
      "inputs": [[354, 0, 0], [357, 0, 0]]
    }, 
    {
      "op": "Activation", 
      "name": "activation23", 
      "attrs": {"act_type": "tanh"}, 
      "inputs": [[358, 0, 0]]
    }, 
    {
      "op": "elemwise_mul", 
      "name": "encoder_birnn_forward_l0_t23_out", 
      "inputs": [[352, 0, 0], [359, 0, 0]]
    }, 
    {
      "op": "expand_dims", 
      "name": "expand_dims23", 
      "attrs": {"axis": "0"}, 
      "inputs": [[360, 0, 0]]
    }, 
    {
      "op": "FullyConnected", 
      "name": "encoder_birnn_forward_l0_t24_i2h", 
      "attrs": {"num_hidden": "512"}, 
      "inputs": [[19, 24, 0], [20, 0, 0], [21, 0, 0]]
    }, 
    {
      "op": "FullyConnected", 
      "name": "encoder_birnn_forward_l0_t24_h2h", 
      "attrs": {"num_hidden": "512"}, 
      "inputs": [[360, 0, 0], [24, 0, 0], [25, 0, 0]]
    }, 
    {
      "op": "elemwise_add", 
      "name": "_plus24", 
      "inputs": [[362, 0, 0], [363, 0, 0]]
    }, 
    {
      "op": "SliceChannel", 
      "name": "encoder_birnn_forward_l0_t24_slice", 
      "attrs": {"num_outputs": "4"}, 
      "inputs": [[364, 0, 0]]
    }, 
    {
      "op": "Activation", 
      "name": "encoder_birnn_forward_l0_t24_o", 
      "attrs": {"act_type": "sigmoid"}, 
      "inputs": [[365, 3, 0]]
    }, 
    {
      "op": "Activation", 
      "name": "encoder_birnn_forward_l0_t24_f", 
      "attrs": {"act_type": "sigmoid"}, 
      "inputs": [[365, 1, 0]]
    }, 
    {
      "op": "elemwise_mul", 
      "name": "_mul48", 
      "inputs": [[367, 0, 0], [358, 0, 0]]
    }, 
    {
      "op": "Activation", 
      "name": "encoder_birnn_forward_l0_t24_i", 
      "attrs": {"act_type": "sigmoid"}, 
      "inputs": [[365, 0, 0]]
    }, 
    {
      "op": "Activation", 
      "name": "encoder_birnn_forward_l0_t24_c", 
      "attrs": {"act_type": "tanh"}, 
      "inputs": [[365, 2, 0]]
    }, 
    {
      "op": "elemwise_mul", 
      "name": "_mul49", 
      "inputs": [[369, 0, 0], [370, 0, 0]]
    }, 
    {
      "op": "elemwise_add", 
      "name": "encoder_birnn_forward_l0_t24_state", 
      "inputs": [[368, 0, 0], [371, 0, 0]]
    }, 
    {
      "op": "Activation", 
      "name": "activation24", 
      "attrs": {"act_type": "tanh"}, 
      "inputs": [[372, 0, 0]]
    }, 
    {
      "op": "elemwise_mul", 
      "name": "encoder_birnn_forward_l0_t24_out", 
      "inputs": [[366, 0, 0], [373, 0, 0]]
    }, 
    {
      "op": "expand_dims", 
      "name": "expand_dims24", 
      "attrs": {"axis": "0"}, 
      "inputs": [[374, 0, 0]]
    }, 
    {
      "op": "FullyConnected", 
      "name": "encoder_birnn_forward_l0_t25_i2h", 
      "attrs": {"num_hidden": "512"}, 
      "inputs": [[19, 25, 0], [20, 0, 0], [21, 0, 0]]
    }, 
    {
      "op": "FullyConnected", 
      "name": "encoder_birnn_forward_l0_t25_h2h", 
      "attrs": {"num_hidden": "512"}, 
      "inputs": [[374, 0, 0], [24, 0, 0], [25, 0, 0]]
    }, 
    {
      "op": "elemwise_add", 
      "name": "_plus25", 
      "inputs": [[376, 0, 0], [377, 0, 0]]
    }, 
    {
      "op": "SliceChannel", 
      "name": "encoder_birnn_forward_l0_t25_slice", 
      "attrs": {"num_outputs": "4"}, 
      "inputs": [[378, 0, 0]]
    }, 
    {
      "op": "Activation", 
      "name": "encoder_birnn_forward_l0_t25_o", 
      "attrs": {"act_type": "sigmoid"}, 
      "inputs": [[379, 3, 0]]
    }, 
    {
      "op": "Activation", 
      "name": "encoder_birnn_forward_l0_t25_f", 
      "attrs": {"act_type": "sigmoid"}, 
      "inputs": [[379, 1, 0]]
    }, 
    {
      "op": "elemwise_mul", 
      "name": "_mul50", 
      "inputs": [[381, 0, 0], [372, 0, 0]]
    }, 
    {
      "op": "Activation", 
      "name": "encoder_birnn_forward_l0_t25_i", 
      "attrs": {"act_type": "sigmoid"}, 
      "inputs": [[379, 0, 0]]
    }, 
    {
      "op": "Activation", 
      "name": "encoder_birnn_forward_l0_t25_c", 
      "attrs": {"act_type": "tanh"}, 
      "inputs": [[379, 2, 0]]
    }, 
    {
      "op": "elemwise_mul", 
      "name": "_mul51", 
      "inputs": [[383, 0, 0], [384, 0, 0]]
    }, 
    {
      "op": "elemwise_add", 
      "name": "encoder_birnn_forward_l0_t25_state", 
      "inputs": [[382, 0, 0], [385, 0, 0]]
    }, 
    {
      "op": "Activation", 
      "name": "activation25", 
      "attrs": {"act_type": "tanh"}, 
      "inputs": [[386, 0, 0]]
    }, 
    {
      "op": "elemwise_mul", 
      "name": "encoder_birnn_forward_l0_t25_out", 
      "inputs": [[380, 0, 0], [387, 0, 0]]
    }, 
    {
      "op": "expand_dims", 
      "name": "expand_dims25", 
      "attrs": {"axis": "0"}, 
      "inputs": [[388, 0, 0]]
    }, 
    {
      "op": "FullyConnected", 
      "name": "encoder_birnn_forward_l0_t26_i2h", 
      "attrs": {"num_hidden": "512"}, 
      "inputs": [[19, 26, 0], [20, 0, 0], [21, 0, 0]]
    }, 
    {
      "op": "FullyConnected", 
      "name": "encoder_birnn_forward_l0_t26_h2h", 
      "attrs": {"num_hidden": "512"}, 
      "inputs": [[388, 0, 0], [24, 0, 0], [25, 0, 0]]
    }, 
    {
      "op": "elemwise_add", 
      "name": "_plus26", 
      "inputs": [[390, 0, 0], [391, 0, 0]]
    }, 
    {
      "op": "SliceChannel", 
      "name": "encoder_birnn_forward_l0_t26_slice", 
      "attrs": {"num_outputs": "4"}, 
      "inputs": [[392, 0, 0]]
    }, 
    {
      "op": "Activation", 
      "name": "encoder_birnn_forward_l0_t26_o", 
      "attrs": {"act_type": "sigmoid"}, 
      "inputs": [[393, 3, 0]]
    }, 
    {
      "op": "Activation", 
      "name": "encoder_birnn_forward_l0_t26_f", 
      "attrs": {"act_type": "sigmoid"}, 
      "inputs": [[393, 1, 0]]
    }, 
    {
      "op": "elemwise_mul", 
      "name": "_mul52", 
      "inputs": [[395, 0, 0], [386, 0, 0]]
    }, 
    {
      "op": "Activation", 
      "name": "encoder_birnn_forward_l0_t26_i", 
      "attrs": {"act_type": "sigmoid"}, 
      "inputs": [[393, 0, 0]]
    }, 
    {
      "op": "Activation", 
      "name": "encoder_birnn_forward_l0_t26_c", 
      "attrs": {"act_type": "tanh"}, 
      "inputs": [[393, 2, 0]]
    }, 
    {
      "op": "elemwise_mul", 
      "name": "_mul53", 
      "inputs": [[397, 0, 0], [398, 0, 0]]
    }, 
    {
      "op": "elemwise_add", 
      "name": "encoder_birnn_forward_l0_t26_state", 
      "inputs": [[396, 0, 0], [399, 0, 0]]
    }, 
    {
      "op": "Activation", 
      "name": "activation26", 
      "attrs": {"act_type": "tanh"}, 
      "inputs": [[400, 0, 0]]
    }, 
    {
      "op": "elemwise_mul", 
      "name": "encoder_birnn_forward_l0_t26_out", 
      "inputs": [[394, 0, 0], [401, 0, 0]]
    }, 
    {
      "op": "expand_dims", 
      "name": "expand_dims26", 
      "attrs": {"axis": "0"}, 
      "inputs": [[402, 0, 0]]
    }, 
    {
      "op": "FullyConnected", 
      "name": "encoder_birnn_forward_l0_t27_i2h", 
      "attrs": {"num_hidden": "512"}, 
      "inputs": [[19, 27, 0], [20, 0, 0], [21, 0, 0]]
    }, 
    {
      "op": "FullyConnected", 
      "name": "encoder_birnn_forward_l0_t27_h2h", 
      "attrs": {"num_hidden": "512"}, 
      "inputs": [[402, 0, 0], [24, 0, 0], [25, 0, 0]]
    }, 
    {
      "op": "elemwise_add", 
      "name": "_plus27", 
      "inputs": [[404, 0, 0], [405, 0, 0]]
    }, 
    {
      "op": "SliceChannel", 
      "name": "encoder_birnn_forward_l0_t27_slice", 
      "attrs": {"num_outputs": "4"}, 
      "inputs": [[406, 0, 0]]
    }, 
    {
      "op": "Activation", 
      "name": "encoder_birnn_forward_l0_t27_o", 
      "attrs": {"act_type": "sigmoid"}, 
      "inputs": [[407, 3, 0]]
    }, 
    {
      "op": "Activation", 
      "name": "encoder_birnn_forward_l0_t27_f", 
      "attrs": {"act_type": "sigmoid"}, 
      "inputs": [[407, 1, 0]]
    }, 
    {
      "op": "elemwise_mul", 
      "name": "_mul54", 
      "inputs": [[409, 0, 0], [400, 0, 0]]
    }, 
    {
      "op": "Activation", 
      "name": "encoder_birnn_forward_l0_t27_i", 
      "attrs": {"act_type": "sigmoid"}, 
      "inputs": [[407, 0, 0]]
    }, 
    {
      "op": "Activation", 
      "name": "encoder_birnn_forward_l0_t27_c", 
      "attrs": {"act_type": "tanh"}, 
      "inputs": [[407, 2, 0]]
    }, 
    {
      "op": "elemwise_mul", 
      "name": "_mul55", 
      "inputs": [[411, 0, 0], [412, 0, 0]]
    }, 
    {
      "op": "elemwise_add", 
      "name": "encoder_birnn_forward_l0_t27_state", 
      "inputs": [[410, 0, 0], [413, 0, 0]]
    }, 
    {
      "op": "Activation", 
      "name": "activation27", 
      "attrs": {"act_type": "tanh"}, 
      "inputs": [[414, 0, 0]]
    }, 
    {
      "op": "elemwise_mul", 
      "name": "encoder_birnn_forward_l0_t27_out", 
      "inputs": [[408, 0, 0], [415, 0, 0]]
    }, 
    {
      "op": "expand_dims", 
      "name": "expand_dims27", 
      "attrs": {"axis": "0"}, 
      "inputs": [[416, 0, 0]]
    }, 
    {
      "op": "FullyConnected", 
      "name": "encoder_birnn_forward_l0_t28_i2h", 
      "attrs": {"num_hidden": "512"}, 
      "inputs": [[19, 28, 0], [20, 0, 0], [21, 0, 0]]
    }, 
    {
      "op": "FullyConnected", 
      "name": "encoder_birnn_forward_l0_t28_h2h", 
      "attrs": {"num_hidden": "512"}, 
      "inputs": [[416, 0, 0], [24, 0, 0], [25, 0, 0]]
    }, 
    {
      "op": "elemwise_add", 
      "name": "_plus28", 
      "inputs": [[418, 0, 0], [419, 0, 0]]
    }, 
    {
      "op": "SliceChannel", 
      "name": "encoder_birnn_forward_l0_t28_slice", 
      "attrs": {"num_outputs": "4"}, 
      "inputs": [[420, 0, 0]]
    }, 
    {
      "op": "Activation", 
      "name": "encoder_birnn_forward_l0_t28_o", 
      "attrs": {"act_type": "sigmoid"}, 
      "inputs": [[421, 3, 0]]
    }, 
    {
      "op": "Activation", 
      "name": "encoder_birnn_forward_l0_t28_f", 
      "attrs": {"act_type": "sigmoid"}, 
      "inputs": [[421, 1, 0]]
    }, 
    {
      "op": "elemwise_mul", 
      "name": "_mul56", 
      "inputs": [[423, 0, 0], [414, 0, 0]]
    }, 
    {
      "op": "Activation", 
      "name": "encoder_birnn_forward_l0_t28_i", 
      "attrs": {"act_type": "sigmoid"}, 
      "inputs": [[421, 0, 0]]
    }, 
    {
      "op": "Activation", 
      "name": "encoder_birnn_forward_l0_t28_c", 
      "attrs": {"act_type": "tanh"}, 
      "inputs": [[421, 2, 0]]
    }, 
    {
      "op": "elemwise_mul", 
      "name": "_mul57", 
      "inputs": [[425, 0, 0], [426, 0, 0]]
    }, 
    {
      "op": "elemwise_add", 
      "name": "encoder_birnn_forward_l0_t28_state", 
      "inputs": [[424, 0, 0], [427, 0, 0]]
    }, 
    {
      "op": "Activation", 
      "name": "activation28", 
      "attrs": {"act_type": "tanh"}, 
      "inputs": [[428, 0, 0]]
    }, 
    {
      "op": "elemwise_mul", 
      "name": "encoder_birnn_forward_l0_t28_out", 
      "inputs": [[422, 0, 0], [429, 0, 0]]
    }, 
    {
      "op": "expand_dims", 
      "name": "expand_dims28", 
      "attrs": {"axis": "0"}, 
      "inputs": [[430, 0, 0]]
    }, 
    {
      "op": "FullyConnected", 
      "name": "encoder_birnn_forward_l0_t29_i2h", 
      "attrs": {"num_hidden": "512"}, 
      "inputs": [[19, 29, 0], [20, 0, 0], [21, 0, 0]]
    }, 
    {
      "op": "FullyConnected", 
      "name": "encoder_birnn_forward_l0_t29_h2h", 
      "attrs": {"num_hidden": "512"}, 
      "inputs": [[430, 0, 0], [24, 0, 0], [25, 0, 0]]
    }, 
    {
      "op": "elemwise_add", 
      "name": "_plus29", 
      "inputs": [[432, 0, 0], [433, 0, 0]]
    }, 
    {
      "op": "SliceChannel", 
      "name": "encoder_birnn_forward_l0_t29_slice", 
      "attrs": {"num_outputs": "4"}, 
      "inputs": [[434, 0, 0]]
    }, 
    {
      "op": "Activation", 
      "name": "encoder_birnn_forward_l0_t29_o", 
      "attrs": {"act_type": "sigmoid"}, 
      "inputs": [[435, 3, 0]]
    }, 
    {
      "op": "Activation", 
      "name": "encoder_birnn_forward_l0_t29_f", 
      "attrs": {"act_type": "sigmoid"}, 
      "inputs": [[435, 1, 0]]
    }, 
    {
      "op": "elemwise_mul", 
      "name": "_mul58", 
      "inputs": [[437, 0, 0], [428, 0, 0]]
    }, 
    {
      "op": "Activation", 
      "name": "encoder_birnn_forward_l0_t29_i", 
      "attrs": {"act_type": "sigmoid"}, 
      "inputs": [[435, 0, 0]]
    }, 
    {
      "op": "Activation", 
      "name": "encoder_birnn_forward_l0_t29_c", 
      "attrs": {"act_type": "tanh"}, 
      "inputs": [[435, 2, 0]]
    }, 
    {
      "op": "elemwise_mul", 
      "name": "_mul59", 
      "inputs": [[439, 0, 0], [440, 0, 0]]
    }, 
    {
      "op": "elemwise_add", 
      "name": "encoder_birnn_forward_l0_t29_state", 
      "inputs": [[438, 0, 0], [441, 0, 0]]
    }, 
    {
      "op": "Activation", 
      "name": "activation29", 
      "attrs": {"act_type": "tanh"}, 
      "inputs": [[442, 0, 0]]
    }, 
    {
      "op": "elemwise_mul", 
      "name": "encoder_birnn_forward_l0_t29_out", 
      "inputs": [[436, 0, 0], [443, 0, 0]]
    }, 
    {
      "op": "expand_dims", 
      "name": "expand_dims29", 
      "attrs": {"axis": "0"}, 
      "inputs": [[444, 0, 0]]
    }, 
    {
      "op": "FullyConnected", 
      "name": "encoder_birnn_forward_l0_t30_i2h", 
      "attrs": {"num_hidden": "512"}, 
      "inputs": [[19, 30, 0], [20, 0, 0], [21, 0, 0]]
    }, 
    {
      "op": "FullyConnected", 
      "name": "encoder_birnn_forward_l0_t30_h2h", 
      "attrs": {"num_hidden": "512"}, 
      "inputs": [[444, 0, 0], [24, 0, 0], [25, 0, 0]]
    }, 
    {
      "op": "elemwise_add", 
      "name": "_plus30", 
      "inputs": [[446, 0, 0], [447, 0, 0]]
    }, 
    {
      "op": "SliceChannel", 
      "name": "encoder_birnn_forward_l0_t30_slice", 
      "attrs": {"num_outputs": "4"}, 
      "inputs": [[448, 0, 0]]
    }, 
    {
      "op": "Activation", 
      "name": "encoder_birnn_forward_l0_t30_o", 
      "attrs": {"act_type": "sigmoid"}, 
      "inputs": [[449, 3, 0]]
    }, 
    {
      "op": "Activation", 
      "name": "encoder_birnn_forward_l0_t30_f", 
      "attrs": {"act_type": "sigmoid"}, 
      "inputs": [[449, 1, 0]]
    }, 
    {
      "op": "elemwise_mul", 
      "name": "_mul60", 
      "inputs": [[451, 0, 0], [442, 0, 0]]
    }, 
    {
      "op": "Activation", 
      "name": "encoder_birnn_forward_l0_t30_i", 
      "attrs": {"act_type": "sigmoid"}, 
      "inputs": [[449, 0, 0]]
    }, 
    {
      "op": "Activation", 
      "name": "encoder_birnn_forward_l0_t30_c", 
      "attrs": {"act_type": "tanh"}, 
      "inputs": [[449, 2, 0]]
    }, 
    {
      "op": "elemwise_mul", 
      "name": "_mul61", 
      "inputs": [[453, 0, 0], [454, 0, 0]]
    }, 
    {
      "op": "elemwise_add", 
      "name": "encoder_birnn_forward_l0_t30_state", 
      "inputs": [[452, 0, 0], [455, 0, 0]]
    }, 
    {
      "op": "Activation", 
      "name": "activation30", 
      "attrs": {"act_type": "tanh"}, 
      "inputs": [[456, 0, 0]]
    }, 
    {
      "op": "elemwise_mul", 
      "name": "encoder_birnn_forward_l0_t30_out", 
      "inputs": [[450, 0, 0], [457, 0, 0]]
    }, 
    {
      "op": "expand_dims", 
      "name": "expand_dims30", 
      "attrs": {"axis": "0"}, 
      "inputs": [[458, 0, 0]]
    }, 
    {
      "op": "FullyConnected", 
      "name": "encoder_birnn_forward_l0_t31_i2h", 
      "attrs": {"num_hidden": "512"}, 
      "inputs": [[19, 31, 0], [20, 0, 0], [21, 0, 0]]
    }, 
    {
      "op": "FullyConnected", 
      "name": "encoder_birnn_forward_l0_t31_h2h", 
      "attrs": {"num_hidden": "512"}, 
      "inputs": [[458, 0, 0], [24, 0, 0], [25, 0, 0]]
    }, 
    {
      "op": "elemwise_add", 
      "name": "_plus31", 
      "inputs": [[460, 0, 0], [461, 0, 0]]
    }, 
    {
      "op": "SliceChannel", 
      "name": "encoder_birnn_forward_l0_t31_slice", 
      "attrs": {"num_outputs": "4"}, 
      "inputs": [[462, 0, 0]]
    }, 
    {
      "op": "Activation", 
      "name": "encoder_birnn_forward_l0_t31_o", 
      "attrs": {"act_type": "sigmoid"}, 
      "inputs": [[463, 3, 0]]
    }, 
    {
      "op": "Activation", 
      "name": "encoder_birnn_forward_l0_t31_f", 
      "attrs": {"act_type": "sigmoid"}, 
      "inputs": [[463, 1, 0]]
    }, 
    {
      "op": "elemwise_mul", 
      "name": "_mul62", 
      "inputs": [[465, 0, 0], [456, 0, 0]]
    }, 
    {
      "op": "Activation", 
      "name": "encoder_birnn_forward_l0_t31_i", 
      "attrs": {"act_type": "sigmoid"}, 
      "inputs": [[463, 0, 0]]
    }, 
    {
      "op": "Activation", 
      "name": "encoder_birnn_forward_l0_t31_c", 
      "attrs": {"act_type": "tanh"}, 
      "inputs": [[463, 2, 0]]
    }, 
    {
      "op": "elemwise_mul", 
      "name": "_mul63", 
      "inputs": [[467, 0, 0], [468, 0, 0]]
    }, 
    {
      "op": "elemwise_add", 
      "name": "encoder_birnn_forward_l0_t31_state", 
      "inputs": [[466, 0, 0], [469, 0, 0]]
    }, 
    {
      "op": "Activation", 
      "name": "activation31", 
      "attrs": {"act_type": "tanh"}, 
      "inputs": [[470, 0, 0]]
    }, 
    {
      "op": "elemwise_mul", 
      "name": "encoder_birnn_forward_l0_t31_out", 
      "inputs": [[464, 0, 0], [471, 0, 0]]
    }, 
    {
      "op": "expand_dims", 
      "name": "expand_dims31", 
      "attrs": {"axis": "0"}, 
      "inputs": [[472, 0, 0]]
    }, 
    {
      "op": "FullyConnected", 
      "name": "encoder_birnn_forward_l0_t32_i2h", 
      "attrs": {"num_hidden": "512"}, 
      "inputs": [[19, 32, 0], [20, 0, 0], [21, 0, 0]]
    }, 
    {
      "op": "FullyConnected", 
      "name": "encoder_birnn_forward_l0_t32_h2h", 
      "attrs": {"num_hidden": "512"}, 
      "inputs": [[472, 0, 0], [24, 0, 0], [25, 0, 0]]
    }, 
    {
      "op": "elemwise_add", 
      "name": "_plus32", 
      "inputs": [[474, 0, 0], [475, 0, 0]]
    }, 
    {
      "op": "SliceChannel", 
      "name": "encoder_birnn_forward_l0_t32_slice", 
      "attrs": {"num_outputs": "4"}, 
      "inputs": [[476, 0, 0]]
    }, 
    {
      "op": "Activation", 
      "name": "encoder_birnn_forward_l0_t32_o", 
      "attrs": {"act_type": "sigmoid"}, 
      "inputs": [[477, 3, 0]]
    }, 
    {
      "op": "Activation", 
      "name": "encoder_birnn_forward_l0_t32_f", 
      "attrs": {"act_type": "sigmoid"}, 
      "inputs": [[477, 1, 0]]
    }, 
    {
      "op": "elemwise_mul", 
      "name": "_mul64", 
      "inputs": [[479, 0, 0], [470, 0, 0]]
    }, 
    {
      "op": "Activation", 
      "name": "encoder_birnn_forward_l0_t32_i", 
      "attrs": {"act_type": "sigmoid"}, 
      "inputs": [[477, 0, 0]]
    }, 
    {
      "op": "Activation", 
      "name": "encoder_birnn_forward_l0_t32_c", 
      "attrs": {"act_type": "tanh"}, 
      "inputs": [[477, 2, 0]]
    }, 
    {
      "op": "elemwise_mul", 
      "name": "_mul65", 
      "inputs": [[481, 0, 0], [482, 0, 0]]
    }, 
    {
      "op": "elemwise_add", 
      "name": "encoder_birnn_forward_l0_t32_state", 
      "inputs": [[480, 0, 0], [483, 0, 0]]
    }, 
    {
      "op": "Activation", 
      "name": "activation32", 
      "attrs": {"act_type": "tanh"}, 
      "inputs": [[484, 0, 0]]
    }, 
    {
      "op": "elemwise_mul", 
      "name": "encoder_birnn_forward_l0_t32_out", 
      "inputs": [[478, 0, 0], [485, 0, 0]]
    }, 
    {
      "op": "expand_dims", 
      "name": "expand_dims32", 
      "attrs": {"axis": "0"}, 
      "inputs": [[486, 0, 0]]
    }, 
    {
      "op": "FullyConnected", 
      "name": "encoder_birnn_forward_l0_t33_i2h", 
      "attrs": {"num_hidden": "512"}, 
      "inputs": [[19, 33, 0], [20, 0, 0], [21, 0, 0]]
    }, 
    {
      "op": "FullyConnected", 
      "name": "encoder_birnn_forward_l0_t33_h2h", 
      "attrs": {"num_hidden": "512"}, 
      "inputs": [[486, 0, 0], [24, 0, 0], [25, 0, 0]]
    }, 
    {
      "op": "elemwise_add", 
      "name": "_plus33", 
      "inputs": [[488, 0, 0], [489, 0, 0]]
    }, 
    {
      "op": "SliceChannel", 
      "name": "encoder_birnn_forward_l0_t33_slice", 
      "attrs": {"num_outputs": "4"}, 
      "inputs": [[490, 0, 0]]
    }, 
    {
      "op": "Activation", 
      "name": "encoder_birnn_forward_l0_t33_o", 
      "attrs": {"act_type": "sigmoid"}, 
      "inputs": [[491, 3, 0]]
    }, 
    {
      "op": "Activation", 
      "name": "encoder_birnn_forward_l0_t33_f", 
      "attrs": {"act_type": "sigmoid"}, 
      "inputs": [[491, 1, 0]]
    }, 
    {
      "op": "elemwise_mul", 
      "name": "_mul66", 
      "inputs": [[493, 0, 0], [484, 0, 0]]
    }, 
    {
      "op": "Activation", 
      "name": "encoder_birnn_forward_l0_t33_i", 
      "attrs": {"act_type": "sigmoid"}, 
      "inputs": [[491, 0, 0]]
    }, 
    {
      "op": "Activation", 
      "name": "encoder_birnn_forward_l0_t33_c", 
      "attrs": {"act_type": "tanh"}, 
      "inputs": [[491, 2, 0]]
    }, 
    {
      "op": "elemwise_mul", 
      "name": "_mul67", 
      "inputs": [[495, 0, 0], [496, 0, 0]]
    }, 
    {
      "op": "elemwise_add", 
      "name": "encoder_birnn_forward_l0_t33_state", 
      "inputs": [[494, 0, 0], [497, 0, 0]]
    }, 
    {
      "op": "Activation", 
      "name": "activation33", 
      "attrs": {"act_type": "tanh"}, 
      "inputs": [[498, 0, 0]]
    }, 
    {
      "op": "elemwise_mul", 
      "name": "encoder_birnn_forward_l0_t33_out", 
      "inputs": [[492, 0, 0], [499, 0, 0]]
    }, 
    {
      "op": "expand_dims", 
      "name": "expand_dims33", 
      "attrs": {"axis": "0"}, 
      "inputs": [[500, 0, 0]]
    }, 
    {
      "op": "FullyConnected", 
      "name": "encoder_birnn_forward_l0_t34_i2h", 
      "attrs": {"num_hidden": "512"}, 
      "inputs": [[19, 34, 0], [20, 0, 0], [21, 0, 0]]
    }, 
    {
      "op": "FullyConnected", 
      "name": "encoder_birnn_forward_l0_t34_h2h", 
      "attrs": {"num_hidden": "512"}, 
      "inputs": [[500, 0, 0], [24, 0, 0], [25, 0, 0]]
    }, 
    {
      "op": "elemwise_add", 
      "name": "_plus34", 
      "inputs": [[502, 0, 0], [503, 0, 0]]
    }, 
    {
      "op": "SliceChannel", 
      "name": "encoder_birnn_forward_l0_t34_slice", 
      "attrs": {"num_outputs": "4"}, 
      "inputs": [[504, 0, 0]]
    }, 
    {
      "op": "Activation", 
      "name": "encoder_birnn_forward_l0_t34_o", 
      "attrs": {"act_type": "sigmoid"}, 
      "inputs": [[505, 3, 0]]
    }, 
    {
      "op": "Activation", 
      "name": "encoder_birnn_forward_l0_t34_f", 
      "attrs": {"act_type": "sigmoid"}, 
      "inputs": [[505, 1, 0]]
    }, 
    {
      "op": "elemwise_mul", 
      "name": "_mul68", 
      "inputs": [[507, 0, 0], [498, 0, 0]]
    }, 
    {
      "op": "Activation", 
      "name": "encoder_birnn_forward_l0_t34_i", 
      "attrs": {"act_type": "sigmoid"}, 
      "inputs": [[505, 0, 0]]
    }, 
    {
      "op": "Activation", 
      "name": "encoder_birnn_forward_l0_t34_c", 
      "attrs": {"act_type": "tanh"}, 
      "inputs": [[505, 2, 0]]
    }, 
    {
      "op": "elemwise_mul", 
      "name": "_mul69", 
      "inputs": [[509, 0, 0], [510, 0, 0]]
    }, 
    {
      "op": "elemwise_add", 
      "name": "encoder_birnn_forward_l0_t34_state", 
      "inputs": [[508, 0, 0], [511, 0, 0]]
    }, 
    {
      "op": "Activation", 
      "name": "activation34", 
      "attrs": {"act_type": "tanh"}, 
      "inputs": [[512, 0, 0]]
    }, 
    {
      "op": "elemwise_mul", 
      "name": "encoder_birnn_forward_l0_t34_out", 
      "inputs": [[506, 0, 0], [513, 0, 0]]
    }, 
    {
      "op": "expand_dims", 
      "name": "expand_dims34", 
      "attrs": {"axis": "0"}, 
      "inputs": [[514, 0, 0]]
    }, 
    {
      "op": "FullyConnected", 
      "name": "encoder_birnn_forward_l0_t35_i2h", 
      "attrs": {"num_hidden": "512"}, 
      "inputs": [[19, 35, 0], [20, 0, 0], [21, 0, 0]]
    }, 
    {
      "op": "FullyConnected", 
      "name": "encoder_birnn_forward_l0_t35_h2h", 
      "attrs": {"num_hidden": "512"}, 
      "inputs": [[514, 0, 0], [24, 0, 0], [25, 0, 0]]
    }, 
    {
      "op": "elemwise_add", 
      "name": "_plus35", 
      "inputs": [[516, 0, 0], [517, 0, 0]]
    }, 
    {
      "op": "SliceChannel", 
      "name": "encoder_birnn_forward_l0_t35_slice", 
      "attrs": {"num_outputs": "4"}, 
      "inputs": [[518, 0, 0]]
    }, 
    {
      "op": "Activation", 
      "name": "encoder_birnn_forward_l0_t35_o", 
      "attrs": {"act_type": "sigmoid"}, 
      "inputs": [[519, 3, 0]]
    }, 
    {
      "op": "Activation", 
      "name": "encoder_birnn_forward_l0_t35_f", 
      "attrs": {"act_type": "sigmoid"}, 
      "inputs": [[519, 1, 0]]
    }, 
    {
      "op": "elemwise_mul", 
      "name": "_mul70", 
      "inputs": [[521, 0, 0], [512, 0, 0]]
    }, 
    {
      "op": "Activation", 
      "name": "encoder_birnn_forward_l0_t35_i", 
      "attrs": {"act_type": "sigmoid"}, 
      "inputs": [[519, 0, 0]]
    }, 
    {
      "op": "Activation", 
      "name": "encoder_birnn_forward_l0_t35_c", 
      "attrs": {"act_type": "tanh"}, 
      "inputs": [[519, 2, 0]]
    }, 
    {
      "op": "elemwise_mul", 
      "name": "_mul71", 
      "inputs": [[523, 0, 0], [524, 0, 0]]
    }, 
    {
      "op": "elemwise_add", 
      "name": "encoder_birnn_forward_l0_t35_state", 
      "inputs": [[522, 0, 0], [525, 0, 0]]
    }, 
    {
      "op": "Activation", 
      "name": "activation35", 
      "attrs": {"act_type": "tanh"}, 
      "inputs": [[526, 0, 0]]
    }, 
    {
      "op": "elemwise_mul", 
      "name": "encoder_birnn_forward_l0_t35_out", 
      "inputs": [[520, 0, 0], [527, 0, 0]]
    }, 
    {
      "op": "expand_dims", 
      "name": "expand_dims35", 
      "attrs": {"axis": "0"}, 
      "inputs": [[528, 0, 0]]
    }, 
    {
      "op": "FullyConnected", 
      "name": "encoder_birnn_forward_l0_t36_i2h", 
      "attrs": {"num_hidden": "512"}, 
      "inputs": [[19, 36, 0], [20, 0, 0], [21, 0, 0]]
    }, 
    {
      "op": "FullyConnected", 
      "name": "encoder_birnn_forward_l0_t36_h2h", 
      "attrs": {"num_hidden": "512"}, 
      "inputs": [[528, 0, 0], [24, 0, 0], [25, 0, 0]]
    }, 
    {
      "op": "elemwise_add", 
      "name": "_plus36", 
      "inputs": [[530, 0, 0], [531, 0, 0]]
    }, 
    {
      "op": "SliceChannel", 
      "name": "encoder_birnn_forward_l0_t36_slice", 
      "attrs": {"num_outputs": "4"}, 
      "inputs": [[532, 0, 0]]
    }, 
    {
      "op": "Activation", 
      "name": "encoder_birnn_forward_l0_t36_o", 
      "attrs": {"act_type": "sigmoid"}, 
      "inputs": [[533, 3, 0]]
    }, 
    {
      "op": "Activation", 
      "name": "encoder_birnn_forward_l0_t36_f", 
      "attrs": {"act_type": "sigmoid"}, 
      "inputs": [[533, 1, 0]]
    }, 
    {
      "op": "elemwise_mul", 
      "name": "_mul72", 
      "inputs": [[535, 0, 0], [526, 0, 0]]
    }, 
    {
      "op": "Activation", 
      "name": "encoder_birnn_forward_l0_t36_i", 
      "attrs": {"act_type": "sigmoid"}, 
      "inputs": [[533, 0, 0]]
    }, 
    {
      "op": "Activation", 
      "name": "encoder_birnn_forward_l0_t36_c", 
      "attrs": {"act_type": "tanh"}, 
      "inputs": [[533, 2, 0]]
    }, 
    {
      "op": "elemwise_mul", 
      "name": "_mul73", 
      "inputs": [[537, 0, 0], [538, 0, 0]]
    }, 
    {
      "op": "elemwise_add", 
      "name": "encoder_birnn_forward_l0_t36_state", 
      "inputs": [[536, 0, 0], [539, 0, 0]]
    }, 
    {
      "op": "Activation", 
      "name": "activation36", 
      "attrs": {"act_type": "tanh"}, 
      "inputs": [[540, 0, 0]]
    }, 
    {
      "op": "elemwise_mul", 
      "name": "encoder_birnn_forward_l0_t36_out", 
      "inputs": [[534, 0, 0], [541, 0, 0]]
    }, 
    {
      "op": "expand_dims", 
      "name": "expand_dims36", 
      "attrs": {"axis": "0"}, 
      "inputs": [[542, 0, 0]]
    }, 
    {
      "op": "FullyConnected", 
      "name": "encoder_birnn_forward_l0_t37_i2h", 
      "attrs": {"num_hidden": "512"}, 
      "inputs": [[19, 37, 0], [20, 0, 0], [21, 0, 0]]
    }, 
    {
      "op": "FullyConnected", 
      "name": "encoder_birnn_forward_l0_t37_h2h", 
      "attrs": {"num_hidden": "512"}, 
      "inputs": [[542, 0, 0], [24, 0, 0], [25, 0, 0]]
    }, 
    {
      "op": "elemwise_add", 
      "name": "_plus37", 
      "inputs": [[544, 0, 0], [545, 0, 0]]
    }, 
    {
      "op": "SliceChannel", 
      "name": "encoder_birnn_forward_l0_t37_slice", 
      "attrs": {"num_outputs": "4"}, 
      "inputs": [[546, 0, 0]]
    }, 
    {
      "op": "Activation", 
      "name": "encoder_birnn_forward_l0_t37_o", 
      "attrs": {"act_type": "sigmoid"}, 
      "inputs": [[547, 3, 0]]
    }, 
    {
      "op": "Activation", 
      "name": "encoder_birnn_forward_l0_t37_f", 
      "attrs": {"act_type": "sigmoid"}, 
      "inputs": [[547, 1, 0]]
    }, 
    {
      "op": "elemwise_mul", 
      "name": "_mul74", 
      "inputs": [[549, 0, 0], [540, 0, 0]]
    }, 
    {
      "op": "Activation", 
      "name": "encoder_birnn_forward_l0_t37_i", 
      "attrs": {"act_type": "sigmoid"}, 
      "inputs": [[547, 0, 0]]
    }, 
    {
      "op": "Activation", 
      "name": "encoder_birnn_forward_l0_t37_c", 
      "attrs": {"act_type": "tanh"}, 
      "inputs": [[547, 2, 0]]
    }, 
    {
      "op": "elemwise_mul", 
      "name": "_mul75", 
      "inputs": [[551, 0, 0], [552, 0, 0]]
    }, 
    {
      "op": "elemwise_add", 
      "name": "encoder_birnn_forward_l0_t37_state", 
      "inputs": [[550, 0, 0], [553, 0, 0]]
    }, 
    {
      "op": "Activation", 
      "name": "activation37", 
      "attrs": {"act_type": "tanh"}, 
      "inputs": [[554, 0, 0]]
    }, 
    {
      "op": "elemwise_mul", 
      "name": "encoder_birnn_forward_l0_t37_out", 
      "inputs": [[548, 0, 0], [555, 0, 0]]
    }, 
    {
      "op": "expand_dims", 
      "name": "expand_dims37", 
      "attrs": {"axis": "0"}, 
      "inputs": [[556, 0, 0]]
    }, 
    {
      "op": "FullyConnected", 
      "name": "encoder_birnn_forward_l0_t38_i2h", 
      "attrs": {"num_hidden": "512"}, 
      "inputs": [[19, 38, 0], [20, 0, 0], [21, 0, 0]]
    }, 
    {
      "op": "FullyConnected", 
      "name": "encoder_birnn_forward_l0_t38_h2h", 
      "attrs": {"num_hidden": "512"}, 
      "inputs": [[556, 0, 0], [24, 0, 0], [25, 0, 0]]
    }, 
    {
      "op": "elemwise_add", 
      "name": "_plus38", 
      "inputs": [[558, 0, 0], [559, 0, 0]]
    }, 
    {
      "op": "SliceChannel", 
      "name": "encoder_birnn_forward_l0_t38_slice", 
      "attrs": {"num_outputs": "4"}, 
      "inputs": [[560, 0, 0]]
    }, 
    {
      "op": "Activation", 
      "name": "encoder_birnn_forward_l0_t38_o", 
      "attrs": {"act_type": "sigmoid"}, 
      "inputs": [[561, 3, 0]]
    }, 
    {
      "op": "Activation", 
      "name": "encoder_birnn_forward_l0_t38_f", 
      "attrs": {"act_type": "sigmoid"}, 
      "inputs": [[561, 1, 0]]
    }, 
    {
      "op": "elemwise_mul", 
      "name": "_mul76", 
      "inputs": [[563, 0, 0], [554, 0, 0]]
    }, 
    {
      "op": "Activation", 
      "name": "encoder_birnn_forward_l0_t38_i", 
      "attrs": {"act_type": "sigmoid"}, 
      "inputs": [[561, 0, 0]]
    }, 
    {
      "op": "Activation", 
      "name": "encoder_birnn_forward_l0_t38_c", 
      "attrs": {"act_type": "tanh"}, 
      "inputs": [[561, 2, 0]]
    }, 
    {
      "op": "elemwise_mul", 
      "name": "_mul77", 
      "inputs": [[565, 0, 0], [566, 0, 0]]
    }, 
    {
      "op": "elemwise_add", 
      "name": "encoder_birnn_forward_l0_t38_state", 
      "inputs": [[564, 0, 0], [567, 0, 0]]
    }, 
    {
      "op": "Activation", 
      "name": "activation38", 
      "attrs": {"act_type": "tanh"}, 
      "inputs": [[568, 0, 0]]
    }, 
    {
      "op": "elemwise_mul", 
      "name": "encoder_birnn_forward_l0_t38_out", 
      "inputs": [[562, 0, 0], [569, 0, 0]]
    }, 
    {
      "op": "expand_dims", 
      "name": "expand_dims38", 
      "attrs": {"axis": "0"}, 
      "inputs": [[570, 0, 0]]
    }, 
    {
      "op": "FullyConnected", 
      "name": "encoder_birnn_forward_l0_t39_i2h", 
      "attrs": {"num_hidden": "512"}, 
      "inputs": [[19, 39, 0], [20, 0, 0], [21, 0, 0]]
    }, 
    {
      "op": "FullyConnected", 
      "name": "encoder_birnn_forward_l0_t39_h2h", 
      "attrs": {"num_hidden": "512"}, 
      "inputs": [[570, 0, 0], [24, 0, 0], [25, 0, 0]]
    }, 
    {
      "op": "elemwise_add", 
      "name": "_plus39", 
      "inputs": [[572, 0, 0], [573, 0, 0]]
    }, 
    {
      "op": "SliceChannel", 
      "name": "encoder_birnn_forward_l0_t39_slice", 
      "attrs": {"num_outputs": "4"}, 
      "inputs": [[574, 0, 0]]
    }, 
    {
      "op": "Activation", 
      "name": "encoder_birnn_forward_l0_t39_o", 
      "attrs": {"act_type": "sigmoid"}, 
      "inputs": [[575, 3, 0]]
    }, 
    {
      "op": "Activation", 
      "name": "encoder_birnn_forward_l0_t39_f", 
      "attrs": {"act_type": "sigmoid"}, 
      "inputs": [[575, 1, 0]]
    }, 
    {
      "op": "elemwise_mul", 
      "name": "_mul78", 
      "inputs": [[577, 0, 0], [568, 0, 0]]
    }, 
    {
      "op": "Activation", 
      "name": "encoder_birnn_forward_l0_t39_i", 
      "attrs": {"act_type": "sigmoid"}, 
      "inputs": [[575, 0, 0]]
    }, 
    {
      "op": "Activation", 
      "name": "encoder_birnn_forward_l0_t39_c", 
      "attrs": {"act_type": "tanh"}, 
      "inputs": [[575, 2, 0]]
    }, 
    {
      "op": "elemwise_mul", 
      "name": "_mul79", 
      "inputs": [[579, 0, 0], [580, 0, 0]]
    }, 
    {
      "op": "elemwise_add", 
      "name": "encoder_birnn_forward_l0_t39_state", 
      "inputs": [[578, 0, 0], [581, 0, 0]]
    }, 
    {
      "op": "Activation", 
      "name": "activation39", 
      "attrs": {"act_type": "tanh"}, 
      "inputs": [[582, 0, 0]]
    }, 
    {
      "op": "elemwise_mul", 
      "name": "encoder_birnn_forward_l0_t39_out", 
      "inputs": [[576, 0, 0], [583, 0, 0]]
    }, 
    {
      "op": "expand_dims", 
      "name": "expand_dims39", 
      "attrs": {"axis": "0"}, 
      "inputs": [[584, 0, 0]]
    }, 
    {
      "op": "FullyConnected", 
      "name": "encoder_birnn_forward_l0_t40_i2h", 
      "attrs": {"num_hidden": "512"}, 
      "inputs": [[19, 40, 0], [20, 0, 0], [21, 0, 0]]
    }, 
    {
      "op": "FullyConnected", 
      "name": "encoder_birnn_forward_l0_t40_h2h", 
      "attrs": {"num_hidden": "512"}, 
      "inputs": [[584, 0, 0], [24, 0, 0], [25, 0, 0]]
    }, 
    {
      "op": "elemwise_add", 
      "name": "_plus40", 
      "inputs": [[586, 0, 0], [587, 0, 0]]
    }, 
    {
      "op": "SliceChannel", 
      "name": "encoder_birnn_forward_l0_t40_slice", 
      "attrs": {"num_outputs": "4"}, 
      "inputs": [[588, 0, 0]]
    }, 
    {
      "op": "Activation", 
      "name": "encoder_birnn_forward_l0_t40_o", 
      "attrs": {"act_type": "sigmoid"}, 
      "inputs": [[589, 3, 0]]
    }, 
    {
      "op": "Activation", 
      "name": "encoder_birnn_forward_l0_t40_f", 
      "attrs": {"act_type": "sigmoid"}, 
      "inputs": [[589, 1, 0]]
    }, 
    {
      "op": "elemwise_mul", 
      "name": "_mul80", 
      "inputs": [[591, 0, 0], [582, 0, 0]]
    }, 
    {
      "op": "Activation", 
      "name": "encoder_birnn_forward_l0_t40_i", 
      "attrs": {"act_type": "sigmoid"}, 
      "inputs": [[589, 0, 0]]
    }, 
    {
      "op": "Activation", 
      "name": "encoder_birnn_forward_l0_t40_c", 
      "attrs": {"act_type": "tanh"}, 
      "inputs": [[589, 2, 0]]
    }, 
    {
      "op": "elemwise_mul", 
      "name": "_mul81", 
      "inputs": [[593, 0, 0], [594, 0, 0]]
    }, 
    {
      "op": "elemwise_add", 
      "name": "encoder_birnn_forward_l0_t40_state", 
      "inputs": [[592, 0, 0], [595, 0, 0]]
    }, 
    {
      "op": "Activation", 
      "name": "activation40", 
      "attrs": {"act_type": "tanh"}, 
      "inputs": [[596, 0, 0]]
    }, 
    {
      "op": "elemwise_mul", 
      "name": "encoder_birnn_forward_l0_t40_out", 
      "inputs": [[590, 0, 0], [597, 0, 0]]
    }, 
    {
      "op": "expand_dims", 
      "name": "expand_dims40", 
      "attrs": {"axis": "0"}, 
      "inputs": [[598, 0, 0]]
    }, 
    {
      "op": "FullyConnected", 
      "name": "encoder_birnn_forward_l0_t41_i2h", 
      "attrs": {"num_hidden": "512"}, 
      "inputs": [[19, 41, 0], [20, 0, 0], [21, 0, 0]]
    }, 
    {
      "op": "FullyConnected", 
      "name": "encoder_birnn_forward_l0_t41_h2h", 
      "attrs": {"num_hidden": "512"}, 
      "inputs": [[598, 0, 0], [24, 0, 0], [25, 0, 0]]
    }, 
    {
      "op": "elemwise_add", 
      "name": "_plus41", 
      "inputs": [[600, 0, 0], [601, 0, 0]]
    }, 
    {
      "op": "SliceChannel", 
      "name": "encoder_birnn_forward_l0_t41_slice", 
      "attrs": {"num_outputs": "4"}, 
      "inputs": [[602, 0, 0]]
    }, 
    {
      "op": "Activation", 
      "name": "encoder_birnn_forward_l0_t41_o", 
      "attrs": {"act_type": "sigmoid"}, 
      "inputs": [[603, 3, 0]]
    }, 
    {
      "op": "Activation", 
      "name": "encoder_birnn_forward_l0_t41_f", 
      "attrs": {"act_type": "sigmoid"}, 
      "inputs": [[603, 1, 0]]
    }, 
    {
      "op": "elemwise_mul", 
      "name": "_mul82", 
      "inputs": [[605, 0, 0], [596, 0, 0]]
    }, 
    {
      "op": "Activation", 
      "name": "encoder_birnn_forward_l0_t41_i", 
      "attrs": {"act_type": "sigmoid"}, 
      "inputs": [[603, 0, 0]]
    }, 
    {
      "op": "Activation", 
      "name": "encoder_birnn_forward_l0_t41_c", 
      "attrs": {"act_type": "tanh"}, 
      "inputs": [[603, 2, 0]]
    }, 
    {
      "op": "elemwise_mul", 
      "name": "_mul83", 
      "inputs": [[607, 0, 0], [608, 0, 0]]
    }, 
    {
      "op": "elemwise_add", 
      "name": "encoder_birnn_forward_l0_t41_state", 
      "inputs": [[606, 0, 0], [609, 0, 0]]
    }, 
    {
      "op": "Activation", 
      "name": "activation41", 
      "attrs": {"act_type": "tanh"}, 
      "inputs": [[610, 0, 0]]
    }, 
    {
      "op": "elemwise_mul", 
      "name": "encoder_birnn_forward_l0_t41_out", 
      "inputs": [[604, 0, 0], [611, 0, 0]]
    }, 
    {
      "op": "expand_dims", 
      "name": "expand_dims41", 
      "attrs": {"axis": "0"}, 
      "inputs": [[612, 0, 0]]
    }, 
    {
      "op": "FullyConnected", 
      "name": "encoder_birnn_forward_l0_t42_i2h", 
      "attrs": {"num_hidden": "512"}, 
      "inputs": [[19, 42, 0], [20, 0, 0], [21, 0, 0]]
    }, 
    {
      "op": "FullyConnected", 
      "name": "encoder_birnn_forward_l0_t42_h2h", 
      "attrs": {"num_hidden": "512"}, 
      "inputs": [[612, 0, 0], [24, 0, 0], [25, 0, 0]]
    }, 
    {
      "op": "elemwise_add", 
      "name": "_plus42", 
      "inputs": [[614, 0, 0], [615, 0, 0]]
    }, 
    {
      "op": "SliceChannel", 
      "name": "encoder_birnn_forward_l0_t42_slice", 
      "attrs": {"num_outputs": "4"}, 
      "inputs": [[616, 0, 0]]
    }, 
    {
      "op": "Activation", 
      "name": "encoder_birnn_forward_l0_t42_o", 
      "attrs": {"act_type": "sigmoid"}, 
      "inputs": [[617, 3, 0]]
    }, 
    {
      "op": "Activation", 
      "name": "encoder_birnn_forward_l0_t42_f", 
      "attrs": {"act_type": "sigmoid"}, 
      "inputs": [[617, 1, 0]]
    }, 
    {
      "op": "elemwise_mul", 
      "name": "_mul84", 
      "inputs": [[619, 0, 0], [610, 0, 0]]
    }, 
    {
      "op": "Activation", 
      "name": "encoder_birnn_forward_l0_t42_i", 
      "attrs": {"act_type": "sigmoid"}, 
      "inputs": [[617, 0, 0]]
    }, 
    {
      "op": "Activation", 
      "name": "encoder_birnn_forward_l0_t42_c", 
      "attrs": {"act_type": "tanh"}, 
      "inputs": [[617, 2, 0]]
    }, 
    {
      "op": "elemwise_mul", 
      "name": "_mul85", 
      "inputs": [[621, 0, 0], [622, 0, 0]]
    }, 
    {
      "op": "elemwise_add", 
      "name": "encoder_birnn_forward_l0_t42_state", 
      "inputs": [[620, 0, 0], [623, 0, 0]]
    }, 
    {
      "op": "Activation", 
      "name": "activation42", 
      "attrs": {"act_type": "tanh"}, 
      "inputs": [[624, 0, 0]]
    }, 
    {
      "op": "elemwise_mul", 
      "name": "encoder_birnn_forward_l0_t42_out", 
      "inputs": [[618, 0, 0], [625, 0, 0]]
    }, 
    {
      "op": "expand_dims", 
      "name": "expand_dims42", 
      "attrs": {"axis": "0"}, 
      "inputs": [[626, 0, 0]]
    }, 
    {
      "op": "FullyConnected", 
      "name": "encoder_birnn_forward_l0_t43_i2h", 
      "attrs": {"num_hidden": "512"}, 
      "inputs": [[19, 43, 0], [20, 0, 0], [21, 0, 0]]
    }, 
    {
      "op": "FullyConnected", 
      "name": "encoder_birnn_forward_l0_t43_h2h", 
      "attrs": {"num_hidden": "512"}, 
      "inputs": [[626, 0, 0], [24, 0, 0], [25, 0, 0]]
    }, 
    {
      "op": "elemwise_add", 
      "name": "_plus43", 
      "inputs": [[628, 0, 0], [629, 0, 0]]
    }, 
    {
      "op": "SliceChannel", 
      "name": "encoder_birnn_forward_l0_t43_slice", 
      "attrs": {"num_outputs": "4"}, 
      "inputs": [[630, 0, 0]]
    }, 
    {
      "op": "Activation", 
      "name": "encoder_birnn_forward_l0_t43_o", 
      "attrs": {"act_type": "sigmoid"}, 
      "inputs": [[631, 3, 0]]
    }, 
    {
      "op": "Activation", 
      "name": "encoder_birnn_forward_l0_t43_f", 
      "attrs": {"act_type": "sigmoid"}, 
      "inputs": [[631, 1, 0]]
    }, 
    {
      "op": "elemwise_mul", 
      "name": "_mul86", 
      "inputs": [[633, 0, 0], [624, 0, 0]]
    }, 
    {
      "op": "Activation", 
      "name": "encoder_birnn_forward_l0_t43_i", 
      "attrs": {"act_type": "sigmoid"}, 
      "inputs": [[631, 0, 0]]
    }, 
    {
      "op": "Activation", 
      "name": "encoder_birnn_forward_l0_t43_c", 
      "attrs": {"act_type": "tanh"}, 
      "inputs": [[631, 2, 0]]
    }, 
    {
      "op": "elemwise_mul", 
      "name": "_mul87", 
      "inputs": [[635, 0, 0], [636, 0, 0]]
    }, 
    {
      "op": "elemwise_add", 
      "name": "encoder_birnn_forward_l0_t43_state", 
      "inputs": [[634, 0, 0], [637, 0, 0]]
    }, 
    {
      "op": "Activation", 
      "name": "activation43", 
      "attrs": {"act_type": "tanh"}, 
      "inputs": [[638, 0, 0]]
    }, 
    {
      "op": "elemwise_mul", 
      "name": "encoder_birnn_forward_l0_t43_out", 
      "inputs": [[632, 0, 0], [639, 0, 0]]
    }, 
    {
      "op": "expand_dims", 
      "name": "expand_dims43", 
      "attrs": {"axis": "0"}, 
      "inputs": [[640, 0, 0]]
    }, 
    {
      "op": "FullyConnected", 
      "name": "encoder_birnn_forward_l0_t44_i2h", 
      "attrs": {"num_hidden": "512"}, 
      "inputs": [[19, 44, 0], [20, 0, 0], [21, 0, 0]]
    }, 
    {
      "op": "FullyConnected", 
      "name": "encoder_birnn_forward_l0_t44_h2h", 
      "attrs": {"num_hidden": "512"}, 
      "inputs": [[640, 0, 0], [24, 0, 0], [25, 0, 0]]
    }, 
    {
      "op": "elemwise_add", 
      "name": "_plus44", 
      "inputs": [[642, 0, 0], [643, 0, 0]]
    }, 
    {
      "op": "SliceChannel", 
      "name": "encoder_birnn_forward_l0_t44_slice", 
      "attrs": {"num_outputs": "4"}, 
      "inputs": [[644, 0, 0]]
    }, 
    {
      "op": "Activation", 
      "name": "encoder_birnn_forward_l0_t44_o", 
      "attrs": {"act_type": "sigmoid"}, 
      "inputs": [[645, 3, 0]]
    }, 
    {
      "op": "Activation", 
      "name": "encoder_birnn_forward_l0_t44_f", 
      "attrs": {"act_type": "sigmoid"}, 
      "inputs": [[645, 1, 0]]
    }, 
    {
      "op": "elemwise_mul", 
      "name": "_mul88", 
      "inputs": [[647, 0, 0], [638, 0, 0]]
    }, 
    {
      "op": "Activation", 
      "name": "encoder_birnn_forward_l0_t44_i", 
      "attrs": {"act_type": "sigmoid"}, 
      "inputs": [[645, 0, 0]]
    }, 
    {
      "op": "Activation", 
      "name": "encoder_birnn_forward_l0_t44_c", 
      "attrs": {"act_type": "tanh"}, 
      "inputs": [[645, 2, 0]]
    }, 
    {
      "op": "elemwise_mul", 
      "name": "_mul89", 
      "inputs": [[649, 0, 0], [650, 0, 0]]
    }, 
    {
      "op": "elemwise_add", 
      "name": "encoder_birnn_forward_l0_t44_state", 
      "inputs": [[648, 0, 0], [651, 0, 0]]
    }, 
    {
      "op": "Activation", 
      "name": "activation44", 
      "attrs": {"act_type": "tanh"}, 
      "inputs": [[652, 0, 0]]
    }, 
    {
      "op": "elemwise_mul", 
      "name": "encoder_birnn_forward_l0_t44_out", 
      "inputs": [[646, 0, 0], [653, 0, 0]]
    }, 
    {
      "op": "expand_dims", 
      "name": "expand_dims44", 
      "attrs": {"axis": "0"}, 
      "inputs": [[654, 0, 0]]
    }, 
    {
      "op": "FullyConnected", 
      "name": "encoder_birnn_forward_l0_t45_i2h", 
      "attrs": {"num_hidden": "512"}, 
      "inputs": [[19, 45, 0], [20, 0, 0], [21, 0, 0]]
    }, 
    {
      "op": "FullyConnected", 
      "name": "encoder_birnn_forward_l0_t45_h2h", 
      "attrs": {"num_hidden": "512"}, 
      "inputs": [[654, 0, 0], [24, 0, 0], [25, 0, 0]]
    }, 
    {
      "op": "elemwise_add", 
      "name": "_plus45", 
      "inputs": [[656, 0, 0], [657, 0, 0]]
    }, 
    {
      "op": "SliceChannel", 
      "name": "encoder_birnn_forward_l0_t45_slice", 
      "attrs": {"num_outputs": "4"}, 
      "inputs": [[658, 0, 0]]
    }, 
    {
      "op": "Activation", 
      "name": "encoder_birnn_forward_l0_t45_o", 
      "attrs": {"act_type": "sigmoid"}, 
      "inputs": [[659, 3, 0]]
    }, 
    {
      "op": "Activation", 
      "name": "encoder_birnn_forward_l0_t45_f", 
      "attrs": {"act_type": "sigmoid"}, 
      "inputs": [[659, 1, 0]]
    }, 
    {
      "op": "elemwise_mul", 
      "name": "_mul90", 
      "inputs": [[661, 0, 0], [652, 0, 0]]
    }, 
    {
      "op": "Activation", 
      "name": "encoder_birnn_forward_l0_t45_i", 
      "attrs": {"act_type": "sigmoid"}, 
      "inputs": [[659, 0, 0]]
    }, 
    {
      "op": "Activation", 
      "name": "encoder_birnn_forward_l0_t45_c", 
      "attrs": {"act_type": "tanh"}, 
      "inputs": [[659, 2, 0]]
    }, 
    {
      "op": "elemwise_mul", 
      "name": "_mul91", 
      "inputs": [[663, 0, 0], [664, 0, 0]]
    }, 
    {
      "op": "elemwise_add", 
      "name": "encoder_birnn_forward_l0_t45_state", 
      "inputs": [[662, 0, 0], [665, 0, 0]]
    }, 
    {
      "op": "Activation", 
      "name": "activation45", 
      "attrs": {"act_type": "tanh"}, 
      "inputs": [[666, 0, 0]]
    }, 
    {
      "op": "elemwise_mul", 
      "name": "encoder_birnn_forward_l0_t45_out", 
      "inputs": [[660, 0, 0], [667, 0, 0]]
    }, 
    {
      "op": "expand_dims", 
      "name": "expand_dims45", 
      "attrs": {"axis": "0"}, 
      "inputs": [[668, 0, 0]]
    }, 
    {
      "op": "FullyConnected", 
      "name": "encoder_birnn_forward_l0_t46_i2h", 
      "attrs": {"num_hidden": "512"}, 
      "inputs": [[19, 46, 0], [20, 0, 0], [21, 0, 0]]
    }, 
    {
      "op": "FullyConnected", 
      "name": "encoder_birnn_forward_l0_t46_h2h", 
      "attrs": {"num_hidden": "512"}, 
      "inputs": [[668, 0, 0], [24, 0, 0], [25, 0, 0]]
    }, 
    {
      "op": "elemwise_add", 
      "name": "_plus46", 
      "inputs": [[670, 0, 0], [671, 0, 0]]
    }, 
    {
      "op": "SliceChannel", 
      "name": "encoder_birnn_forward_l0_t46_slice", 
      "attrs": {"num_outputs": "4"}, 
      "inputs": [[672, 0, 0]]
    }, 
    {
      "op": "Activation", 
      "name": "encoder_birnn_forward_l0_t46_o", 
      "attrs": {"act_type": "sigmoid"}, 
      "inputs": [[673, 3, 0]]
    }, 
    {
      "op": "Activation", 
      "name": "encoder_birnn_forward_l0_t46_f", 
      "attrs": {"act_type": "sigmoid"}, 
      "inputs": [[673, 1, 0]]
    }, 
    {
      "op": "elemwise_mul", 
      "name": "_mul92", 
      "inputs": [[675, 0, 0], [666, 0, 0]]
    }, 
    {
      "op": "Activation", 
      "name": "encoder_birnn_forward_l0_t46_i", 
      "attrs": {"act_type": "sigmoid"}, 
      "inputs": [[673, 0, 0]]
    }, 
    {
      "op": "Activation", 
      "name": "encoder_birnn_forward_l0_t46_c", 
      "attrs": {"act_type": "tanh"}, 
      "inputs": [[673, 2, 0]]
    }, 
    {
      "op": "elemwise_mul", 
      "name": "_mul93", 
      "inputs": [[677, 0, 0], [678, 0, 0]]
    }, 
    {
      "op": "elemwise_add", 
      "name": "encoder_birnn_forward_l0_t46_state", 
      "inputs": [[676, 0, 0], [679, 0, 0]]
    }, 
    {
      "op": "Activation", 
      "name": "activation46", 
      "attrs": {"act_type": "tanh"}, 
      "inputs": [[680, 0, 0]]
    }, 
    {
      "op": "elemwise_mul", 
      "name": "encoder_birnn_forward_l0_t46_out", 
      "inputs": [[674, 0, 0], [681, 0, 0]]
    }, 
    {
      "op": "expand_dims", 
      "name": "expand_dims46", 
      "attrs": {"axis": "0"}, 
      "inputs": [[682, 0, 0]]
    }, 
    {
      "op": "FullyConnected", 
      "name": "encoder_birnn_forward_l0_t47_i2h", 
      "attrs": {"num_hidden": "512"}, 
      "inputs": [[19, 47, 0], [20, 0, 0], [21, 0, 0]]
    }, 
    {
      "op": "FullyConnected", 
      "name": "encoder_birnn_forward_l0_t47_h2h", 
      "attrs": {"num_hidden": "512"}, 
      "inputs": [[682, 0, 0], [24, 0, 0], [25, 0, 0]]
    }, 
    {
      "op": "elemwise_add", 
      "name": "_plus47", 
      "inputs": [[684, 0, 0], [685, 0, 0]]
    }, 
    {
      "op": "SliceChannel", 
      "name": "encoder_birnn_forward_l0_t47_slice", 
      "attrs": {"num_outputs": "4"}, 
      "inputs": [[686, 0, 0]]
    }, 
    {
      "op": "Activation", 
      "name": "encoder_birnn_forward_l0_t47_o", 
      "attrs": {"act_type": "sigmoid"}, 
      "inputs": [[687, 3, 0]]
    }, 
    {
      "op": "Activation", 
      "name": "encoder_birnn_forward_l0_t47_f", 
      "attrs": {"act_type": "sigmoid"}, 
      "inputs": [[687, 1, 0]]
    }, 
    {
      "op": "elemwise_mul", 
      "name": "_mul94", 
      "inputs": [[689, 0, 0], [680, 0, 0]]
    }, 
    {
      "op": "Activation", 
      "name": "encoder_birnn_forward_l0_t47_i", 
      "attrs": {"act_type": "sigmoid"}, 
      "inputs": [[687, 0, 0]]
    }, 
    {
      "op": "Activation", 
      "name": "encoder_birnn_forward_l0_t47_c", 
      "attrs": {"act_type": "tanh"}, 
      "inputs": [[687, 2, 0]]
    }, 
    {
      "op": "elemwise_mul", 
      "name": "_mul95", 
      "inputs": [[691, 0, 0], [692, 0, 0]]
    }, 
    {
      "op": "elemwise_add", 
      "name": "encoder_birnn_forward_l0_t47_state", 
      "inputs": [[690, 0, 0], [693, 0, 0]]
    }, 
    {
      "op": "Activation", 
      "name": "activation47", 
      "attrs": {"act_type": "tanh"}, 
      "inputs": [[694, 0, 0]]
    }, 
    {
      "op": "elemwise_mul", 
      "name": "encoder_birnn_forward_l0_t47_out", 
      "inputs": [[688, 0, 0], [695, 0, 0]]
    }, 
    {
      "op": "expand_dims", 
      "name": "expand_dims47", 
      "attrs": {"axis": "0"}, 
      "inputs": [[696, 0, 0]]
    }, 
    {
      "op": "FullyConnected", 
      "name": "encoder_birnn_forward_l0_t48_i2h", 
      "attrs": {"num_hidden": "512"}, 
      "inputs": [[19, 48, 0], [20, 0, 0], [21, 0, 0]]
    }, 
    {
      "op": "FullyConnected", 
      "name": "encoder_birnn_forward_l0_t48_h2h", 
      "attrs": {"num_hidden": "512"}, 
      "inputs": [[696, 0, 0], [24, 0, 0], [25, 0, 0]]
    }, 
    {
      "op": "elemwise_add", 
      "name": "_plus48", 
      "inputs": [[698, 0, 0], [699, 0, 0]]
    }, 
    {
      "op": "SliceChannel", 
      "name": "encoder_birnn_forward_l0_t48_slice", 
      "attrs": {"num_outputs": "4"}, 
      "inputs": [[700, 0, 0]]
    }, 
    {
      "op": "Activation", 
      "name": "encoder_birnn_forward_l0_t48_o", 
      "attrs": {"act_type": "sigmoid"}, 
      "inputs": [[701, 3, 0]]
    }, 
    {
      "op": "Activation", 
      "name": "encoder_birnn_forward_l0_t48_f", 
      "attrs": {"act_type": "sigmoid"}, 
      "inputs": [[701, 1, 0]]
    }, 
    {
      "op": "elemwise_mul", 
      "name": "_mul96", 
      "inputs": [[703, 0, 0], [694, 0, 0]]
    }, 
    {
      "op": "Activation", 
      "name": "encoder_birnn_forward_l0_t48_i", 
      "attrs": {"act_type": "sigmoid"}, 
      "inputs": [[701, 0, 0]]
    }, 
    {
      "op": "Activation", 
      "name": "encoder_birnn_forward_l0_t48_c", 
      "attrs": {"act_type": "tanh"}, 
      "inputs": [[701, 2, 0]]
    }, 
    {
      "op": "elemwise_mul", 
      "name": "_mul97", 
      "inputs": [[705, 0, 0], [706, 0, 0]]
    }, 
    {
      "op": "elemwise_add", 
      "name": "encoder_birnn_forward_l0_t48_state", 
      "inputs": [[704, 0, 0], [707, 0, 0]]
    }, 
    {
      "op": "Activation", 
      "name": "activation48", 
      "attrs": {"act_type": "tanh"}, 
      "inputs": [[708, 0, 0]]
    }, 
    {
      "op": "elemwise_mul", 
      "name": "encoder_birnn_forward_l0_t48_out", 
      "inputs": [[702, 0, 0], [709, 0, 0]]
    }, 
    {
      "op": "expand_dims", 
      "name": "expand_dims48", 
      "attrs": {"axis": "0"}, 
      "inputs": [[710, 0, 0]]
    }, 
    {
      "op": "FullyConnected", 
      "name": "encoder_birnn_forward_l0_t49_i2h", 
      "attrs": {"num_hidden": "512"}, 
      "inputs": [[19, 49, 0], [20, 0, 0], [21, 0, 0]]
    }, 
    {
      "op": "FullyConnected", 
      "name": "encoder_birnn_forward_l0_t49_h2h", 
      "attrs": {"num_hidden": "512"}, 
      "inputs": [[710, 0, 0], [24, 0, 0], [25, 0, 0]]
    }, 
    {
      "op": "elemwise_add", 
      "name": "_plus49", 
      "inputs": [[712, 0, 0], [713, 0, 0]]
    }, 
    {
      "op": "SliceChannel", 
      "name": "encoder_birnn_forward_l0_t49_slice", 
      "attrs": {"num_outputs": "4"}, 
      "inputs": [[714, 0, 0]]
    }, 
    {
      "op": "Activation", 
      "name": "encoder_birnn_forward_l0_t49_o", 
      "attrs": {"act_type": "sigmoid"}, 
      "inputs": [[715, 3, 0]]
    }, 
    {
      "op": "Activation", 
      "name": "encoder_birnn_forward_l0_t49_f", 
      "attrs": {"act_type": "sigmoid"}, 
      "inputs": [[715, 1, 0]]
    }, 
    {
      "op": "elemwise_mul", 
      "name": "_mul98", 
      "inputs": [[717, 0, 0], [708, 0, 0]]
    }, 
    {
      "op": "Activation", 
      "name": "encoder_birnn_forward_l0_t49_i", 
      "attrs": {"act_type": "sigmoid"}, 
      "inputs": [[715, 0, 0]]
    }, 
    {
      "op": "Activation", 
      "name": "encoder_birnn_forward_l0_t49_c", 
      "attrs": {"act_type": "tanh"}, 
      "inputs": [[715, 2, 0]]
    }, 
    {
      "op": "elemwise_mul", 
      "name": "_mul99", 
      "inputs": [[719, 0, 0], [720, 0, 0]]
    }, 
    {
      "op": "elemwise_add", 
      "name": "encoder_birnn_forward_l0_t49_state", 
      "inputs": [[718, 0, 0], [721, 0, 0]]
    }, 
    {
      "op": "Activation", 
      "name": "activation49", 
      "attrs": {"act_type": "tanh"}, 
      "inputs": [[722, 0, 0]]
    }, 
    {
      "op": "elemwise_mul", 
      "name": "encoder_birnn_forward_l0_t49_out", 
      "inputs": [[716, 0, 0], [723, 0, 0]]
    }, 
    {
      "op": "expand_dims", 
      "name": "expand_dims49", 
      "attrs": {"axis": "0"}, 
      "inputs": [[724, 0, 0]]
    }, 
    {
      "op": "FullyConnected", 
      "name": "encoder_birnn_forward_l0_t50_i2h", 
      "attrs": {"num_hidden": "512"}, 
      "inputs": [[19, 50, 0], [20, 0, 0], [21, 0, 0]]
    }, 
    {
      "op": "FullyConnected", 
      "name": "encoder_birnn_forward_l0_t50_h2h", 
      "attrs": {"num_hidden": "512"}, 
      "inputs": [[724, 0, 0], [24, 0, 0], [25, 0, 0]]
    }, 
    {
      "op": "elemwise_add", 
      "name": "_plus50", 
      "inputs": [[726, 0, 0], [727, 0, 0]]
    }, 
    {
      "op": "SliceChannel", 
      "name": "encoder_birnn_forward_l0_t50_slice", 
      "attrs": {"num_outputs": "4"}, 
      "inputs": [[728, 0, 0]]
    }, 
    {
      "op": "Activation", 
      "name": "encoder_birnn_forward_l0_t50_o", 
      "attrs": {"act_type": "sigmoid"}, 
      "inputs": [[729, 3, 0]]
    }, 
    {
      "op": "Activation", 
      "name": "encoder_birnn_forward_l0_t50_f", 
      "attrs": {"act_type": "sigmoid"}, 
      "inputs": [[729, 1, 0]]
    }, 
    {
      "op": "elemwise_mul", 
      "name": "_mul100", 
      "inputs": [[731, 0, 0], [722, 0, 0]]
    }, 
    {
      "op": "Activation", 
      "name": "encoder_birnn_forward_l0_t50_i", 
      "attrs": {"act_type": "sigmoid"}, 
      "inputs": [[729, 0, 0]]
    }, 
    {
      "op": "Activation", 
      "name": "encoder_birnn_forward_l0_t50_c", 
      "attrs": {"act_type": "tanh"}, 
      "inputs": [[729, 2, 0]]
    }, 
    {
      "op": "elemwise_mul", 
      "name": "_mul101", 
      "inputs": [[733, 0, 0], [734, 0, 0]]
    }, 
    {
      "op": "elemwise_add", 
      "name": "encoder_birnn_forward_l0_t50_state", 
      "inputs": [[732, 0, 0], [735, 0, 0]]
    }, 
    {
      "op": "Activation", 
      "name": "activation50", 
      "attrs": {"act_type": "tanh"}, 
      "inputs": [[736, 0, 0]]
    }, 
    {
      "op": "elemwise_mul", 
      "name": "encoder_birnn_forward_l0_t50_out", 
      "inputs": [[730, 0, 0], [737, 0, 0]]
    }, 
    {
      "op": "expand_dims", 
      "name": "expand_dims50", 
      "attrs": {"axis": "0"}, 
      "inputs": [[738, 0, 0]]
    }, 
    {
      "op": "FullyConnected", 
      "name": "encoder_birnn_forward_l0_t51_i2h", 
      "attrs": {"num_hidden": "512"}, 
      "inputs": [[19, 51, 0], [20, 0, 0], [21, 0, 0]]
    }, 
    {
      "op": "FullyConnected", 
      "name": "encoder_birnn_forward_l0_t51_h2h", 
      "attrs": {"num_hidden": "512"}, 
      "inputs": [[738, 0, 0], [24, 0, 0], [25, 0, 0]]
    }, 
    {
      "op": "elemwise_add", 
      "name": "_plus51", 
      "inputs": [[740, 0, 0], [741, 0, 0]]
    }, 
    {
      "op": "SliceChannel", 
      "name": "encoder_birnn_forward_l0_t51_slice", 
      "attrs": {"num_outputs": "4"}, 
      "inputs": [[742, 0, 0]]
    }, 
    {
      "op": "Activation", 
      "name": "encoder_birnn_forward_l0_t51_o", 
      "attrs": {"act_type": "sigmoid"}, 
      "inputs": [[743, 3, 0]]
    }, 
    {
      "op": "Activation", 
      "name": "encoder_birnn_forward_l0_t51_f", 
      "attrs": {"act_type": "sigmoid"}, 
      "inputs": [[743, 1, 0]]
    }, 
    {
      "op": "elemwise_mul", 
      "name": "_mul102", 
      "inputs": [[745, 0, 0], [736, 0, 0]]
    }, 
    {
      "op": "Activation", 
      "name": "encoder_birnn_forward_l0_t51_i", 
      "attrs": {"act_type": "sigmoid"}, 
      "inputs": [[743, 0, 0]]
    }, 
    {
      "op": "Activation", 
      "name": "encoder_birnn_forward_l0_t51_c", 
      "attrs": {"act_type": "tanh"}, 
      "inputs": [[743, 2, 0]]
    }, 
    {
      "op": "elemwise_mul", 
      "name": "_mul103", 
      "inputs": [[747, 0, 0], [748, 0, 0]]
    }, 
    {
      "op": "elemwise_add", 
      "name": "encoder_birnn_forward_l0_t51_state", 
      "inputs": [[746, 0, 0], [749, 0, 0]]
    }, 
    {
      "op": "Activation", 
      "name": "activation51", 
      "attrs": {"act_type": "tanh"}, 
      "inputs": [[750, 0, 0]]
    }, 
    {
      "op": "elemwise_mul", 
      "name": "encoder_birnn_forward_l0_t51_out", 
      "inputs": [[744, 0, 0], [751, 0, 0]]
    }, 
    {
      "op": "expand_dims", 
      "name": "expand_dims51", 
      "attrs": {"axis": "0"}, 
      "inputs": [[752, 0, 0]]
    }, 
    {
      "op": "FullyConnected", 
      "name": "encoder_birnn_forward_l0_t52_i2h", 
      "attrs": {"num_hidden": "512"}, 
      "inputs": [[19, 52, 0], [20, 0, 0], [21, 0, 0]]
    }, 
    {
      "op": "FullyConnected", 
      "name": "encoder_birnn_forward_l0_t52_h2h", 
      "attrs": {"num_hidden": "512"}, 
      "inputs": [[752, 0, 0], [24, 0, 0], [25, 0, 0]]
    }, 
    {
      "op": "elemwise_add", 
      "name": "_plus52", 
      "inputs": [[754, 0, 0], [755, 0, 0]]
    }, 
    {
      "op": "SliceChannel", 
      "name": "encoder_birnn_forward_l0_t52_slice", 
      "attrs": {"num_outputs": "4"}, 
      "inputs": [[756, 0, 0]]
    }, 
    {
      "op": "Activation", 
      "name": "encoder_birnn_forward_l0_t52_o", 
      "attrs": {"act_type": "sigmoid"}, 
      "inputs": [[757, 3, 0]]
    }, 
    {
      "op": "Activation", 
      "name": "encoder_birnn_forward_l0_t52_f", 
      "attrs": {"act_type": "sigmoid"}, 
      "inputs": [[757, 1, 0]]
    }, 
    {
      "op": "elemwise_mul", 
      "name": "_mul104", 
      "inputs": [[759, 0, 0], [750, 0, 0]]
    }, 
    {
      "op": "Activation", 
      "name": "encoder_birnn_forward_l0_t52_i", 
      "attrs": {"act_type": "sigmoid"}, 
      "inputs": [[757, 0, 0]]
    }, 
    {
      "op": "Activation", 
      "name": "encoder_birnn_forward_l0_t52_c", 
      "attrs": {"act_type": "tanh"}, 
      "inputs": [[757, 2, 0]]
    }, 
    {
      "op": "elemwise_mul", 
      "name": "_mul105", 
      "inputs": [[761, 0, 0], [762, 0, 0]]
    }, 
    {
      "op": "elemwise_add", 
      "name": "encoder_birnn_forward_l0_t52_state", 
      "inputs": [[760, 0, 0], [763, 0, 0]]
    }, 
    {
      "op": "Activation", 
      "name": "activation52", 
      "attrs": {"act_type": "tanh"}, 
      "inputs": [[764, 0, 0]]
    }, 
    {
      "op": "elemwise_mul", 
      "name": "encoder_birnn_forward_l0_t52_out", 
      "inputs": [[758, 0, 0], [765, 0, 0]]
    }, 
    {
      "op": "expand_dims", 
      "name": "expand_dims52", 
      "attrs": {"axis": "0"}, 
      "inputs": [[766, 0, 0]]
    }, 
    {
      "op": "FullyConnected", 
      "name": "encoder_birnn_forward_l0_t53_i2h", 
      "attrs": {"num_hidden": "512"}, 
      "inputs": [[19, 53, 0], [20, 0, 0], [21, 0, 0]]
    }, 
    {
      "op": "FullyConnected", 
      "name": "encoder_birnn_forward_l0_t53_h2h", 
      "attrs": {"num_hidden": "512"}, 
      "inputs": [[766, 0, 0], [24, 0, 0], [25, 0, 0]]
    }, 
    {
      "op": "elemwise_add", 
      "name": "_plus53", 
      "inputs": [[768, 0, 0], [769, 0, 0]]
    }, 
    {
      "op": "SliceChannel", 
      "name": "encoder_birnn_forward_l0_t53_slice", 
      "attrs": {"num_outputs": "4"}, 
      "inputs": [[770, 0, 0]]
    }, 
    {
      "op": "Activation", 
      "name": "encoder_birnn_forward_l0_t53_o", 
      "attrs": {"act_type": "sigmoid"}, 
      "inputs": [[771, 3, 0]]
    }, 
    {
      "op": "Activation", 
      "name": "encoder_birnn_forward_l0_t53_f", 
      "attrs": {"act_type": "sigmoid"}, 
      "inputs": [[771, 1, 0]]
    }, 
    {
      "op": "elemwise_mul", 
      "name": "_mul106", 
      "inputs": [[773, 0, 0], [764, 0, 0]]
    }, 
    {
      "op": "Activation", 
      "name": "encoder_birnn_forward_l0_t53_i", 
      "attrs": {"act_type": "sigmoid"}, 
      "inputs": [[771, 0, 0]]
    }, 
    {
      "op": "Activation", 
      "name": "encoder_birnn_forward_l0_t53_c", 
      "attrs": {"act_type": "tanh"}, 
      "inputs": [[771, 2, 0]]
    }, 
    {
      "op": "elemwise_mul", 
      "name": "_mul107", 
      "inputs": [[775, 0, 0], [776, 0, 0]]
    }, 
    {
      "op": "elemwise_add", 
      "name": "encoder_birnn_forward_l0_t53_state", 
      "inputs": [[774, 0, 0], [777, 0, 0]]
    }, 
    {
      "op": "Activation", 
      "name": "activation53", 
      "attrs": {"act_type": "tanh"}, 
      "inputs": [[778, 0, 0]]
    }, 
    {
      "op": "elemwise_mul", 
      "name": "encoder_birnn_forward_l0_t53_out", 
      "inputs": [[772, 0, 0], [779, 0, 0]]
    }, 
    {
      "op": "expand_dims", 
      "name": "expand_dims53", 
      "attrs": {"axis": "0"}, 
      "inputs": [[780, 0, 0]]
    }, 
    {
      "op": "FullyConnected", 
      "name": "encoder_birnn_forward_l0_t54_i2h", 
      "attrs": {"num_hidden": "512"}, 
      "inputs": [[19, 54, 0], [20, 0, 0], [21, 0, 0]]
    }, 
    {
      "op": "FullyConnected", 
      "name": "encoder_birnn_forward_l0_t54_h2h", 
      "attrs": {"num_hidden": "512"}, 
      "inputs": [[780, 0, 0], [24, 0, 0], [25, 0, 0]]
    }, 
    {
      "op": "elemwise_add", 
      "name": "_plus54", 
      "inputs": [[782, 0, 0], [783, 0, 0]]
    }, 
    {
      "op": "SliceChannel", 
      "name": "encoder_birnn_forward_l0_t54_slice", 
      "attrs": {"num_outputs": "4"}, 
      "inputs": [[784, 0, 0]]
    }, 
    {
      "op": "Activation", 
      "name": "encoder_birnn_forward_l0_t54_o", 
      "attrs": {"act_type": "sigmoid"}, 
      "inputs": [[785, 3, 0]]
    }, 
    {
      "op": "Activation", 
      "name": "encoder_birnn_forward_l0_t54_f", 
      "attrs": {"act_type": "sigmoid"}, 
      "inputs": [[785, 1, 0]]
    }, 
    {
      "op": "elemwise_mul", 
      "name": "_mul108", 
      "inputs": [[787, 0, 0], [778, 0, 0]]
    }, 
    {
      "op": "Activation", 
      "name": "encoder_birnn_forward_l0_t54_i", 
      "attrs": {"act_type": "sigmoid"}, 
      "inputs": [[785, 0, 0]]
    }, 
    {
      "op": "Activation", 
      "name": "encoder_birnn_forward_l0_t54_c", 
      "attrs": {"act_type": "tanh"}, 
      "inputs": [[785, 2, 0]]
    }, 
    {
      "op": "elemwise_mul", 
      "name": "_mul109", 
      "inputs": [[789, 0, 0], [790, 0, 0]]
    }, 
    {
      "op": "elemwise_add", 
      "name": "encoder_birnn_forward_l0_t54_state", 
      "inputs": [[788, 0, 0], [791, 0, 0]]
    }, 
    {
      "op": "Activation", 
      "name": "activation54", 
      "attrs": {"act_type": "tanh"}, 
      "inputs": [[792, 0, 0]]
    }, 
    {
      "op": "elemwise_mul", 
      "name": "encoder_birnn_forward_l0_t54_out", 
      "inputs": [[786, 0, 0], [793, 0, 0]]
    }, 
    {
      "op": "expand_dims", 
      "name": "expand_dims54", 
      "attrs": {"axis": "0"}, 
      "inputs": [[794, 0, 0]]
    }, 
    {
      "op": "FullyConnected", 
      "name": "encoder_birnn_forward_l0_t55_i2h", 
      "attrs": {"num_hidden": "512"}, 
      "inputs": [[19, 55, 0], [20, 0, 0], [21, 0, 0]]
    }, 
    {
      "op": "FullyConnected", 
      "name": "encoder_birnn_forward_l0_t55_h2h", 
      "attrs": {"num_hidden": "512"}, 
      "inputs": [[794, 0, 0], [24, 0, 0], [25, 0, 0]]
    }, 
    {
      "op": "elemwise_add", 
      "name": "_plus55", 
      "inputs": [[796, 0, 0], [797, 0, 0]]
    }, 
    {
      "op": "SliceChannel", 
      "name": "encoder_birnn_forward_l0_t55_slice", 
      "attrs": {"num_outputs": "4"}, 
      "inputs": [[798, 0, 0]]
    }, 
    {
      "op": "Activation", 
      "name": "encoder_birnn_forward_l0_t55_o", 
      "attrs": {"act_type": "sigmoid"}, 
      "inputs": [[799, 3, 0]]
    }, 
    {
      "op": "Activation", 
      "name": "encoder_birnn_forward_l0_t55_f", 
      "attrs": {"act_type": "sigmoid"}, 
      "inputs": [[799, 1, 0]]
    }, 
    {
      "op": "elemwise_mul", 
      "name": "_mul110", 
      "inputs": [[801, 0, 0], [792, 0, 0]]
    }, 
    {
      "op": "Activation", 
      "name": "encoder_birnn_forward_l0_t55_i", 
      "attrs": {"act_type": "sigmoid"}, 
      "inputs": [[799, 0, 0]]
    }, 
    {
      "op": "Activation", 
      "name": "encoder_birnn_forward_l0_t55_c", 
      "attrs": {"act_type": "tanh"}, 
      "inputs": [[799, 2, 0]]
    }, 
    {
      "op": "elemwise_mul", 
      "name": "_mul111", 
      "inputs": [[803, 0, 0], [804, 0, 0]]
    }, 
    {
      "op": "elemwise_add", 
      "name": "encoder_birnn_forward_l0_t55_state", 
      "inputs": [[802, 0, 0], [805, 0, 0]]
    }, 
    {
      "op": "Activation", 
      "name": "activation55", 
      "attrs": {"act_type": "tanh"}, 
      "inputs": [[806, 0, 0]]
    }, 
    {
      "op": "elemwise_mul", 
      "name": "encoder_birnn_forward_l0_t55_out", 
      "inputs": [[800, 0, 0], [807, 0, 0]]
    }, 
    {
      "op": "expand_dims", 
      "name": "expand_dims55", 
      "attrs": {"axis": "0"}, 
      "inputs": [[808, 0, 0]]
    }, 
    {
      "op": "FullyConnected", 
      "name": "encoder_birnn_forward_l0_t56_i2h", 
      "attrs": {"num_hidden": "512"}, 
      "inputs": [[19, 56, 0], [20, 0, 0], [21, 0, 0]]
    }, 
    {
      "op": "FullyConnected", 
      "name": "encoder_birnn_forward_l0_t56_h2h", 
      "attrs": {"num_hidden": "512"}, 
      "inputs": [[808, 0, 0], [24, 0, 0], [25, 0, 0]]
    }, 
    {
      "op": "elemwise_add", 
      "name": "_plus56", 
      "inputs": [[810, 0, 0], [811, 0, 0]]
    }, 
    {
      "op": "SliceChannel", 
      "name": "encoder_birnn_forward_l0_t56_slice", 
      "attrs": {"num_outputs": "4"}, 
      "inputs": [[812, 0, 0]]
    }, 
    {
      "op": "Activation", 
      "name": "encoder_birnn_forward_l0_t56_o", 
      "attrs": {"act_type": "sigmoid"}, 
      "inputs": [[813, 3, 0]]
    }, 
    {
      "op": "Activation", 
      "name": "encoder_birnn_forward_l0_t56_f", 
      "attrs": {"act_type": "sigmoid"}, 
      "inputs": [[813, 1, 0]]
    }, 
    {
      "op": "elemwise_mul", 
      "name": "_mul112", 
      "inputs": [[815, 0, 0], [806, 0, 0]]
    }, 
    {
      "op": "Activation", 
      "name": "encoder_birnn_forward_l0_t56_i", 
      "attrs": {"act_type": "sigmoid"}, 
      "inputs": [[813, 0, 0]]
    }, 
    {
      "op": "Activation", 
      "name": "encoder_birnn_forward_l0_t56_c", 
      "attrs": {"act_type": "tanh"}, 
      "inputs": [[813, 2, 0]]
    }, 
    {
      "op": "elemwise_mul", 
      "name": "_mul113", 
      "inputs": [[817, 0, 0], [818, 0, 0]]
    }, 
    {
      "op": "elemwise_add", 
      "name": "encoder_birnn_forward_l0_t56_state", 
      "inputs": [[816, 0, 0], [819, 0, 0]]
    }, 
    {
      "op": "Activation", 
      "name": "activation56", 
      "attrs": {"act_type": "tanh"}, 
      "inputs": [[820, 0, 0]]
    }, 
    {
      "op": "elemwise_mul", 
      "name": "encoder_birnn_forward_l0_t56_out", 
      "inputs": [[814, 0, 0], [821, 0, 0]]
    }, 
    {
      "op": "expand_dims", 
      "name": "expand_dims56", 
      "attrs": {"axis": "0"}, 
      "inputs": [[822, 0, 0]]
    }, 
    {
      "op": "FullyConnected", 
      "name": "encoder_birnn_forward_l0_t57_i2h", 
      "attrs": {"num_hidden": "512"}, 
      "inputs": [[19, 57, 0], [20, 0, 0], [21, 0, 0]]
    }, 
    {
      "op": "FullyConnected", 
      "name": "encoder_birnn_forward_l0_t57_h2h", 
      "attrs": {"num_hidden": "512"}, 
      "inputs": [[822, 0, 0], [24, 0, 0], [25, 0, 0]]
    }, 
    {
      "op": "elemwise_add", 
      "name": "_plus57", 
      "inputs": [[824, 0, 0], [825, 0, 0]]
    }, 
    {
      "op": "SliceChannel", 
      "name": "encoder_birnn_forward_l0_t57_slice", 
      "attrs": {"num_outputs": "4"}, 
      "inputs": [[826, 0, 0]]
    }, 
    {
      "op": "Activation", 
      "name": "encoder_birnn_forward_l0_t57_o", 
      "attrs": {"act_type": "sigmoid"}, 
      "inputs": [[827, 3, 0]]
    }, 
    {
      "op": "Activation", 
      "name": "encoder_birnn_forward_l0_t57_f", 
      "attrs": {"act_type": "sigmoid"}, 
      "inputs": [[827, 1, 0]]
    }, 
    {
      "op": "elemwise_mul", 
      "name": "_mul114", 
      "inputs": [[829, 0, 0], [820, 0, 0]]
    }, 
    {
      "op": "Activation", 
      "name": "encoder_birnn_forward_l0_t57_i", 
      "attrs": {"act_type": "sigmoid"}, 
      "inputs": [[827, 0, 0]]
    }, 
    {
      "op": "Activation", 
      "name": "encoder_birnn_forward_l0_t57_c", 
      "attrs": {"act_type": "tanh"}, 
      "inputs": [[827, 2, 0]]
    }, 
    {
      "op": "elemwise_mul", 
      "name": "_mul115", 
      "inputs": [[831, 0, 0], [832, 0, 0]]
    }, 
    {
      "op": "elemwise_add", 
      "name": "encoder_birnn_forward_l0_t57_state", 
      "inputs": [[830, 0, 0], [833, 0, 0]]
    }, 
    {
      "op": "Activation", 
      "name": "activation57", 
      "attrs": {"act_type": "tanh"}, 
      "inputs": [[834, 0, 0]]
    }, 
    {
      "op": "elemwise_mul", 
      "name": "encoder_birnn_forward_l0_t57_out", 
      "inputs": [[828, 0, 0], [835, 0, 0]]
    }, 
    {
      "op": "expand_dims", 
      "name": "expand_dims57", 
      "attrs": {"axis": "0"}, 
      "inputs": [[836, 0, 0]]
    }, 
    {
      "op": "FullyConnected", 
      "name": "encoder_birnn_forward_l0_t58_i2h", 
      "attrs": {"num_hidden": "512"}, 
      "inputs": [[19, 58, 0], [20, 0, 0], [21, 0, 0]]
    }, 
    {
      "op": "FullyConnected", 
      "name": "encoder_birnn_forward_l0_t58_h2h", 
      "attrs": {"num_hidden": "512"}, 
      "inputs": [[836, 0, 0], [24, 0, 0], [25, 0, 0]]
    }, 
    {
      "op": "elemwise_add", 
      "name": "_plus58", 
      "inputs": [[838, 0, 0], [839, 0, 0]]
    }, 
    {
      "op": "SliceChannel", 
      "name": "encoder_birnn_forward_l0_t58_slice", 
      "attrs": {"num_outputs": "4"}, 
      "inputs": [[840, 0, 0]]
    }, 
    {
      "op": "Activation", 
      "name": "encoder_birnn_forward_l0_t58_o", 
      "attrs": {"act_type": "sigmoid"}, 
      "inputs": [[841, 3, 0]]
    }, 
    {
      "op": "Activation", 
      "name": "encoder_birnn_forward_l0_t58_f", 
      "attrs": {"act_type": "sigmoid"}, 
      "inputs": [[841, 1, 0]]
    }, 
    {
      "op": "elemwise_mul", 
      "name": "_mul116", 
      "inputs": [[843, 0, 0], [834, 0, 0]]
    }, 
    {
      "op": "Activation", 
      "name": "encoder_birnn_forward_l0_t58_i", 
      "attrs": {"act_type": "sigmoid"}, 
      "inputs": [[841, 0, 0]]
    }, 
    {
      "op": "Activation", 
      "name": "encoder_birnn_forward_l0_t58_c", 
      "attrs": {"act_type": "tanh"}, 
      "inputs": [[841, 2, 0]]
    }, 
    {
      "op": "elemwise_mul", 
      "name": "_mul117", 
      "inputs": [[845, 0, 0], [846, 0, 0]]
    }, 
    {
      "op": "elemwise_add", 
      "name": "encoder_birnn_forward_l0_t58_state", 
      "inputs": [[844, 0, 0], [847, 0, 0]]
    }, 
    {
      "op": "Activation", 
      "name": "activation58", 
      "attrs": {"act_type": "tanh"}, 
      "inputs": [[848, 0, 0]]
    }, 
    {
      "op": "elemwise_mul", 
      "name": "encoder_birnn_forward_l0_t58_out", 
      "inputs": [[842, 0, 0], [849, 0, 0]]
    }, 
    {
      "op": "expand_dims", 
      "name": "expand_dims58", 
      "attrs": {"axis": "0"}, 
      "inputs": [[850, 0, 0]]
    }, 
    {
      "op": "FullyConnected", 
      "name": "encoder_birnn_forward_l0_t59_i2h", 
      "attrs": {"num_hidden": "512"}, 
      "inputs": [[19, 59, 0], [20, 0, 0], [21, 0, 0]]
    }, 
    {
      "op": "FullyConnected", 
      "name": "encoder_birnn_forward_l0_t59_h2h", 
      "attrs": {"num_hidden": "512"}, 
      "inputs": [[850, 0, 0], [24, 0, 0], [25, 0, 0]]
    }, 
    {
      "op": "elemwise_add", 
      "name": "_plus59", 
      "inputs": [[852, 0, 0], [853, 0, 0]]
    }, 
    {
      "op": "SliceChannel", 
      "name": "encoder_birnn_forward_l0_t59_slice", 
      "attrs": {"num_outputs": "4"}, 
      "inputs": [[854, 0, 0]]
    }, 
    {
      "op": "Activation", 
      "name": "encoder_birnn_forward_l0_t59_o", 
      "attrs": {"act_type": "sigmoid"}, 
      "inputs": [[855, 3, 0]]
    }, 
    {
      "op": "Activation", 
      "name": "encoder_birnn_forward_l0_t59_f", 
      "attrs": {"act_type": "sigmoid"}, 
      "inputs": [[855, 1, 0]]
    }, 
    {
      "op": "elemwise_mul", 
      "name": "_mul118", 
      "inputs": [[857, 0, 0], [848, 0, 0]]
    }, 
    {
      "op": "Activation", 
      "name": "encoder_birnn_forward_l0_t59_i", 
      "attrs": {"act_type": "sigmoid"}, 
      "inputs": [[855, 0, 0]]
    }, 
    {
      "op": "Activation", 
      "name": "encoder_birnn_forward_l0_t59_c", 
      "attrs": {"act_type": "tanh"}, 
      "inputs": [[855, 2, 0]]
    }, 
    {
      "op": "elemwise_mul", 
      "name": "_mul119", 
      "inputs": [[859, 0, 0], [860, 0, 0]]
    }, 
    {
      "op": "elemwise_add", 
      "name": "encoder_birnn_forward_l0_t59_state", 
      "inputs": [[858, 0, 0], [861, 0, 0]]
    }, 
    {
      "op": "Activation", 
      "name": "activation59", 
      "attrs": {"act_type": "tanh"}, 
      "inputs": [[862, 0, 0]]
    }, 
    {
      "op": "elemwise_mul", 
      "name": "encoder_birnn_forward_l0_t59_out", 
      "inputs": [[856, 0, 0], [863, 0, 0]]
    }, 
    {
      "op": "expand_dims", 
      "name": "expand_dims59", 
      "attrs": {"axis": "0"}, 
      "inputs": [[864, 0, 0]]
    }, 
    {
      "op": "FullyConnected", 
      "name": "encoder_birnn_forward_l0_t60_i2h", 
      "attrs": {"num_hidden": "512"}, 
      "inputs": [[19, 60, 0], [20, 0, 0], [21, 0, 0]]
    }, 
    {
      "op": "FullyConnected", 
      "name": "encoder_birnn_forward_l0_t60_h2h", 
      "attrs": {"num_hidden": "512"}, 
      "inputs": [[864, 0, 0], [24, 0, 0], [25, 0, 0]]
    }, 
    {
      "op": "elemwise_add", 
      "name": "_plus60", 
      "inputs": [[866, 0, 0], [867, 0, 0]]
    }, 
    {
      "op": "SliceChannel", 
      "name": "encoder_birnn_forward_l0_t60_slice", 
      "attrs": {"num_outputs": "4"}, 
      "inputs": [[868, 0, 0]]
    }, 
    {
      "op": "Activation", 
      "name": "encoder_birnn_forward_l0_t60_o", 
      "attrs": {"act_type": "sigmoid"}, 
      "inputs": [[869, 3, 0]]
    }, 
    {
      "op": "Activation", 
      "name": "encoder_birnn_forward_l0_t60_f", 
      "attrs": {"act_type": "sigmoid"}, 
      "inputs": [[869, 1, 0]]
    }, 
    {
      "op": "elemwise_mul", 
      "name": "_mul120", 
      "inputs": [[871, 0, 0], [862, 0, 0]]
    }, 
    {
      "op": "Activation", 
      "name": "encoder_birnn_forward_l0_t60_i", 
      "attrs": {"act_type": "sigmoid"}, 
      "inputs": [[869, 0, 0]]
    }, 
    {
      "op": "Activation", 
      "name": "encoder_birnn_forward_l0_t60_c", 
      "attrs": {"act_type": "tanh"}, 
      "inputs": [[869, 2, 0]]
    }, 
    {
      "op": "elemwise_mul", 
      "name": "_mul121", 
      "inputs": [[873, 0, 0], [874, 0, 0]]
    }, 
    {
      "op": "elemwise_add", 
      "name": "encoder_birnn_forward_l0_t60_state", 
      "inputs": [[872, 0, 0], [875, 0, 0]]
    }, 
    {
      "op": "Activation", 
      "name": "activation60", 
      "attrs": {"act_type": "tanh"}, 
      "inputs": [[876, 0, 0]]
    }, 
    {
      "op": "elemwise_mul", 
      "name": "encoder_birnn_forward_l0_t60_out", 
      "inputs": [[870, 0, 0], [877, 0, 0]]
    }, 
    {
      "op": "expand_dims", 
      "name": "expand_dims60", 
      "attrs": {"axis": "0"}, 
      "inputs": [[878, 0, 0]]
    }, 
    {
      "op": "Concat", 
      "name": "concat0", 
      "attrs": {
        "dim": "0", 
        "num_args": "61"
      }, 
      "inputs": [
        [39, 0, 0], 
        [53, 0, 0], 
        [67, 0, 0], 
        [81, 0, 0], 
        [95, 0, 0], 
        [109, 0, 0], 
        [123, 0, 0], 
        [137, 0, 0], 
        [151, 0, 0], 
        [165, 0, 0], 
        [179, 0, 0], 
        [193, 0, 0], 
        [207, 0, 0], 
        [221, 0, 0], 
        [235, 0, 0], 
        [249, 0, 0], 
        [263, 0, 0], 
        [277, 0, 0], 
        [291, 0, 0], 
        [305, 0, 0], 
        [319, 0, 0], 
        [333, 0, 0], 
        [347, 0, 0], 
        [361, 0, 0], 
        [375, 0, 0], 
        [389, 0, 0], 
        [403, 0, 0], 
        [417, 0, 0], 
        [431, 0, 0], 
        [445, 0, 0], 
        [459, 0, 0], 
        [473, 0, 0], 
        [487, 0, 0], 
        [501, 0, 0], 
        [515, 0, 0], 
        [529, 0, 0], 
        [543, 0, 0], 
        [557, 0, 0], 
        [571, 0, 0], 
        [585, 0, 0], 
        [599, 0, 0], 
        [613, 0, 0], 
        [627, 0, 0], 
        [641, 0, 0], 
        [655, 0, 0], 
        [669, 0, 0], 
        [683, 0, 0], 
        [697, 0, 0], 
        [711, 0, 0], 
        [725, 0, 0], 
        [739, 0, 0], 
        [753, 0, 0], 
        [767, 0, 0], 
        [781, 0, 0], 
        [795, 0, 0], 
        [809, 0, 0], 
        [823, 0, 0], 
        [837, 0, 0], 
        [851, 0, 0], 
        [865, 0, 0], 
        [879, 0, 0]
      ]
    }, 
    {
      "op": "SequenceReverse", 
      "name": "sequencereverse0", 
      "attrs": {"use_sequence_length": "True"}, 
      "inputs": [[18, 0, 0], [7, 0, 0]]
    }, 
    {
      "op": "SliceChannel", 
      "name": "split1", 
      "attrs": {
        "axis": "0", 
        "num_outputs": "61", 
        "squeeze_axis": "1"
      }, 
      "inputs": [[881, 0, 0]]
    }, 
    {
      "op": "null", 
      "name": "encoder_birnn_reverse_l0_i2h_weight", 
      "inputs": []
    }, 
    {
      "op": "null", 
      "name": "encoder_birnn_reverse_l0_i2h_bias", 
      "attrs": {"__init__": "[\"lstmbias\", {\"forget_bias\": 0.0}]"}, 
      "inputs": []
    }, 
    {
      "op": "FullyConnected", 
      "name": "encoder_birnn_reverse_l0_t0_i2h", 
      "attrs": {"num_hidden": "512"}, 
      "inputs": [[882, 0, 0], [883, 0, 0], [884, 0, 0]]
    }, 
    {
      "op": "_zeros", 
      "name": "encoder_birnn_reverse_l0_begin_state_0", 
      "attrs": {
        "__layout__": "NC", 
        "dtype": "float32", 
        "shape": "(0, 128)"
      }, 
      "inputs": []
    }, 
    {
      "op": "null", 
      "name": "encoder_birnn_reverse_l0_h2h_weight", 
      "inputs": []
    }, 
    {
      "op": "null", 
      "name": "encoder_birnn_reverse_l0_h2h_bias", 
      "inputs": []
    }, 
    {
      "op": "FullyConnected", 
      "name": "encoder_birnn_reverse_l0_t0_h2h", 
      "attrs": {"num_hidden": "512"}, 
      "inputs": [[886, 0, 0], [887, 0, 0], [888, 0, 0]]
    }, 
    {
      "op": "elemwise_add", 
      "name": "_plus61", 
      "inputs": [[885, 0, 0], [889, 0, 0]]
    }, 
    {
      "op": "SliceChannel", 
      "name": "encoder_birnn_reverse_l0_t0_slice", 
      "attrs": {"num_outputs": "4"}, 
      "inputs": [[890, 0, 0]]
    }, 
    {
      "op": "Activation", 
      "name": "encoder_birnn_reverse_l0_t0_o", 
      "attrs": {"act_type": "sigmoid"}, 
      "inputs": [[891, 3, 0]]
    }, 
    {
      "op": "Activation", 
      "name": "encoder_birnn_reverse_l0_t0_f", 
      "attrs": {"act_type": "sigmoid"}, 
      "inputs": [[891, 1, 0]]
    }, 
    {
      "op": "_zeros", 
      "name": "encoder_birnn_reverse_l0_begin_state_1", 
      "attrs": {
        "__layout__": "NC", 
        "dtype": "float32", 
        "shape": "(0, 128)"
      }, 
      "inputs": []
    }, 
    {
      "op": "elemwise_mul", 
      "name": "_mul122", 
      "inputs": [[893, 0, 0], [894, 0, 0]]
    }, 
    {
      "op": "Activation", 
      "name": "encoder_birnn_reverse_l0_t0_i", 
      "attrs": {"act_type": "sigmoid"}, 
      "inputs": [[891, 0, 0]]
    }, 
    {
      "op": "Activation", 
      "name": "encoder_birnn_reverse_l0_t0_c", 
      "attrs": {"act_type": "tanh"}, 
      "inputs": [[891, 2, 0]]
    }, 
    {
      "op": "elemwise_mul", 
      "name": "_mul123", 
      "inputs": [[896, 0, 0], [897, 0, 0]]
    }, 
    {
      "op": "elemwise_add", 
      "name": "encoder_birnn_reverse_l0_t0_state", 
      "inputs": [[895, 0, 0], [898, 0, 0]]
    }, 
    {
      "op": "Activation", 
      "name": "activation61", 
      "attrs": {"act_type": "tanh"}, 
      "inputs": [[899, 0, 0]]
    }, 
    {
      "op": "elemwise_mul", 
      "name": "encoder_birnn_reverse_l0_t0_out", 
      "inputs": [[892, 0, 0], [900, 0, 0]]
    }, 
    {
      "op": "expand_dims", 
      "name": "expand_dims61", 
      "attrs": {"axis": "0"}, 
      "inputs": [[901, 0, 0]]
    }, 
    {
      "op": "FullyConnected", 
      "name": "encoder_birnn_reverse_l0_t1_i2h", 
      "attrs": {"num_hidden": "512"}, 
      "inputs": [[882, 1, 0], [883, 0, 0], [884, 0, 0]]
    }, 
    {
      "op": "FullyConnected", 
      "name": "encoder_birnn_reverse_l0_t1_h2h", 
      "attrs": {"num_hidden": "512"}, 
      "inputs": [[901, 0, 0], [887, 0, 0], [888, 0, 0]]
    }, 
    {
      "op": "elemwise_add", 
      "name": "_plus62", 
      "inputs": [[903, 0, 0], [904, 0, 0]]
    }, 
    {
      "op": "SliceChannel", 
      "name": "encoder_birnn_reverse_l0_t1_slice", 
      "attrs": {"num_outputs": "4"}, 
      "inputs": [[905, 0, 0]]
    }, 
    {
      "op": "Activation", 
      "name": "encoder_birnn_reverse_l0_t1_o", 
      "attrs": {"act_type": "sigmoid"}, 
      "inputs": [[906, 3, 0]]
    }, 
    {
      "op": "Activation", 
      "name": "encoder_birnn_reverse_l0_t1_f", 
      "attrs": {"act_type": "sigmoid"}, 
      "inputs": [[906, 1, 0]]
    }, 
    {
      "op": "elemwise_mul", 
      "name": "_mul124", 
      "inputs": [[908, 0, 0], [899, 0, 0]]
    }, 
    {
      "op": "Activation", 
      "name": "encoder_birnn_reverse_l0_t1_i", 
      "attrs": {"act_type": "sigmoid"}, 
      "inputs": [[906, 0, 0]]
    }, 
    {
      "op": "Activation", 
      "name": "encoder_birnn_reverse_l0_t1_c", 
      "attrs": {"act_type": "tanh"}, 
      "inputs": [[906, 2, 0]]
    }, 
    {
      "op": "elemwise_mul", 
      "name": "_mul125", 
      "inputs": [[910, 0, 0], [911, 0, 0]]
    }, 
    {
      "op": "elemwise_add", 
      "name": "encoder_birnn_reverse_l0_t1_state", 
      "inputs": [[909, 0, 0], [912, 0, 0]]
    }, 
    {
      "op": "Activation", 
      "name": "activation62", 
      "attrs": {"act_type": "tanh"}, 
      "inputs": [[913, 0, 0]]
    }, 
    {
      "op": "elemwise_mul", 
      "name": "encoder_birnn_reverse_l0_t1_out", 
      "inputs": [[907, 0, 0], [914, 0, 0]]
    }, 
    {
      "op": "expand_dims", 
      "name": "expand_dims62", 
      "attrs": {"axis": "0"}, 
      "inputs": [[915, 0, 0]]
    }, 
    {
      "op": "FullyConnected", 
      "name": "encoder_birnn_reverse_l0_t2_i2h", 
      "attrs": {"num_hidden": "512"}, 
      "inputs": [[882, 2, 0], [883, 0, 0], [884, 0, 0]]
    }, 
    {
      "op": "FullyConnected", 
      "name": "encoder_birnn_reverse_l0_t2_h2h", 
      "attrs": {"num_hidden": "512"}, 
      "inputs": [[915, 0, 0], [887, 0, 0], [888, 0, 0]]
    }, 
    {
      "op": "elemwise_add", 
      "name": "_plus63", 
      "inputs": [[917, 0, 0], [918, 0, 0]]
    }, 
    {
      "op": "SliceChannel", 
      "name": "encoder_birnn_reverse_l0_t2_slice", 
      "attrs": {"num_outputs": "4"}, 
      "inputs": [[919, 0, 0]]
    }, 
    {
      "op": "Activation", 
      "name": "encoder_birnn_reverse_l0_t2_o", 
      "attrs": {"act_type": "sigmoid"}, 
      "inputs": [[920, 3, 0]]
    }, 
    {
      "op": "Activation", 
      "name": "encoder_birnn_reverse_l0_t2_f", 
      "attrs": {"act_type": "sigmoid"}, 
      "inputs": [[920, 1, 0]]
    }, 
    {
      "op": "elemwise_mul", 
      "name": "_mul126", 
      "inputs": [[922, 0, 0], [913, 0, 0]]
    }, 
    {
      "op": "Activation", 
      "name": "encoder_birnn_reverse_l0_t2_i", 
      "attrs": {"act_type": "sigmoid"}, 
      "inputs": [[920, 0, 0]]
    }, 
    {
      "op": "Activation", 
      "name": "encoder_birnn_reverse_l0_t2_c", 
      "attrs": {"act_type": "tanh"}, 
      "inputs": [[920, 2, 0]]
    }, 
    {
      "op": "elemwise_mul", 
      "name": "_mul127", 
      "inputs": [[924, 0, 0], [925, 0, 0]]
    }, 
    {
      "op": "elemwise_add", 
      "name": "encoder_birnn_reverse_l0_t2_state", 
      "inputs": [[923, 0, 0], [926, 0, 0]]
    }, 
    {
      "op": "Activation", 
      "name": "activation63", 
      "attrs": {"act_type": "tanh"}, 
      "inputs": [[927, 0, 0]]
    }, 
    {
      "op": "elemwise_mul", 
      "name": "encoder_birnn_reverse_l0_t2_out", 
      "inputs": [[921, 0, 0], [928, 0, 0]]
    }, 
    {
      "op": "expand_dims", 
      "name": "expand_dims63", 
      "attrs": {"axis": "0"}, 
      "inputs": [[929, 0, 0]]
    }, 
    {
      "op": "FullyConnected", 
      "name": "encoder_birnn_reverse_l0_t3_i2h", 
      "attrs": {"num_hidden": "512"}, 
      "inputs": [[882, 3, 0], [883, 0, 0], [884, 0, 0]]
    }, 
    {
      "op": "FullyConnected", 
      "name": "encoder_birnn_reverse_l0_t3_h2h", 
      "attrs": {"num_hidden": "512"}, 
      "inputs": [[929, 0, 0], [887, 0, 0], [888, 0, 0]]
    }, 
    {
      "op": "elemwise_add", 
      "name": "_plus64", 
      "inputs": [[931, 0, 0], [932, 0, 0]]
    }, 
    {
      "op": "SliceChannel", 
      "name": "encoder_birnn_reverse_l0_t3_slice", 
      "attrs": {"num_outputs": "4"}, 
      "inputs": [[933, 0, 0]]
    }, 
    {
      "op": "Activation", 
      "name": "encoder_birnn_reverse_l0_t3_o", 
      "attrs": {"act_type": "sigmoid"}, 
      "inputs": [[934, 3, 0]]
    }, 
    {
      "op": "Activation", 
      "name": "encoder_birnn_reverse_l0_t3_f", 
      "attrs": {"act_type": "sigmoid"}, 
      "inputs": [[934, 1, 0]]
    }, 
    {
      "op": "elemwise_mul", 
      "name": "_mul128", 
      "inputs": [[936, 0, 0], [927, 0, 0]]
    }, 
    {
      "op": "Activation", 
      "name": "encoder_birnn_reverse_l0_t3_i", 
      "attrs": {"act_type": "sigmoid"}, 
      "inputs": [[934, 0, 0]]
    }, 
    {
      "op": "Activation", 
      "name": "encoder_birnn_reverse_l0_t3_c", 
      "attrs": {"act_type": "tanh"}, 
      "inputs": [[934, 2, 0]]
    }, 
    {
      "op": "elemwise_mul", 
      "name": "_mul129", 
      "inputs": [[938, 0, 0], [939, 0, 0]]
    }, 
    {
      "op": "elemwise_add", 
      "name": "encoder_birnn_reverse_l0_t3_state", 
      "inputs": [[937, 0, 0], [940, 0, 0]]
    }, 
    {
      "op": "Activation", 
      "name": "activation64", 
      "attrs": {"act_type": "tanh"}, 
      "inputs": [[941, 0, 0]]
    }, 
    {
      "op": "elemwise_mul", 
      "name": "encoder_birnn_reverse_l0_t3_out", 
      "inputs": [[935, 0, 0], [942, 0, 0]]
    }, 
    {
      "op": "expand_dims", 
      "name": "expand_dims64", 
      "attrs": {"axis": "0"}, 
      "inputs": [[943, 0, 0]]
    }, 
    {
      "op": "FullyConnected", 
      "name": "encoder_birnn_reverse_l0_t4_i2h", 
      "attrs": {"num_hidden": "512"}, 
      "inputs": [[882, 4, 0], [883, 0, 0], [884, 0, 0]]
    }, 
    {
      "op": "FullyConnected", 
      "name": "encoder_birnn_reverse_l0_t4_h2h", 
      "attrs": {"num_hidden": "512"}, 
      "inputs": [[943, 0, 0], [887, 0, 0], [888, 0, 0]]
    }, 
    {
      "op": "elemwise_add", 
      "name": "_plus65", 
      "inputs": [[945, 0, 0], [946, 0, 0]]
    }, 
    {
      "op": "SliceChannel", 
      "name": "encoder_birnn_reverse_l0_t4_slice", 
      "attrs": {"num_outputs": "4"}, 
      "inputs": [[947, 0, 0]]
    }, 
    {
      "op": "Activation", 
      "name": "encoder_birnn_reverse_l0_t4_o", 
      "attrs": {"act_type": "sigmoid"}, 
      "inputs": [[948, 3, 0]]
    }, 
    {
      "op": "Activation", 
      "name": "encoder_birnn_reverse_l0_t4_f", 
      "attrs": {"act_type": "sigmoid"}, 
      "inputs": [[948, 1, 0]]
    }, 
    {
      "op": "elemwise_mul", 
      "name": "_mul130", 
      "inputs": [[950, 0, 0], [941, 0, 0]]
    }, 
    {
      "op": "Activation", 
      "name": "encoder_birnn_reverse_l0_t4_i", 
      "attrs": {"act_type": "sigmoid"}, 
      "inputs": [[948, 0, 0]]
    }, 
    {
      "op": "Activation", 
      "name": "encoder_birnn_reverse_l0_t4_c", 
      "attrs": {"act_type": "tanh"}, 
      "inputs": [[948, 2, 0]]
    }, 
    {
      "op": "elemwise_mul", 
      "name": "_mul131", 
      "inputs": [[952, 0, 0], [953, 0, 0]]
    }, 
    {
      "op": "elemwise_add", 
      "name": "encoder_birnn_reverse_l0_t4_state", 
      "inputs": [[951, 0, 0], [954, 0, 0]]
    }, 
    {
      "op": "Activation", 
      "name": "activation65", 
      "attrs": {"act_type": "tanh"}, 
      "inputs": [[955, 0, 0]]
    }, 
    {
      "op": "elemwise_mul", 
      "name": "encoder_birnn_reverse_l0_t4_out", 
      "inputs": [[949, 0, 0], [956, 0, 0]]
    }, 
    {
      "op": "expand_dims", 
      "name": "expand_dims65", 
      "attrs": {"axis": "0"}, 
      "inputs": [[957, 0, 0]]
    }, 
    {
      "op": "FullyConnected", 
      "name": "encoder_birnn_reverse_l0_t5_i2h", 
      "attrs": {"num_hidden": "512"}, 
      "inputs": [[882, 5, 0], [883, 0, 0], [884, 0, 0]]
    }, 
    {
      "op": "FullyConnected", 
      "name": "encoder_birnn_reverse_l0_t5_h2h", 
      "attrs": {"num_hidden": "512"}, 
      "inputs": [[957, 0, 0], [887, 0, 0], [888, 0, 0]]
    }, 
    {
      "op": "elemwise_add", 
      "name": "_plus66", 
      "inputs": [[959, 0, 0], [960, 0, 0]]
    }, 
    {
      "op": "SliceChannel", 
      "name": "encoder_birnn_reverse_l0_t5_slice", 
      "attrs": {"num_outputs": "4"}, 
      "inputs": [[961, 0, 0]]
    }, 
    {
      "op": "Activation", 
      "name": "encoder_birnn_reverse_l0_t5_o", 
      "attrs": {"act_type": "sigmoid"}, 
      "inputs": [[962, 3, 0]]
    }, 
    {
      "op": "Activation", 
      "name": "encoder_birnn_reverse_l0_t5_f", 
      "attrs": {"act_type": "sigmoid"}, 
      "inputs": [[962, 1, 0]]
    }, 
    {
      "op": "elemwise_mul", 
      "name": "_mul132", 
      "inputs": [[964, 0, 0], [955, 0, 0]]
    }, 
    {
      "op": "Activation", 
      "name": "encoder_birnn_reverse_l0_t5_i", 
      "attrs": {"act_type": "sigmoid"}, 
      "inputs": [[962, 0, 0]]
    }, 
    {
      "op": "Activation", 
      "name": "encoder_birnn_reverse_l0_t5_c", 
      "attrs": {"act_type": "tanh"}, 
      "inputs": [[962, 2, 0]]
    }, 
    {
      "op": "elemwise_mul", 
      "name": "_mul133", 
      "inputs": [[966, 0, 0], [967, 0, 0]]
    }, 
    {
      "op": "elemwise_add", 
      "name": "encoder_birnn_reverse_l0_t5_state", 
      "inputs": [[965, 0, 0], [968, 0, 0]]
    }, 
    {
      "op": "Activation", 
      "name": "activation66", 
      "attrs": {"act_type": "tanh"}, 
      "inputs": [[969, 0, 0]]
    }, 
    {
      "op": "elemwise_mul", 
      "name": "encoder_birnn_reverse_l0_t5_out", 
      "inputs": [[963, 0, 0], [970, 0, 0]]
    }, 
    {
      "op": "expand_dims", 
      "name": "expand_dims66", 
      "attrs": {"axis": "0"}, 
      "inputs": [[971, 0, 0]]
    }, 
    {
      "op": "FullyConnected", 
      "name": "encoder_birnn_reverse_l0_t6_i2h", 
      "attrs": {"num_hidden": "512"}, 
      "inputs": [[882, 6, 0], [883, 0, 0], [884, 0, 0]]
    }, 
    {
      "op": "FullyConnected", 
      "name": "encoder_birnn_reverse_l0_t6_h2h", 
      "attrs": {"num_hidden": "512"}, 
      "inputs": [[971, 0, 0], [887, 0, 0], [888, 0, 0]]
    }, 
    {
      "op": "elemwise_add", 
      "name": "_plus67", 
      "inputs": [[973, 0, 0], [974, 0, 0]]
    }, 
    {
      "op": "SliceChannel", 
      "name": "encoder_birnn_reverse_l0_t6_slice", 
      "attrs": {"num_outputs": "4"}, 
      "inputs": [[975, 0, 0]]
    }, 
    {
      "op": "Activation", 
      "name": "encoder_birnn_reverse_l0_t6_o", 
      "attrs": {"act_type": "sigmoid"}, 
      "inputs": [[976, 3, 0]]
    }, 
    {
      "op": "Activation", 
      "name": "encoder_birnn_reverse_l0_t6_f", 
      "attrs": {"act_type": "sigmoid"}, 
      "inputs": [[976, 1, 0]]
    }, 
    {
      "op": "elemwise_mul", 
      "name": "_mul134", 
      "inputs": [[978, 0, 0], [969, 0, 0]]
    }, 
    {
      "op": "Activation", 
      "name": "encoder_birnn_reverse_l0_t6_i", 
      "attrs": {"act_type": "sigmoid"}, 
      "inputs": [[976, 0, 0]]
    }, 
    {
      "op": "Activation", 
      "name": "encoder_birnn_reverse_l0_t6_c", 
      "attrs": {"act_type": "tanh"}, 
      "inputs": [[976, 2, 0]]
    }, 
    {
      "op": "elemwise_mul", 
      "name": "_mul135", 
      "inputs": [[980, 0, 0], [981, 0, 0]]
    }, 
    {
      "op": "elemwise_add", 
      "name": "encoder_birnn_reverse_l0_t6_state", 
      "inputs": [[979, 0, 0], [982, 0, 0]]
    }, 
    {
      "op": "Activation", 
      "name": "activation67", 
      "attrs": {"act_type": "tanh"}, 
      "inputs": [[983, 0, 0]]
    }, 
    {
      "op": "elemwise_mul", 
      "name": "encoder_birnn_reverse_l0_t6_out", 
      "inputs": [[977, 0, 0], [984, 0, 0]]
    }, 
    {
      "op": "expand_dims", 
      "name": "expand_dims67", 
      "attrs": {"axis": "0"}, 
      "inputs": [[985, 0, 0]]
    }, 
    {
      "op": "FullyConnected", 
      "name": "encoder_birnn_reverse_l0_t7_i2h", 
      "attrs": {"num_hidden": "512"}, 
      "inputs": [[882, 7, 0], [883, 0, 0], [884, 0, 0]]
    }, 
    {
      "op": "FullyConnected", 
      "name": "encoder_birnn_reverse_l0_t7_h2h", 
      "attrs": {"num_hidden": "512"}, 
      "inputs": [[985, 0, 0], [887, 0, 0], [888, 0, 0]]
    }, 
    {
      "op": "elemwise_add", 
      "name": "_plus68", 
      "inputs": [[987, 0, 0], [988, 0, 0]]
    }, 
    {
      "op": "SliceChannel", 
      "name": "encoder_birnn_reverse_l0_t7_slice", 
      "attrs": {"num_outputs": "4"}, 
      "inputs": [[989, 0, 0]]
    }, 
    {
      "op": "Activation", 
      "name": "encoder_birnn_reverse_l0_t7_o", 
      "attrs": {"act_type": "sigmoid"}, 
      "inputs": [[990, 3, 0]]
    }, 
    {
      "op": "Activation", 
      "name": "encoder_birnn_reverse_l0_t7_f", 
      "attrs": {"act_type": "sigmoid"}, 
      "inputs": [[990, 1, 0]]
    }, 
    {
      "op": "elemwise_mul", 
      "name": "_mul136", 
      "inputs": [[992, 0, 0], [983, 0, 0]]
    }, 
    {
      "op": "Activation", 
      "name": "encoder_birnn_reverse_l0_t7_i", 
      "attrs": {"act_type": "sigmoid"}, 
      "inputs": [[990, 0, 0]]
    }, 
    {
      "op": "Activation", 
      "name": "encoder_birnn_reverse_l0_t7_c", 
      "attrs": {"act_type": "tanh"}, 
      "inputs": [[990, 2, 0]]
    }, 
    {
      "op": "elemwise_mul", 
      "name": "_mul137", 
      "inputs": [[994, 0, 0], [995, 0, 0]]
    }, 
    {
      "op": "elemwise_add", 
      "name": "encoder_birnn_reverse_l0_t7_state", 
      "inputs": [[993, 0, 0], [996, 0, 0]]
    }, 
    {
      "op": "Activation", 
      "name": "activation68", 
      "attrs": {"act_type": "tanh"}, 
      "inputs": [[997, 0, 0]]
    }, 
    {
      "op": "elemwise_mul", 
      "name": "encoder_birnn_reverse_l0_t7_out", 
      "inputs": [[991, 0, 0], [998, 0, 0]]
    }, 
    {
      "op": "expand_dims", 
      "name": "expand_dims68", 
      "attrs": {"axis": "0"}, 
      "inputs": [[999, 0, 0]]
    }, 
    {
      "op": "FullyConnected", 
      "name": "encoder_birnn_reverse_l0_t8_i2h", 
      "attrs": {"num_hidden": "512"}, 
      "inputs": [[882, 8, 0], [883, 0, 0], [884, 0, 0]]
    }, 
    {
      "op": "FullyConnected", 
      "name": "encoder_birnn_reverse_l0_t8_h2h", 
      "attrs": {"num_hidden": "512"}, 
      "inputs": [[999, 0, 0], [887, 0, 0], [888, 0, 0]]
    }, 
    {
      "op": "elemwise_add", 
      "name": "_plus69", 
      "inputs": [[1001, 0, 0], [1002, 0, 0]]
    }, 
    {
      "op": "SliceChannel", 
      "name": "encoder_birnn_reverse_l0_t8_slice", 
      "attrs": {"num_outputs": "4"}, 
…
    2614, 
    2615, 
    2619, 
    2620, 
    2621, 
    2622, 
    2623, 
    2624, 
    2625, 
    2626, 
    2627, 
    2628, 
    2629, 
    2630, 
    2631, 
    2632, 
    2636, 
    2637, 
    2638, 
    2639, 
    2640, 
    2641, 
    2642, 
    2643, 
    2644, 
    2645, 
    2646, 
    2647, 
    2648, 
    2652, 
    2653, 
    2654, 
    2655, 
    2656, 
    2657, 
    2658, 
    2659, 
    2660, 
    2661, 
    2662, 
    2663, 
    2664, 
    2665, 
    2669, 
    2670, 
    2671, 
    2672, 
    2673, 
    2674, 
    2675, 
    2676, 
    2677, 
    2678, 
    2679, 
    2680, 
    2681, 
    2685, 
    2686, 
    2687, 
    2688, 
    2689, 
    2690, 
    2691, 
    2692, 
    2693, 
    2694, 
    2695, 
    2696, 
    2697, 
    2698, 
    2702, 
    2703, 
    2704, 
    2705, 
    2706, 
    2707, 
    2708, 
    2709, 
    2710, 
    2711, 
    2712, 
    2713, 
    2714, 
    2718, 
    2719, 
    2720, 
    2721, 
    2722, 
    2723, 
    2724, 
    2725, 
    2726, 
    2727, 
    2728, 
    2729, 
    2730, 
    2731, 
    2735, 
    2736, 
    2737, 
    2738, 
    2739, 
    2740, 
    2741, 
    2742, 
    2743, 
    2744, 
    2745, 
    2746, 
    2747, 
    2751, 
    2752, 
    2753, 
    2754, 
    2755, 
    2756, 
    2757, 
    2758, 
    2759, 
    2760, 
    2761, 
    2762, 
    2763, 
    2764, 
    2768, 
    2769, 
    2770, 
    2771, 
    2772, 
    2773, 
    2774, 
    2775, 
    2776, 
    2777, 
    2778, 
    2779, 
    2780, 
    2784, 
    2785, 
    2786, 
    2787, 
    2788, 
    2789, 
    2790, 
    2791, 
    2792, 
    2793, 
    2794, 
    2795, 
    2796, 
    2797, 
    2801, 
    2802, 
    2803, 
    2804, 
    2805, 
    2806, 
    2807, 
    2808, 
    2809, 
    2810, 
    2811, 
    2812, 
    2813, 
    2817, 
    2818, 
    2819, 
    2820, 
    2821, 
    2822, 
    2823, 
    2824, 
    2825, 
    2826, 
    2827, 
    2828, 
    2829, 
    2830, 
    2834, 
    2835, 
    2836, 
    2837, 
    2838, 
    2839, 
    2840, 
    2841, 
    2842, 
    2843, 
    2844, 
    2845, 
    2846, 
    2850, 
    2851, 
    2852, 
    2853, 
    2854, 
    2855, 
    2856, 
    2857, 
    2858, 
    2859, 
    2860, 
    2861, 
    2862, 
    2863, 
    2867, 
    2868, 
    2869, 
    2870, 
    2871, 
    2872, 
    2873, 
    2874, 
    2875, 
    2876, 
    2877, 
    2878, 
    2879, 
    2883, 
    2884, 
    2885, 
    2886, 
    2887, 
    2888, 
    2889, 
    2890, 
    2891, 
    2892, 
    2893, 
    2894, 
    2895, 
    2896, 
    2900, 
    2901, 
    2902, 
    2903, 
    2904, 
    2905, 
    2906, 
    2907, 
    2908, 
    2909, 
    2910, 
    2911, 
    2912, 
    2916, 
    2917, 
    2918, 
    2919, 
    2920, 
    2921, 
    2922, 
    2923, 
    2924, 
    2925, 
    2926, 
    2927, 
    2928, 
    2929, 
    2933, 
    2934, 
    2935, 
    2936, 
    2937, 
    2938, 
    2939, 
    2940, 
    2941, 
    2942, 
    2943, 
    2944, 
    2945, 
    2949, 
    2950, 
    2951, 
    2952, 
    2953, 
    2954, 
    2955, 
    2956, 
    2957, 
    2958, 
    2959, 
    2960, 
    2961, 
    2962, 
    2966, 
    2967, 
    2968, 
    2969, 
    2970, 
    2971, 
    2972, 
    2973, 
    2974, 
    2975, 
    2976, 
    2977, 
    2978, 
    2982, 
    2983, 
    2984, 
    2985, 
    2986, 
    2987, 
    2988, 
    2989, 
    2990, 
    2991, 
    2992, 
    2993, 
    2994, 
    2995, 
    2999, 
    3000, 
    3001, 
    3002, 
    3003, 
    3004, 
    3005, 
    3006, 
    3007, 
    3008, 
    3009, 
    3010, 
    3011, 
    3015, 
    3016, 
    3017, 
    3018, 
    3019, 
    3020, 
    3021, 
    3022, 
    3023, 
    3024, 
    3025, 
    3026, 
    3027, 
    3028, 
    3032, 
    3033, 
    3034, 
    3035, 
    3036, 
    3037, 
    3038, 
    3039, 
    3040, 
    3041, 
    3042, 
    3043, 
    3044, 
    3048, 
    3049, 
    3050, 
    3051, 
    3052, 
    3053, 
    3054, 
    3055, 
    3056, 
    3057, 
    3058, 
    3059, 
    3060, 
    3061, 
    3065, 
    3066, 
    3067, 
    3068, 
    3069, 
    3070, 
    3071, 
    3072, 
    3073, 
    3074, 
    3075, 
    3076, 
    3077, 
    3081, 
    3082, 
    3083, 
    3084, 
    3085, 
    3086, 
    3087, 
    3088, 
    3089, 
    3090, 
    3091, 
    3092, 
    3093, 
    3094, 
    3098, 
    3099, 
    3100, 
    3101, 
    3102, 
    3103, 
    3104, 
    3105, 
    3106, 
    3107, 
    3108, 
    3109, 
    3110, 
    3114, 
    3115, 
    3116, 
    3117, 
    3118, 
    3119, 
    3120, 
    3121, 
    3122, 
    3123, 
    3124, 
    3125, 
    3126, 
    3127, 
    3131, 
    3132, 
    3133, 
    3134, 
    3135, 
    3136, 
    3137, 
    3138, 
    3139, 
    3140, 
    3141, 
    3142, 
    3143, 
    3147, 
    3148, 
    3149, 
    3150, 
    3151, 
    3152, 
    3153, 
    3154, 
    3155, 
    3156, 
    3157, 
    3158, 
    3159, 
    3160, 
    3164, 
    3165, 
    3166, 
    3167, 
    3168, 
    3169, 
    3170, 
    3171, 
    3172, 
    3173, 
    3174, 
    3175, 
    3176, 
    3180, 
    3181, 
    3182, 
    3183, 
    3184, 
    3185, 
    3186, 
    3187, 
    3188, 
    3189, 
    3190, 
    3191, 
    3192, 
    3193, 
    3197, 
    3198, 
    3199, 
    3200, 
    3201, 
    3202, 
    3203, 
    3204, 
    3205, 
    3206, 
    3207, 
    3208, 
    3209, 
    3213, 
    3214, 
    3215, 
    3216, 
    3217, 
    3218, 
    3219, 
    3220, 
    3221, 
    3222, 
    3223, 
    3224, 
    3225, 
    3226, 
    3230, 
    3231, 
    3232, 
    3233, 
    3234, 
    3235, 
    3236, 
    3237, 
    3238, 
    3239, 
    3240, 
    3241, 
    3242, 
    3246, 
    3247, 
    3248, 
    3249, 
    3250, 
    3251, 
    3252, 
    3253, 
    3254, 
    3255, 
    3256, 
    3257, 
    3258, 
    3259, 
    3263, 
    3264, 
    3265, 
    3266, 
    3267, 
    3268, 
    3269, 
    3270, 
    3271, 
    3272, 
    3273, 
    3274, 
    3275, 
    3279, 
    3280, 
    3281, 
    3282, 
    3283, 
    3284, 
    3285, 
    3286, 
    3287, 
    3288, 
    3289, 
    3290, 
    3291, 
    3292, 
    3296, 
    3297, 
    3298, 
    3299, 
    3300, 
    3301, 
    3302, 
    3303, 
    3304, 
    3305, 
    3306, 
    3307, 
    3308, 
    3312, 
    3313, 
    3314, 
    3315, 
    3316, 
    3317, 
    3318, 
    3319, 
    3320, 
    3321, 
    3322, 
    3323, 
    3324, 
    3325, 
    3329, 
    3330, 
    3331, 
    3332, 
    3333, 
    3334, 
    3335, 
    3336, 
    3337, 
    3338, 
    3339, 
    3340, 
    3341, 
    3345, 
    3346, 
    3347, 
    3348, 
    3349, 
    3350, 
    3351, 
    3352, 
    3353, 
    3354, 
    3355, 
    3356, 
    3357, 
    3358, 
    3362, 
    3363, 
    3364, 
    3365, 
    3366, 
    3367, 
    3368, 
    3369, 
    3370, 
    3371, 
    3372, 
    3373, 
    3374, 
    3378, 
    3379, 
    3380, 
    3381, 
    3382, 
    3383, 
    3384, 
    3385, 
    3386, 
    3387, 
    3388, 
    3389, 
    3390, 
    3391, 
    3395, 
    3396, 
    3397, 
    3398, 
    3399, 
    3400, 
    3401, 
    3402, 
    3403, 
    3404, 
    3405, 
    3406, 
    3407, 
    3411, 
    3412, 
    3413, 
    3414, 
    3415, 
    3416, 
    3417, 
    3418, 
    3419, 
    3420, 
    3421, 
    3422, 
    3423, 
    3424, 
    3428, 
    3429, 
    3430, 
    3431, 
    3432, 
    3433, 
    3434, 
    3435, 
    3436, 
    3437, 
    3438, 
    3439, 
    3440, 
    3444, 
    3445, 
    3446, 
    3447, 
    3448, 
    3449, 
    3450, 
    3451, 
    3452, 
    3453, 
    3454, 
    3455, 
    3456, 
    3457, 
    3461, 
    3462, 
    3463, 
    3464, 
    3465, 
    3466, 
    3467, 
    3468, 
    3469, 
    3470, 
    3471, 
    3472, 
    3473, 
    3477, 
    3478, 
    3479, 
    3480, 
    3481, 
    3482, 
    3483, 
    3484, 
    3485, 
    3486, 
    3487, 
    3488, 
    3489, 
    3490, 
    3494, 
    3495, 
    3496, 
    3497, 
    3498, 
    3499, 
    3500, 
    3501, 
    3502, 
    3503, 
    3504, 
    3505, 
    3506, 
    3510, 
    3511, 
    3512, 
    3513, 
    3514, 
    3515, 
    3516, 
    3517, 
    3518, 
    3519, 
    3520, 
    3521, 
    3522, 
    3523, 
    3527, 
    3528, 
    3529, 
    3530, 
    3531, 
    3532, 
    3533, 
    3534, 
    3535, 
    3536, 
    3537, 
    3538, 
    3539, 
    3543, 
    3544, 
    3545, 
    3546, 
    3547, 
    3548, 
    3549, 
    3550, 
    3551, 
    3552, 
    3553, 
    3554, 
    3555, 
    3556, 
    3560, 
    3561, 
    3562, 
    3563, 
    3564, 
    3565, 
    3566, 
    3567, 
    3568, 
    3569, 
    3570, 
    3571, 
    3572, 
    3576, 
    3577, 
    3578, 
    3579, 
    3580, 
    3581, 
    3582, 
    3583, 
    3584, 
    3585, 
    3586, 
    3587, 
    3588, 
    3589, 
    3593, 
    3594, 
    3595, 
    3596, 
    3597, 
    3598, 
    3599, 
    3600, 
    3601, 
    3602, 
    3603, 
    3604, 
    3605, 
    3609, 
    3610, 
    3611, 
    3612, 
    3613, 
    3614, 
    3615, 
    3616, 
    3617, 
    3618, 
    3619, 
    3620, 
    3621, 
    3622, 
    3626, 
    3627, 
    3628, 
    3629, 
    3630, 
    3631, 
    3632, 
    3633, 
    3634, 
    3635, 
    3636, 
    3637, 
    3638, 
    3642, 
    3643, 
    3644, 
    3645, 
    3646, 
    3647, 
    3648, 
    3649, 
    3650, 
    3651, 
    3652, 
    3653, 
    3654, 
    3655, 
    3659, 
    3660, 
    3661, 
    3662, 
    3663, 
    3664, 
    3665, 
    3666, 
    3667, 
    3668, 
    3669, 
    3670, 
    3671, 
    3675, 
    3676, 
    3677, 
    3678, 
    3679, 
    3680, 
    3681, 
    3682, 
    3683, 
    3684, 
    3685, 
    3686, 
    3687, 
    3688, 
    3692, 
    3693, 
    3694, 
    3695, 
    3696, 
    3697, 
    3698, 
    3699, 
    3700, 
    3701, 
    3702, 
    3703, 
    3704, 
    3708, 
    3709, 
    3710, 
    3711, 
    3712, 
    3713, 
    3714, 
    3715, 
    3716, 
    3717, 
    3718, 
    3719, 
    3720, 
    3721, 
    3725, 
    3726, 
    3727, 
    3728, 
    3729, 
    3730, 
    3731, 
    3732, 
    3733, 
    3734, 
    3735, 
    3736, 
    3737, 
    3741, 
    3742, 
    3743, 
    3744, 
    3745, 
    3746, 
    3747, 
    3748, 
    3749, 
    3750, 
    3751, 
    3752, 
    3753, 
    3754, 
    3758, 
    3759, 
    3760, 
    3761, 
    3762, 
    3763, 
    3764, 
    3765, 
    3766, 
    3767, 
    3768, 
    3769, 
    3770, 
    3774, 
    3775, 
    3776, 
    3777, 
    3778, 
    3779, 
    3780, 
    3781, 
    3782, 
    3783, 
    3784, 
    3785, 
    3786, 
    3787, 
    3791, 
    3792, 
    3793, 
    3794, 
    3795, 
    3796, 
    3797, 
    3798, 
    3799, 
    3800, 
    3801, 
    3802, 
    3803, 
    3807, 
    3808, 
    3809, 
    3810, 
    3811, 
    3812, 
    3813, 
    3814, 
    3815, 
    3816, 
    3817, 
    3818, 
    3819, 
    3820, 
    3824, 
    3825, 
    3826, 
    3827, 
    3828, 
    3829, 
    3830, 
    3831, 
    3832, 
    3833, 
    3834, 
    3835, 
    3836, 
    3840, 
    3841, 
    3842, 
    3843, 
    3844, 
    3845, 
    3846, 
    3847, 
    3848, 
    3849, 
    3850, 
    3851, 
    3852, 
    3853, 
    3857, 
    3858, 
    3859, 
    3860, 
    3861, 
    3862, 
    3863, 
    3864, 
    3865, 
    3866, 
    3867, 
    3868, 
    3869, 
    3873, 
    3874, 
    3875, 
    3876, 
    3877, 
    3878, 
    3879, 
    3880, 
    3881, 
    3882, 
    3883, 
    3884, 
    3885, 
    3886, 
    3890, 
    3891, 
    3892, 
    3893, 
    3894, 
    3895, 
    3896, 
    3897, 
    3898, 
    3899, 
    3900, 
    3901, 
    3902, 
    3906, 
    3907, 
    3908, 
    3909, 
    3910, 
    3911, 
    3912, 
    3913, 
    3914, 
    3915, 
    3916, 
    3917, 
    3918, 
    3919, 
    3923, 
    3924, 
    3925, 
    3926, 
    3927, 
    3928, 
    3929, 
    3930, 
    3931, 
    3932, 
    3933, 
    3934, 
    3935, 
    3939, 
    3940, 
    3941, 
    3942, 
    3943, 
    3944, 
    3945, 
    3946, 
    3947, 
    3948, 
    3949, 
    3950, 
    3951, 
    3952, 
    3956, 
    3957, 
    3958, 
    3959, 
    3960, 
    3961, 
    3962, 
    3963, 
    3964, 
    3965, 
    3966, 
    3967, 
    3968, 
    3972, 
    3973, 
    3974, 
    3975, 
    3976, 
    3977, 
    3978, 
    3979, 
    3980, 
    3981, 
    3982, 
    3983, 
    3984, 
    3985, 
    3989, 
    3990, 
    3991, 
    3992, 
    3993, 
    3994, 
    3995, 
    3996, 
    3997, 
    3998, 
    3999, 
    4000, 
    4001, 
    4005, 
    4006, 
    4007, 
    4008, 
    4009, 
    4010, 
    4011, 
    4012, 
    4013, 
    4014, 
    4015, 
    4016, 
    4017, 
    4018, 
    4022, 
    4023, 
    4024, 
    4025, 
    4026, 
    4027, 
    4028, 
    4029, 
    4030, 
    4031, 
    4032, 
    4033, 
    4034, 
    4038, 
    4039, 
    4040, 
    4041, 
    4042, 
    4043, 
    4044, 
    4045, 
    4046, 
    4047, 
    4048, 
    4049, 
    4050, 
    4051, 
    4055, 
    4056, 
    4057, 
    4058, 
    4059, 
    4060, 
    4061, 
    4062, 
    4063, 
    4064, 
    4065, 
    4066, 
    4067, 
    4071, 
    4072, 
    4073, 
    4074, 
    4075, 
    4076, 
    4077, 
    4078, 
    4079, 
    4080, 
    4081, 
    4082, 
    4083, 
    4084, 
    4088, 
    4089, 
    4090, 
    4091, 
    4092, 
    4093, 
    4094, 
    4095, 
    4096, 
    4097, 
    4098, 
    4099, 
    4100, 
    4104, 
    4105, 
    4106, 
    4107, 
    4108, 
    4109, 
    4110, 
    4111, 
    4112, 
    4113, 
    4114, 
    4115, 
    4116, 
    4117, 
    4121, 
    4122, 
    4123, 
    4124, 
    4125, 
    4126, 
    4127, 
    4128, 
    4129, 
    4130, 
    4131, 
    4132, 
    4133, 
    4137, 
    4138, 
    4139, 
    4140, 
    4141, 
    4142, 
    4143, 
    4144, 
    4145, 
    4146, 
    4147, 
    4148, 
    4149, 
    4150, 
    4154, 
    4155, 
    4156, 
    4157, 
    4158, 
    4159, 
    4160, 
    4161, 
    4162, 
    4163, 
    4164, 
    4165, 
    4166, 
    4170, 
    4171, 
    4172, 
    4173, 
    4174, 
    4175, 
    4176, 
    4177, 
    4178, 
    4179, 
    4180, 
    4181, 
    4182, 
    4183, 
    4187, 
    4188, 
    4189, 
    4190, 
    4191, 
    4192, 
    4193, 
    4194, 
    4195, 
    4196, 
    4197, 
    4198, 
    4199, 
    4203, 
    4204, 
    4205, 
    4206, 
    4207, 
    4208, 
    4209, 
    4210, 
    4211, 
    4212, 
    4213, 
    4214, 
    4215, 
    4216, 
    4220, 
    4221, 
    4222, 
    4223, 
    4224, 
    4225, 
    4226, 
    4227, 
    4228, 
    4229, 
    4230, 
    4231, 
    4232, 
    4236, 
    4237, 
    4238, 
    4239, 
    4240, 
    4241, 
    4242, 
    4243, 
    4244, 
    4245, 
    4246, 
    4247, 
    4248, 
    4249, 
    4253, 
    4254, 
    4255, 
    4256, 
    4257, 
    4258, 
    4259, 
    4260, 
    4261, 
    4262, 
    4263, 
    4264, 
    4265, 
    4269, 
    4270, 
    4271, 
    4272, 
    4273, 
    4274, 
    4275, 
    4276, 
    4277, 
    4278, 
    4279, 
    4280, 
    4281, 
    4282, 
    4286, 
    4287, 
    4288, 
    4289, 
    4290, 
    4291, 
    4292, 
    4293, 
    4294, 
    4295, 
    4296, 
    4297, 
    4298, 
    4302, 
    4303, 
    4304, 
    4305, 
    4306, 
    4307, 
    4308, 
    4309, 
    4310, 
    4311, 
    4312, 
    4313, 
    4314, 
    4315, 
    4319, 
    4320, 
    4321, 
    4322, 
    4323, 
    4324, 
    4325, 
    4326, 
    4327, 
    4328, 
    4329, 
    4330, 
    4331, 
    4335, 
    4336, 
    4337, 
    4338, 
    4339, 
    4340, 
    4341, 
    4342, 
    4343, 
    4344, 
    4345, 
    4346, 
    4347, 
    4348, 
    4352, 
    4353, 
    4354, 
    4355, 
    4356, 
    4357, 
    4358, 
    4359, 
    4360, 
    4361, 
    4362, 
    4363, 
    4364, 
    4368, 
    4369, 
    4370, 
    4371, 
    4372, 
    4373, 
    4374, 
    4375, 
    4376, 
    4377, 
    4378, 
    4379, 
    4380, 
    4381, 
    4382, 
    4383, 
    4384, 
    4385, 
    4386, 
    4387, 
    4388, 
    4389, 
    4393, 
    4394, 
    4395, 
    4396, 
    4397, 
    4398, 
    4399, 
    4400, 
    4401, 
    4402, 
    4403, 
    4404, 
    4405, 
    4406, 
    4407, 
    4408, 
    4409, 
    4410, 
    4411, 
    4412, 
    4413, 
    4414, 
    4415, 
    4416, 
    4417, 
    4421, 
    4422, 
    4423, 
    4424, 
    4425, 
    4426, 
    4427, 
    4428, 
    4429, 
    4430, 
    4431, 
    4432, 
    4433, 
    4434, 
    4435, 
    4436, 
    4437, 
    4438, 
    4439, 
    4440, 
    4441, 
    4442, 
    4443, 
    4444, 
    4445, 
    4449, 
    4450, 
    4451, 
    4452, 
    4453, 
    4454, 
    4455, 
    4456, 
    4457, 
    4458, 
    4459, 
    4460, 
    4461, 
    4462, 
    4463, 
    4464, 
    4465, 
    4466, 
    4467, 
    4468, 
    4469, 
    4471, 
    4472, 
    4473, 
    4474, 
    4475, 
    4476, 
    4477, 
    4478, 
    4479, 
    4483, 
    4484, 
    4485, 
    4486, 
    4487, 
    4488, 
    4489, 
    4490, 
    4491, 
    4492, 
    4493, 
    4494, 
    4495, 
    4499, 
    4500, 
    4501, 
    4502, 
    4503, 
    4504, 
    4505, 
    4506, 
    4507, 
    4508, 
    4509, 
    4510, 
    4511, 
    4515, 
    4516, 
    4517, 
    4518, 
    4519, 
    4520, 
    4521, 
    4522, 
    4523, 
    4524, 
    4525, 
    4526, 
    4527, 
    4528, 
    4529, 
    4530, 
    4531, 
    4533, 
    4534, 
    4535, 
    4536, 
    4537, 
    4538, 
    4539, 
    4543, 
    4544, 
    4545, 
    4546, 
    4547, 
    4548, 
    4549, 
    4550, 
    4551, 
    4552, 
    4553, 
    4554, 
    4555, 
    4559, 
    4560, 
    4561, 
    4562, 
    4563, 
    4564, 
    4565, 
    4566, 
    4567, 
    4568, 
    4569, 
    4570, 
    4571, 
    4575, 
    4576, 
    4577, 
    4578, 
    4579, 
    4580, 
    4581, 
    4582, 
    4583, 
    4584, 
    4585, 
    4586, 
    4587, 
    4588, 
    4589, 
    4590, 
    4591, 
    4593, 
    4594, 
    4595, 
    4596, 
    4597, 
    4598, 
    4599, 
    4603, 
    4604, 
    4605, 
    4606, 
    4607, 
    4608, 
    4609, 
    4610, 
    4611, 
    4612, 
    4613, 
    4614, 
    4615, 
    4619, 
    4620, 
    4621, 
    4622, 
    4623, 
    4624, 
    4625, 
    4626, 
    4627, 
    4628, 
    4629, 
    4630, 
    4631, 
    4635, 
    4636, 
    4637, 
    4638, 
    4639, 
    4640, 
    4641, 
    4642, 
    4643, 
    4644, 
    4645, 
    4646, 
    4647, 
    4648, 
    4649, 
    4650, 
    4651, 
    4653, 
    4654, 
    4655, 
    4656, 
    4657, 
    4658, 
    4659, 
    4663, 
    4664, 
    4665, 
    4666, 
    4667, 
    4668, 
    4669, 
    4670, 
    4671, 
    4672, 
    4673, 
    4674, 
    4675, 
    4679, 
    4680, 
    4681, 
    4682, 
    4683, 
    4684, 
    4685, 
    4686, 
    4687, 
    4688, 
    4689, 
    4690, 
    4691, 
    4695, 
    4696, 
    4697, 
    4698, 
    4699, 
    4700, 
    4701, 
    4702, 
    4703, 
    4704, 
    4705, 
    4706, 
    4707, 
    4708, 
    4709, 
    4710, 
    4711, 
    4713, 
    4714, 
    4715, 
    4716, 
    4717, 
    4718, 
    4719, 
    4723, 
    4724, 
    4725, 
    4726, 
    4727, 
    4728, 
    4729, 
    4730, 
    4731, 
    4732, 
    4733, 
    4734, 
    4735, 
    4739, 
    4740, 
    4741, 
    4742, 
    4743, 
    4744, 
    4745, 
    4746, 
    4747, 
    4748, 
    4749, 
    4750, 
    4751, 
    4755, 
    4756, 
    4757, 
    4758, 
    4759, 
    4760, 
    4761, 
    4762, 
    4763, 
    4764, 
    4765, 
    4766, 
    4767, 
    4768, 
    4769, 
    4770, 
    4771, 
    4773, 
    4774, 
    4775, 
    4776, 
    4777, 
    4778, 
    4779, 
    4783, 
    4784, 
    4785, 
    4786, 
    4787, 
    4788, 
    4789, 
    4790, 
    4791, 
    4792, 
    4793, 
    4794, 
    4795, 
    4799, 
    4800, 
    4801, 
    4802, 
    4803, 
    4804, 
    4805, 
    4806, 
    4807, 
    4808, 
    4809, 
    4810, 
    4811, 
    4815, 
    4816, 
    4817, 
    4818, 
    4819, 
    4820, 
    4821, 
    4822, 
    4823, 
    4824, 
    4825, 
    4826, 
    4827, 
    4828, 
    4829, 
    4830, 
    4831, 
    4833, 
    4834, 
    4835, 
    4836, 
    4837, 
    4838, 
    4839, 
    4843, 
    4844, 
    4845, 
    4846, 
    4847, 
    4848, 
    4849, 
    4850, 
    4851, 
    4852, 
    4853, 
    4854, 
    4855, 
    4859, 
    4860, 
    4861, 
    4862, 
    4863, 
    4864, 
    4865, 
    4866, 
    4867, 
    4868, 
    4869, 
    4870, 
    4871, 
    4875, 
    4876, 
    4877, 
    4878, 
    4879, 
    4880, 
    4881, 
    4882, 
    4883, 
    4884, 
    4885, 
    4886, 
    4887, 
    4888, 
    4889, 
    4890, 
    4891, 
    4893, 
    4894, 
    4895, 
    4896, 
    4897, 
    4898, 
    4899, 
    4903, 
    4904, 
    4905, 
    4906, 
    4907, 
    4908, 
    4909, 
    4910, 
    4911, 
    4912, 
    4913, 
    4914, 
    4915, 
    4919, 
    4920, 
    4921, 
    4922, 
    4923, 
    4924, 
    4925, 
    4926, 
    4927, 
    4928, 
    4929, 
    4930, 
    4931, 
    4935, 
    4936, 
    4937, 
    4938, 
    4939, 
    4940, 
    4941, 
    4942, 
    4943, 
    4944, 
    4945, 
    4946, 
    4947, 
    4948, 
    4949, 
    4950, 
    4951, 
    4953, 
    4954, 
    4955, 
    4956, 
    4957, 
    4958, 
    4959, 
    4963, 
    4964, 
    4965, 
    4966, 
    4967, 
    4968, 
    4969, 
    4970, 
    4971, 
    4972, 
    4973, 
    4974, 
    4975, 
    4979, 
    4980, 
    4981, 
    4982, 
    4983, 
    4984, 
    4985, 
    4986, 
    4987, 
    4988, 
    4989, 
    4990, 
    4991, 
    4995, 
    4996, 
    4997, 
    4998, 
    4999, 
    5000, 
    5001, 
    5002, 
    5003, 
    5004, 
    5005, 
    5006, 
    5007, 
    5008, 
    5009, 
    5010, 
    5011, 
    5013, 
    5014, 
    5015, 
    5016, 
    5017, 
    5018, 
    5019, 
    5023, 
    5024, 
    5025, 
    5026, 
    5027, 
    5028, 
    5029, 
    5030, 
    5031, 
    5032, 
    5033, 
    5034, 
    5035, 
    5039, 
    5040, 
    5041, 
    5042, 
    5043, 
    5044, 
    5045, 
    5046, 
    5047, 
    5048, 
    5049, 
    5050, 
    5051, 
    5055, 
    5056, 
    5057, 
    5058, 
    5059, 
    5060, 
    5061, 
    5062, 
    5063, 
    5064, 
    5065, 
    5066, 
    5067, 
    5068, 
    5069, 
    5070, 
    5071, 
    5073, 
    5074, 
    5075, 
    5076, 
    5077, 
    5078, 
    5079, 
    5083, 
    5084, 
    5085, 
    5086, 
    5087, 
    5088, 
    5089, 
    5090, 
    5091, 
    5092, 
    5093, 
    5094, 
    5095, 
    5099, 
    5100, 
    5101, 
    5102, 
    5103, 
    5104, 
    5105, 
    5106, 
    5107, 
    5108, 
    5109, 
    5110, 
    5111, 
    5115, 
    5116, 
    5117, 
    5118, 
    5119, 
    5120, 
    5121, 
    5122, 
    5123, 
    5124, 
    5125, 
    5126, 
    5127, 
    5128, 
    5129, 
    5130, 
    5131, 
    5133, 
    5134, 
    5135, 
    5136, 
    5137, 
    5138, 
    5139, 
    5143, 
    5144, 
    5145, 
    5146, 
    5147, 
    5148, 
    5149, 
    5150, 
    5151, 
    5152, 
    5153, 
    5154, 
    5155, 
    5159, 
    5160, 
    5161, 
    5162, 
    5163, 
    5164, 
    5165, 
    5166, 
    5167, 
    5168, 
    5169, 
    5170, 
    5171, 
    5175, 
    5176, 
    5177, 
    5178, 
    5179, 
    5180, 
    5181, 
    5182, 
    5183, 
    5184, 
    5185, 
    5186, 
    5187, 
    5188, 
    5189, 
    5190, 
    5191, 
    5193, 
    5194, 
    5195, 
    5196, 
    5197, 
    5198, 
    5199, 
    5203, 
    5204, 
    5205, 
    5206, 
    5207, 
    5208, 
    5209, 
    5210, 
    5211, 
    5212, 
    5213, 
    5214, 
    5215, 
    5219, 
    5220, 
    5221, 
    5222, 
    5223, 
    5224, 
    5225, 
    5226, 
    5227, 
    5228, 
    5229, 
    5230, 
    5231, 
    5235, 
    5236, 
    5237, 
    5238, 
    5239, 
    5240, 
    5241, 
    5242, 
    5243, 
    5244, 
    5245, 
    5246, 
    5247, 
    5248, 
    5249, 
    5250, 
    5251, 
    5253, 
    5254, 
    5255, 
    5256, 
    5257, 
    5258, 
    5259, 
    5263, 
    5264, 
    5265, 
    5266, 
    5267, 
    5268, 
    5269, 
    5270, 
    5271, 
    5272, 
    5273, 
    5274, 
    5275, 
    5279, 
    5280, 
    5281, 
    5282, 
    5283, 
    5284, 
    5285, 
    5286, 
    5287, 
    5288, 
    5289, 
    5290, 
    5291, 
    5295, 
    5296, 
    5297, 
    5298, 
    5299, 
    5300, 
    5301, 
    5302, 
    5303, 
    5304, 
    5305, 
    5306, 
    5307, 
    5308, 
    5309, 
    5310, 
    5311, 
    5313, 
    5314, 
    5315, 
    5316, 
    5317, 
    5318, 
    5319, 
    5323, 
    5324, 
    5325, 
    5326, 
    5327, 
    5328, 
    5329, 
    5330, 
    5331, 
    5332, 
    5333, 
    5334, 
    5335, 
    5339, 
    5340, 
    5341, 
    5342, 
    5343, 
    5344, 
    5345, 
    5346, 
    5347, 
    5348, 
    5349, 
    5350, 
    5351, 
    5355, 
    5356, 
    5357, 
    5358, 
    5359, 
    5360, 
    5361, 
    5362, 
    5363, 
    5364, 
    5365, 
    5366, 
    5367, 
    5368, 
    5369, 
    5370, 
    5371, 
    5373, 
    5374, 
    5375, 
    5376, 
    5377, 
    5378, 
    5379, 
    5383, 
    5384, 
    5385, 
    5386, 
    5387, 
    5388, 
    5389, 
    5390, 
    5391, 
    5392, 
    5393, 
    5394, 
    5395, 
    5399, 
    5400, 
    5401, 
    5402, 
    5403, 
    5404, 
    5405, 
    5406, 
    5407, 
    5408, 
    5409, 
    5410, 
    5411, 
    5415, 
    5416, 
    5417, 
    5418, 
    5419, 
    5420, 
    5421, 
    5422, 
    5423, 
    5424, 
    5425, 
    5426, 
    5427, 
    5428, 
    5429, 
    5430, 
    5431, 
    5433, 
    5434, 
    5435, 
    5436, 
    5437, 
    5438, 
    5439, 
    5443, 
    5444, 
    5445, 
    5446, 
    5447, 
    5448, 
    5449, 
    5450, 
    5451, 
    5452, 
    5453, 
    5454, 
    5455, 
    5459, 
    5460, 
    5461, 
    5462, 
    5463, 
    5464, 
    5465, 
    5466, 
    5467, 
    5468, 
    5469, 
    5470, 
    5471, 
    5475, 
    5476, 
    5477, 
    5478, 
    5479, 
    5480, 
    5481, 
    5482, 
    5483, 
    5484, 
    5485, 
    5486, 
    5487, 
    5488, 
    5489, 
    5490, 
    5491, 
    5493, 
    5494, 
    5495, 
    5496, 
    5497, 
    5498, 
    5499, 
    5503, 
    5504, 
    5505, 
    5506, 
    5507, 
    5508, 
    5509, 
    5510, 
    5511, 
    5512, 
    5513, 
    5514, 
    5515, 
    5519, 
    5520, 
    5521, 
    5522, 
    5523, 
    5524, 
    5525, 
    5526, 
    5527, 
    5528, 
    5529, 
    5530, 
    5531, 
    5535, 
    5536, 
    5537, 
    5538, 
    5539, 
    5540, 
    5541, 
    5542, 
    5543, 
    5544, 
    5545, 
    5546, 
    5547, 
    5548, 
    5549, 
    5550, 
    5551, 
    5553, 
    5554, 
    5555, 
    5556, 
    5557, 
    5558, 
    5559, 
    5563, 
    5564, 
    5565, 
    5566, 
    5567, 
    5568, 
    5569, 
    5570, 
    5571, 
    5572, 
    5573, 
    5574, 
    5575, 
    5579, 
    5580, 
    5581, 
    5582, 
    5583, 
    5584, 
    5585, 
    5586, 
    5587, 
    5588, 
    5589, 
    5590, 
    5591, 
    5595, 
    5596, 
    5597, 
    5598, 
    5599, 
    5600, 
    5601, 
    5602, 
    5603, 
    5604, 
    5605, 
    5606, 
    5607, 
    5608, 
    5609, 
    5610, 
    5611, 
    5613, 
    5614, 
    5615, 
    5616, 
    5617, 
    5618, 
    5619, 
    5623, 
    5624, 
    5625, 
    5626, 
    5627, 
    5628, 
    5629, 
    5630, 
    5631, 
    5632, 
    5633, 
    5634, 
    5635, 
    5639, 
    5640, 
    5641, 
    5642, 
    5643, 
    5644, 
    5645, 
    5646, 
    5647, 
    5648, 
    5649, 
    5650, 
    5651, 
    5655, 
    5656, 
    5657, 
    5658, 
    5659, 
    5660, 
    5661, 
    5662, 
    5663, 
    5664, 
    5665, 
    5666, 
    5667, 
    5668, 
    5669, 
    5670, 
    5671, 
    5673, 
    5674, 
    5675, 
    5676, 
    5677, 
    5678, 
    5679, 
    5683, 
    5684, 
    5685, 
    5686, 
    5687, 
    5688, 
    5689, 
    5690, 
    5691, 
    5692, 
    5693, 
    5694, 
    5695, 
    5699, 
    5700, 
    5701, 
    5702, 
    5703, 
    5704, 
    5705, 
    5706, 
    5707, 
    5708, 
    5709, 
    5710, 
    5711, 
    5715, 
    5716, 
    5717, 
    5718, 
    5719, 
    5720, 
    5721, 
    5722, 
    5723, 
    5724, 
    5725, 
    5726, 
    5727, 
    5728, 
    5729, 
    5730, 
    5731, 
    5733, 
    5734, 
    5735, 
    5736, 
    5737, 
    5738, 
    5739, 
    5743, 
    5744, 
    5745, 
    5746, 
    5747, 
    5748, 
    5749, 
    5750, 
    5751, 
    5752, 
    5753, 
    5754, 
    5755, 
    5759, 
    5760, 
    5761, 
    5762, 
    5763, 
    5764, 
    5765, 
    5766, 
    5767, 
    5768, 
    5769, 
    5770, 
    5771, 
    5775, 
    5776, 
    5777, 
    5778, 
    5779, 
    5780, 
    5781, 
    5782, 
    5783, 
    5784, 
    5785, 
    5786, 
    5787, 
    5788, 
    5789, 
    5790, 
    5791, 
    5793, 
    5794, 
    5795, 
    5796, 
    5797, 
    5798, 
    5799, 
    5803, 
    5804, 
    5805, 
    5806, 
    5807, 
    5808, 
    5809, 
    5810, 
    5811, 
    5812, 
    5813, 
    5814, 
    5815, 
    5819, 
    5820, 
    5821, 
    5822, 
    5823, 
    5824, 
    5825, 
    5826, 
    5827, 
    5828, 
    5829, 
    5830, 
    5831, 
    5835, 
    5836, 
    5837, 
    5838, 
    5839, 
    5840, 
    5841, 
    5842, 
    5843, 
    5844, 
    5845, 
    5846, 
    5847, 
    5848, 
    5849, 
    5850, 
    5851, 
    5853, 
    5854, 
    5855, 
    5856, 
    5857, 
    5858, 
    5859, 
    5863, 
    5864, 
    5865, 
    5866, 
    5867, 
    5868, 
    5869, 
    5870, 
    5871, 
    5872, 
    5873, 
    5874, 
    5875, 
    5879, 
    5880, 
    5881, 
    5882, 
    5883, 
    5884, 
    5885, 
    5886, 
    5887, 
    5888, 
    5889, 
    5890, 
    5891, 
    5895, 
    5896, 
    5897, 
    5898, 
    5899, 
    5900, 
    5901, 
    5902, 
    5903, 
    5904, 
    5905, 
    5906, 
    5907, 
    5908, 
    5909, 
    5910, 
    5911, 
    5913, 
    5914, 
    5915, 
    5916, 
    5917, 
    5918, 
    5919, 
    5923, 
    5924, 
    5925, 
    5926, 
    5927, 
    5928, 
    5929, 
    5930, 
    5931, 
    5932, 
    5933, 
    5934, 
    5935, 
    5939, 
    5940, 
    5941, 
    5942, 
    5943, 
    5944, 
    5945, 
    5946, 
    5947, 
    5948, 
    5949, 
    5950, 
    5951, 
    5955, 
    5956, 
    5957, 
    5958, 
    5959, 
    5960, 
    5961, 
    5962, 
    5963, 
    5964, 
    5965, 
    5966, 
    5967, 
    5968, 
    5969, 
    5970, 
    5971, 
    5973, 
    5974, 
    5975, 
    5976, 
    5977, 
    5978, 
    5979, 
    5983, 
    5984, 
    5985, 
    5986, 
    5987, 
    5988, 
    5989, 
    5990, 
    5991, 
    5992, 
    5993, 
    5994, 
    5995, 
    5999, 
    6000, 
    6001, 
    6002, 
    6003, 
    6004, 
    6005, 
    6006, 
    6007, 
    6008, 
    6009, 
    6010, 
    6011, 
    6015, 
    6016, 
    6017, 
    6018, 
    6019, 
    6020, 
    6021, 
    6022, 
    6023, 
    6024, 
    6025, 
    6026, 
    6027, 
    6028, 
    6029, 
    6030, 
    6031, 
    6033, 
    6034, 
    6035, 
    6036, 
    6037, 
    6038, 
    6039, 
    6043, 
    6044, 
    6045, 
    6046, 
    6047, 
    6048, 
    6049, 
    6050, 
    6051, 
    6052, 
    6053, 
    6054, 
    6055, 
    6059, 
    6060, 
    6061, 
    6062, 
    6063, 
    6064, 
    6065, 
    6066, 
    6067, 
    6068, 
    6069, 
    6070, 
    6071, 
    6075, 
    6076, 
    6077, 
    6078, 
    6079, 
    6080, 
    6081, 
    6082, 
    6083, 
    6084, 
    6085, 
    6086, 
    6087, 
    6088, 
    6089, 
    6090, 
    6091, 
    6093, 
    6094, 
    6095, 
    6096, 
    6097, 
    6098, 
    6099, 
    6103, 
    6104, 
    6105, 
    6106, 
    6107, 
    6108, 
    6109, 
    6110, 
    6111, 
    6112, 
    6113, 
    6114, 
    6115, 
    6119, 
    6120, 
    6121, 
    6122, 
    6123, 
    6124, 
    6125, 
    6126, 
    6127, 
    6128, 
    6129, 
    6130, 
    6131, 
    6135, 
    6136, 
    6137, 
    6138, 
    6139, 
    6140, 
    6141, 
    6142, 
    6143, 
    6144, 
    6145, 
    6146, 
    6147, 
    6148, 
    6149, 
    6150, 
    6151, 
    6153, 
    6154, 
    6155, 
    6156, 
    6157, 
    6158, 
    6159, 
    6163, 
    6164, 
    6165, 
    6166, 
    6167, 
    6168, 
    6169, 
    6170, 
    6171, 
    6172, 
    6173, 
    6174, 
    6175, 
    6179, 
    6180, 
    6181, 
    6182, 
    6183, 
    6184, 
    6185, 
    6186, 
    6187, 
    6188, 
    6189, 
    6190, 
    6191, 
    6195, 
    6196, 
    6197, 
    6198, 
    6199, 
    6200, 
    6201, 
    6202, 
    6203, 
    6204, 
    6205, 
    6206, 
    6207, 
    6208, 
    6209, 
    6210, 
    6211, 
    6213, 
    6214, 
    6215, 
    6216, 
    6217, 
    6218, 
    6219, 
    6223, 
    6224, 
    6225, 
    6226, 
    6227, 
    6228, 
    6229, 
    6230, 
    6231, 
    6232, 
    6233, 
    6234, 
    6235, 
    6239, 
    6240, 
    6241, 
    6242, 
    6243, 
    6244, 
    6245, 
    6246, 
    6247, 
    6248, 
    6249, 
    6250, 
    6251, 
    6255, 
    6256, 
    6257, 
    6258, 
    6259, 
    6260, 
    6261, 
    6262, 
    6263, 
    6264, 
    6265, 
    6266, 
    6267, 
    6268, 
    6269, 
    6270, 
    6271, 
    6273, 
    6274, 
    6275, 
    6276, 
    6277, 
    6278, 
    6279, 
    6283, 
    6284, 
    6285, 
    6286, 
    6287, 
    6288, 
    6289, 
    6290, 
    6291, 
    6292, 
    6293, 
    6294, 
    6295, 
    6299, 
    6300, 
    6301, 
    6302, 
    6303, 
    6304, 
    6305, 
    6306, 
    6307, 
    6308, 
    6309, 
    6310, 
    6311, 
    6315, 
    6316, 
    6317, 
    6318, 
    6319, 
    6320, 
    6321, 
    6322, 
    6323, 
    6324, 
    6325, 
    6326, 
    6327, 
    6328, 
    6329, 
    6330, 
    6331, 
    6333, 
    6334, 
    6335, 
    6336, 
    6337, 
    6338, 
    6339, 
    6343, 
    6344, 
    6345, 
    6346, 
    6347, 
    6348, 
    6349, 
    6350, 
    6351, 
    6352, 
    6353, 
    6354, 
    6355, 
    6359, 
    6360, 
    6361, 
    6362, 
    6363, 
    6364, 
    6365, 
    6366, 
    6367, 
    6368, 
    6369, 
    6370, 
    6371, 
    6375, 
    6376, 
    6377, 
    6378, 
    6379, 
    6380, 
    6381, 
    6382, 
    6383, 
    6384, 
    6385, 
    6386, 
    6387, 
    6388, 
    6389, 
    6390, 
    6391, 
    6393, 
    6394, 
    6395, 
    6396, 
    6397, 
    6398, 
    6399, 
    6403, 
    6404, 
    6405, 
    6406, 
    6407, 
    6408, 
    6409, 
    6410, 
    6411, 
    6412, 
    6413, 
    6414, 
    6415, 
    6419, 
    6420, 
    6421, 
    6422, 
    6423, 
    6424, 
    6425, 
    6426, 
    6427, 
    6428, 
    6429, 
    6430, 
    6431, 
    6435, 
    6436, 
    6437, 
    6438, 
    6439, 
    6440, 
    6441, 
    6442, 
    6443, 
    6444, 
    6445, 
    6446, 
    6447, 
    6448, 
    6449, 
    6450, 
    6451, 
    6453, 
    6454, 
    6455, 
    6456, 
    6457, 
    6458, 
    6459, 
    6463, 
    6464, 
    6465, 
    6466, 
    6467, 
    6468, 
    6469, 
    6470, 
    6471, 
    6472, 
    6473, 
    6474, 
    6475, 
    6479, 
    6480, 
    6481, 
    6482, 
    6483, 
    6484, 
    6485, 
    6486, 
    6487, 
    6488, 
    6489, 
    6490, 
    6491, 
    6495, 
    6496, 
    6497, 
    6498, 
    6499, 
    6500, 
    6501, 
    6502, 
    6503, 
    6504, 
    6505, 
    6506, 
    6507, 
    6508, 
    6509, 
    6510, 
    6511, 
    6513, 
    6514, 
    6515, 
    6516, 
    6517, 
    6518, 
    6519, 
    6523, 
    6524, 
    6525, 
    6526, 
    6527, 
    6528, 
    6529, 
    6530, 
    6531, 
    6532, 
    6533, 
    6534, 
    6535, 
    6539, 
    6540, 
    6541, 
    6542, 
    6543, 
    6544, 
    6545, 
    6546, 
    6547, 
    6548, 
    6549, 
    6550, 
    6551, 
    6555, 
    6556, 
    6557, 
    6558, 
    6559, 
    6560, 
    6561, 
    6562, 
    6563, 
    6564, 
    6565, 
    6566, 
    6567, 
    6568, 
    6569, 
    6570, 
    6571, 
    6573, 
    6574, 
    6575, 
    6576, 
    6577, 
    6578, 
    6579, 
    6583, 
    6584, 
    6585, 
    6586, 
    6587, 
    6588, 
    6589, 
    6590, 
    6591, 
    6592, 
    6593, 
    6594, 
    6595, 
    6599, 
    6600, 
    6601, 
    6602, 
    6603, 
    6604, 
    6605, 
    6606, 
    6607, 
    6608, 
    6609, 
    6610, 
    6611, 
    6615, 
    6616, 
    6617, 
    6618, 
    6619, 
    6620, 
    6621, 
    6622, 
    6623, 
    6624, 
    6625, 
    6626, 
    6627, 
    6628, 
    6629, 
    6630, 
    6631, 
    6633, 
    6634, 
    6635, 
    6636, 
    6637, 
    6638, 
    6639, 
    6643, 
    6644, 
    6645, 
    6646, 
    6647, 
    6648, 
    6649, 
    6650, 
    6651, 
    6652, 
    6653, 
    6654, 
    6655, 
    6659, 
    6660, 
    6661, 
    6662, 
    6663, 
    6664, 
    6665, 
    6666, 
    6667, 
    6668, 
    6669, 
    6670, 
    6671, 
    6675, 
    6676, 
    6677, 
    6678, 
    6679, 
    6680, 
    6681, 
    6682, 
    6683, 
    6684, 
    6685, 
    6686, 
    6687, 
    6688, 
    6689, 
    6690, 
    6691, 
    6693, 
    6694, 
    6695, 
    6696, 
    6697, 
    6698, 
    6699, 
    6703, 
    6704, 
    6705, 
    6706, 
    6707, 
    6708, 
    6709, 
    6710, 
    6711, 
    6712, 
    6713, 
    6714, 
    6715, 
    6719, 
    6720, 
    6721, 
    6722, 
    6723, 
    6724, 
    6725, 
    6726, 
    6727, 
    6728, 
    6729, 
    6730, 
    6731, 
    6735, 
    6736, 
    6737, 
    6738, 
    6739, 
    6740, 
    6741, 
    6742, 
    6743, 
    6744, 
    6745, 
    6746, 
    6747, 
    6748, 
    6749, 
    6750, 
    6751, 
    6753, 
    6754, 
    6755, 
    6756, 
    6757, 
    6758, 
    6759, 
    6763, 
    6764, 
    6765, 
    6766, 
    6767, 
    6768, 
    6769, 
    6770, 
    6771, 
    6772, 
    6773, 
    6774, 
    6775, 
    6779, 
    6780, 
    6781, 
    6782, 
    6783, 
    6784, 
    6785, 
    6786, 
    6787, 
    6788, 
    6789, 
    6790, 
    6791, 
    6795, 
    6796, 
    6797, 
    6798, 
    6799, 
    6800, 
    6801, 
    6802, 
    6803, 
    6804, 
    6805, 
    6806, 
    6807, 
    6808, 
    6809, 
    6810, 
    6811, 
    6813, 
    6814, 
    6815, 
    6816, 
    6817, 
    6818, 
    6819, 
    6823, 
    6824, 
    6825, 
    6826, 
    6827, 
    6828, 
    6829, 
    6830, 
    6831, 
    6832, 
    6833, 
    6834, 
    6835, 
    6839, 
    6840, 
    6841, 
    6842, 
    6843, 
    6844, 
    6845, 
    6846, 
    6847, 
    6848, 
    6849, 
    6850, 
    6851, 
    6855, 
    6856, 
    6857, 
    6858, 
    6859, 
    6860, 
    6861, 
    6862, 
    6863, 
    6864, 
    6865, 
    6866, 
    6867, 
    6868, 
    6869, 
    6870, 
    6871, 
    6873, 
    6874, 
    6875, 
    6876, 
    6877, 
    6878, 
    6879, 
    6883, 
    6884, 
    6885, 
    6886, 
    6887, 
    6888, 
    6889, 
    6890, 
    6891, 
    6892, 
    6893, 
    6894, 
    6895, 
    6899, 
    6900, 
    6901, 
    6902, 
    6903, 
    6904, 
    6905, 
    6906, 
    6907, 
    6908, 
    6909, 
    6910, 
    6911, 
    6915, 
    6916, 
    6917, 
    6918, 
    6919, 
    6920, 
    6921, 
    6922, 
    6923, 
    6924, 
    6925, 
    6926, 
    6927, 
    6928, 
    6929, 
    6930, 
    6931, 
    6933, 
    6934, 
    6935, 
    6936, 
    6937, 
    6938, 
    6939, 
    6943, 
    6944, 
    6945, 
    6946, 
    6947, 
    6948, 
    6949, 
    6950, 
    6951, 
    6952, 
    6953, 
    6954, 
    6955, 
    6959, 
    6960, 
    6961, 
    6962, 
    6963, 
    6964, 
    6965, 
    6966, 
    6967, 
    6968, 
    6969, 
    6970, 
    6971, 
    6975, 
    6976, 
    6977, 
    6978, 
    6979, 
    6980, 
    6981, 
    6982, 
    6983, 
    6984, 
    6985, 
    6986, 
    6987, 
    6988, 
    6989, 
    6990, 
    6991, 
    6993, 
    6994, 
    6995, 
    6996, 
    6997, 
    6998, 
    6999, 
    7003, 
    7004, 
    7005, 
    7006, 
    7007, 
    7008, 
    7009, 
    7010, 
    7011, 
    7012, 
    7013, 
    7014, 
    7015, 
    7019, 
    7020, 
    7021, 
    7022, 
    7023, 
    7024, 
    7025, 
    7026, 
    7027, 
    7028, 
    7029, 
    7030, 
    7031, 
    7035, 
    7036, 
    7037, 
    7038, 
    7039, 
    7040, 
    7041, 
    7042, 
    7043, 
    7044, 
    7045, 
    7046, 
    7047, 
    7048, 
    7049, 
    7050, 
    7051, 
    7053, 
    7054, 
    7055, 
    7056, 
    7057, 
    7058, 
    7059, 
    7063, 
    7064, 
    7065, 
    7066, 
    7067, 
    7068, 
    7069, 
    7070, 
    7071, 
    7072, 
    7073, 
    7074, 
    7075, 
    7079, 
    7080, 
    7081, 
    7082, 
    7083, 
    7084, 
    7085, 
    7086, 
    7087, 
    7088, 
    7089, 
    7090, 
    7091, 
    7095, 
    7096, 
    7097, 
    7098, 
    7099, 
    7100, 
    7101, 
    7102, 
    7103, 
    7104, 
    7105, 
    7106, 
    7107, 
    7108, 
    7109, 
    7110, 
    7111, 
    7113, 
    7114, 
    7115, 
    7116, 
    7117, 
    7118, 
    7119, 
    7123, 
    7124, 
    7125, 
    7126, 
    7127, 
    7128, 
    7129, 
    7130, 
    7131, 
    7132, 
    7133, 
    7134, 
    7135, 
    7139, 
    7140, 
    7141, 
    7142, 
    7143, 
    7144, 
    7145, 
    7146, 
    7147, 
    7148, 
    7149, 
    7150, 
    7151, 
    7155, 
    7156, 
    7157, 
    7158, 
    7159, 
    7160, 
    7161, 
    7162, 
    7163, 
    7164, 
    7165, 
    7166, 
    7167, 
    7168, 
    7169, 
    7170, 
    7171, 
    7173, 
    7174, 
    7175, 
    7176, 
    7177, 
    7178, 
    7179, 
    7183, 
    7184, 
    7185, 
    7186, 
    7187, 
    7188, 
    7189, 
    7190, 
    7191, 
    7192, 
    7193, 
    7194, 
    7195, 
    7199, 
    7200, 
    7201, 
    7202, 
    7203, 
    7204, 
    7205, 
    7206, 
    7207, 
    7208, 
    7209, 
    7210, 
    7211, 
    7215, 
    7216, 
    7217, 
    7218, 
    7219, 
    7220, 
    7221, 
    7222, 
    7223, 
    7224, 
    7225, 
    7226, 
    7227, 
    7228, 
    7229, 
    7230, 
    7231, 
    7233, 
    7234, 
    7235, 
    7236, 
    7237, 
    7238, 
    7239, 
    7243, 
    7244, 
    7245, 
    7246, 
    7247, 
    7248, 
    7249, 
    7250, 
    7251, 
    7252, 
    7253, 
    7254, 
    7255, 
    7259, 
    7260, 
    7261, 
    7262, 
    7263, 
    7264, 
    7265, 
    7266, 
    7267, 
    7268, 
    7269, 
    7270, 
    7271, 
    7275, 
    7276, 
    7277, 
    7278, 
    7279, 
    7280, 
    7281, 
    7282, 
    7283, 
    7284, 
    7285, 
    7286, 
    7287, 
    7288, 
    7289, 
    7290, 
    7291, 
    7293, 
    7294, 
    7295, 
    7296, 
    7297, 
    7298, 
    7299, 
    7303, 
    7304, 
    7305, 
    7306, 
    7307, 
    7308, 
    7309, 
    7310, 
    7311, 
    7312, 
    7313, 
    7314, 
    7315, 
    7319, 
    7320, 
    7321, 
    7322, 
    7323, 
    7324, 
    7325, 
    7326, 
    7327, 
    7328, 
    7329, 
    7330, 
    7331, 
    7335, 
    7336, 
    7337, 
    7338, 
    7339, 
    7340, 
    7341, 
    7342, 
    7343, 
    7344, 
    7345, 
    7346, 
    7347, 
    7348, 
    7349, 
    7350, 
    7351, 
    7353, 
    7354, 
    7355, 
    7356, 
    7357, 
    7358, 
    7359, 
    7363, 
    7364, 
    7365, 
    7366, 
    7367, 
    7368, 
    7369, 
    7370, 
    7371, 
    7372, 
    7373, 
    7374, 
    7375, 
    7379, 
    7380, 
    7381, 
    7382, 
    7383, 
    7384, 
    7385, 
    7386, 
    7387, 
    7388, 
    7389, 
    7390, 
    7391, 
    7395, 
    7396, 
    7397, 
    7398, 
    7399, 
    7400, 
    7401, 
    7402, 
    7403, 
    7404, 
    7405, 
    7406, 
    7407, 
    7408, 
    7409, 
    7410, 
    7411, 
    7413, 
    7414, 
    7415, 
    7416, 
    7417, 
    7418, 
    7419, 
    7423, 
    7424, 
    7425, 
    7426, 
    7427, 
    7428, 
    7429, 
    7430, 
    7431, 
    7432, 
    7433, 
    7434, 
    7435, 
    7439, 
    7440, 
    7441, 
    7442, 
    7443, 
    7444, 
    7445, 
    7446, 
    7447, 
    7448, 
    7449, 
    7450, 
    7451, 
    7455, 
    7456, 
    7457, 
    7458, 
    7459, 
    7460, 
    7461, 
    7462, 
    7463, 
    7464, 
    7465, 
    7466, 
    7467, 
    7468, 
    7469, 
    7470, 
    7471, 
    7473, 
    7474, 
    7475, 
    7476, 
    7477, 
    7478, 
    7479, 
    7483, 
    7484, 
    7485, 
    7486, 
    7487, 
    7488, 
    7489, 
    7490, 
    7491, 
    7492, 
    7493, 
    7494, 
    7495, 
    7499, 
    7500, 
    7501, 
    7502, 
    7503, 
    7504, 
    7505, 
    7506, 
    7507, 
    7508, 
    7509, 
    7510, 
    7511, 
    7515, 
    7516, 
    7517, 
    7518, 
    7519, 
    7520, 
    7521, 
    7522, 
    7523, 
    7524, 
    7525, 
    7526, 
    7527, 
    7528, 
    7529, 
    7530, 
    7531, 
    7533, 
    7534, 
    7535, 
    7536, 
    7537, 
    7538, 
    7539, 
    7543, 
    7544, 
    7545, 
    7546, 
    7547, 
    7548, 
    7549, 
    7550, 
    7551, 
    7552, 
    7553, 
    7554, 
    7555, 
    7559, 
    7560, 
    7561, 
    7562, 
    7563, 
    7564, 
    7565, 
    7566, 
    7567, 
    7568, 
    7569, 
    7570, 
    7571, 
    7575, 
    7576, 
    7577, 
    7578, 
    7579, 
    7580, 
    7581, 
    7582, 
    7583, 
    7584, 
    7585, 
    7586, 
    7587, 
    7588, 
    7589, 
    7590, 
    7591, 
    7593, 
    7594, 
    7595, 
    7596, 
    7597, 
    7598, 
    7599, 
    7603, 
    7604, 
    7605, 
    7606, 
    7607, 
    7608, 
    7609, 
    7610, 
    7611, 
    7612, 
    7613, 
    7614, 
    7615, 
    7619, 
    7620, 
    7621, 
    7622, 
    7623, 
    7624, 
    7625, 
    7626, 
    7627, 
    7628, 
    7629, 
    7630, 
    7631, 
    7635, 
    7636, 
    7637, 
    7638, 
    7639, 
    7640, 
    7641, 
    7642, 
    7643, 
    7644, 
    7645, 
    7646, 
    7647, 
    7648, 
    7649, 
    7650, 
    7651, 
    7653, 
    7654, 
    7655, 
    7656, 
    7657, 
    7658, 
    7659, 
    7663, 
    7664, 
    7665, 
    7666, 
    7667, 
    7668, 
    7669, 
    7670, 
    7671, 
    7672, 
    7673, 
    7674, 
    7675, 
    7679, 
    7680, 
    7681, 
    7682, 
    7683, 
    7684, 
    7685, 
    7686, 
    7687, 
    7688, 
    7689, 
    7690, 
    7691, 
    7695, 
    7696, 
    7697, 
    7698, 
    7699, 
    7700, 
    7701, 
    7702, 
    7703, 
    7704, 
    7705, 
    7706, 
    7707, 
    7708, 
    7709, 
    7710, 
    7711, 
    7713, 
    7714, 
    7715, 
    7716, 
    7717, 
    7718, 
    7719, 
    7723, 
    7724, 
    7725, 
    7726, 
    7727, 
    7728, 
    7729, 
    7730, 
    7731, 
    7732, 
    7733, 
    7734, 
    7735, 
    7739, 
    7740, 
    7741, 
    7742, 
    7743, 
    7744, 
    7745, 
    7746, 
    7747, 
    7748, 
    7749, 
    7750, 
    7751, 
    7755, 
    7756, 
    7757, 
    7758, 
    7759, 
    7760, 
    7761, 
    7762, 
    7763, 
    7764, 
    7765, 
    7766, 
    7767, 
    7768, 
    7769, 
    7770, 
    7771, 
    7773, 
    7774, 
    7775, 
    7776, 
    7777, 
    7778, 
    7779, 
    7783, 
    7784, 
    7785, 
    7786, 
    7787, 
    7788, 
    7789, 
    7790, 
    7791, 
    7792, 
    7793, 
    7794, 
    7795, 
    7799, 
    7800, 
    7801, 
    7802, 
    7803, 
    7804, 
    7805, 
    7806, 
    7807, 
    7808, 
    7809, 
    7810, 
    7811, 
    7815, 
    7816, 
    7817, 
    7818, 
    7819, 
    7820, 
    7821, 
    7822, 
    7823, 
    7824, 
    7825, 
    7826, 
    7827, 
    7828, 
    7829, 
    7830, 
    7831, 
    7833, 
    7834, 
    7835, 
    7836, 
    7837, 
    7838, 
    7839, 
    7843, 
    7844, 
    7845, 
    7846, 
    7847, 
    7848, 
    7849, 
    7850, 
    7851, 
    7852, 
    7853, 
    7854, 
    7855, 
    7859, 
    7860, 
    7861, 
    7862, 
    7863, 
    7864, 
    7865, 
    7866, 
    7867, 
    7868, 
    7869, 
    7870, 
    7871, 
    7875, 
    7876, 
    7877, 
    7878, 
    7879, 
    7880, 
    7881, 
    7882, 
    7883, 
    7884, 
    7885, 
    7886, 
    7887, 
    7888, 
    7889, 
    7890, 
    7891, 
    7893, 
    7894, 
    7895, 
    7896, 
    7897, 
    7898, 
    7899, 
    7903, 
    7904, 
    7905, 
    7906, 
    7907, 
    7908, 
    7909, 
    7910, 
    7911, 
    7912, 
    7913, 
    7914, 
    7915, 
    7919, 
    7920, 
    7921, 
    7922, 
    7923, 
    7924, 
    7925, 
    7926, 
    7927, 
    7928, 
    7929, 
    7930, 
    7931, 
    7935, 
    7936, 
    7937, 
    7938, 
    7939, 
    7940, 
    7941, 
    7942, 
    7943, 
    7944, 
    7945, 
    7946, 
    7947, 
    7948, 
    7949, 
    7950, 
    7951, 
    7953, 
    7954, 
    7955, 
    7956, 
    7957, 
    7958, 
    7959, 
    7963, 
    7964, 
    7965, 
    7966, 
    7967, 
    7968, 
    7969, 
    7970, 
    7971, 
    7972, 
    7973, 
    7974, 
    7975, 
    7979, 
    7980, 
    7981, 
    7982, 
    7983, 
    7984, 
    7985, 
    7986, 
    7987, 
    7988, 
    7989, 
    7990, 
    7991, 
    7995, 
    7996, 
    7997, 
    7998, 
    7999, 
    8000, 
    8001, 
    8002, 
    8003, 
    8004, 
    8005, 
    8006, 
    8007, 
    8008, 
    8009, 
    8010, 
    8011, 
    8013, 
    8014, 
    8015, 
    8016, 
    8017, 
    8018, 
    8019, 
    8023, 
    8024, 
    8025, 
    8026, 
    8027, 
    8028, 
    8029, 
    8030, 
    8031, 
    8032, 
    8033, 
    8034, 
    8035, 
    8039, 
    8040, 
    8041, 
    8042, 
    8043, 
    8044, 
    8045, 
    8046, 
    8047, 
    8048, 
    8049, 
    8050, 
    8051, 
    8055, 
    8056, 
    8057, 
    8058, 
    8059, 
    8060, 
    8061, 
    8062, 
    8063, 
    8064, 
    8065, 
    8066, 
    8067, 
    8068, 
    8069, 
    8070, 
    8071, 
    8073, 
    8074, 
    8075, 
    8076, 
    8077, 
    8078, 
    8079, 
    8080, 
    8081, 
    8082, 
    8083
  ], 
  "heads": [[6500, 0, 0]], 
  "attrs": {"mxnet_version": ["int", 10400]}
}